models/-300000-trained_model-17-16_14.pth (torch, 79239 bytes, 6 tensors)

layer1.weight f4 [128, 14]
0	0x42a55ed6	82.68523
1	0x42a9986d	84.79771
2	0x42a7eecb	83.96639
3	0x42aaa38b	85.31942
4	0x42a564cb	82.69686
5	0x42ad4223	86.62917
6	0x42a480ca	82.25154
7	0x42a6567e	83.16893
8	0x42a5b973	82.862206
9	0x42a4874a	82.26424
10	0x42a489ea	82.26936
11	0x42a46bf2	82.21083
12	0x42a6e23c	83.441864
13	0x42a62550	83.072876
14	0x42a0ddf8	80.43353
15	0x42a4fa76	82.48918
16	0x42a50f65	82.53007
17	0x42a765ad	83.698586
18	0x42a0f04f	80.46935
19	0x42acb13b	86.34615
20	0x42a17faa	80.749344
21	0x42a4ff73	82.498924
22	0x42a33d1e	81.61937
23	0x42a35984	81.674835
24	0x42a10a08	80.51959
25	0x429fdfda	79.93721
26	0x42a50bd0	82.52307
27	0x42a2968e	81.29405
28	0x42a55cb8	82.68109
29	0x42a99441	84.78956
30	0x42a7e3c5	83.94486
31	0x42aa9cd5	85.30631
32	0x42a566f7	82.7011
33	0x42ad4223	86.62917
34	0x42a476a0	82.23169
35	0x42a65526	83.166306
36	0x42a5b188	82.84674
37	0x42a4747e	82.22752
38	0x42a48230	82.25427
39	0x42a46c7a	82.21187
40	0x42a6e050	83.43811
41	0x42a62036	83.06291
42	0x42a56156	82.69011
43	0x42a99641	84.793465
44	0x42a7f573	83.97939
45	0x42aaa0d9	85.314156
46	0x42a56579	82.69819
47	0x42ad4223	86.62917
48	0x42a48c54	82.27408
49	0x42a65a44	83.1763
50	0x42a5b254	82.8483
51	0x42a4755a	82.2292
52	0x42a48286	82.25493
53	0x42a464a8	82.196594
54	0x42a6de20	83.43384
55	0x42a6216c	83.06528
56	0x42a5636a	82.69417
57	0x42a994d8	84.79071
58	0x42a7d52d	83.91636
59	0x42aa9bb5	85.304115
60	0x42a559cb	82.67538
61	0x42ad4223	86.62917
62	0x42a43384	82.10062
63	0x42a65a54	83.17642
64	0x42a5a1c8	82.81598
65	0x42a45d44	82.18216
66	0x42a483ac	82.25717
67	0x42a468fe	82.20506
68	0x42a6d098	83.40741
69	0x42a5f240	82.973145
70	0x42a530c0	82.595215
71	0x42a963ba	84.69478
72	0x42a7d8d9	83.92353
73	0x42aa86b5	85.2631
74	0x42a5526b	82.66097
75	0x42ad4223	86.62917
76	0x42a487d2	82.265274
77	0x42a64c2e	83.14879
78	0x42a5b5d8	82.85516
79	0x42a48bde	82.27318
80	0x42a48ace	82.2711
81	0x42a43dde	82.120834
82	0x42a6a6bc	83.32565
83	0x42a6250c	83.07236
84	0x42a552c8	82.66168
85	0x42a98b2d	84.77183
86	0x42a7db9d	83.92893
87	0x42aa9d47	85.30718
88	0x42a55fc1	82.68702
89	0x42ad4223	86.62917
90	0x42a4909a	82.282425
91	0x42a65a62	83.17653
92	0x42a5a6da	82.82588
93	0x42a476fa	82.232376
94	0x42a4778e	82.233505
95	0x42a45304	82.16214
96	0x42a6e72c	83.45151
97	0x42a6264c	83.0748
98	0x42a53f1e	82.623276
99	0x42a971d8	84.72235
100	0x42a7da41	83.92628
101	0x42aa9e51	85.30921
102	0x42a55481	82.66505
103	0x42ad4223	86.62917
104	0x42a49334	82.287506
105	0x42a65766	83.1707
106	0x42a5b31e	82.84984
107	0x42a470e6	82.220505
108	0x42a48c8c	82.274506
109	0x42a46786	82.202194
110	0x42a6d1f4	83.410065
111	0x42a6264c	83.0748
112	0x42a56274	82.69229
113	0x42a993c4	84.788605
114	0x42a7d61f	83.918205
115	0x42aaa8c7	85.32964
116	0x42a5663d	82.699684
117	0x42ad4223	86.62917
118	0x42a47476	82.22746
119	0x42a65496	83.16521
120	0x42a5bbf5	82.8671
121	0x42a47ffa	82.249954
122	0x42a483de	82.25755
123	0x42a46848	82.203674
124	0x42a6d450	83.41467
125	0x42a62036	83.06291
126	0x42a5636b	82.694176
127	0x42a991d9	84.78486
128	0x42a7dadd	83.92747
129	0x42aa8e57	85.27801
130	0x42a54161	82.62769
131	0x42ad4223	86.62917
132	0x42a46f00	82.2168
133	0x42a658cc	83.17343
134	0x42a5afc1	82.84327
135	0x42a48310	82.25598
136	0x42a48178	82.25287
137	0x42a46a02	82.20705
138	0x42a6be40	83.37158
139	0x42a61544	83.041534
140	0x42a00e76	80.028244
141	0x42a432cf	82.099236
142	0x42a0b069	80.34455
143	0x42a3d1a7	81.90948
144	0x429e5c0d	79.17979
145	0x42a77ebb	83.74752
146	0x42a18757	80.764336
147	0x42a2179c	81.04611
148	0x42a1f97a	80.98726
149	0x42a0c40f	80.38293
150	0x429efe46	79.49663
151	0x429e1815	79.047035
152	0x42a229bb	81.081505
153	0x42a1ad58	80.83856
154	0x42a5631e	82.69359
155	0x42a99208	84.78522
156	0x42a7e75f	83.9519
157	0x42aaa6a1	85.32545
158	0x42a566a1	82.70045
159	0x42ad4223	86.62917
160	0x42a48bb4	82.27286
161	0x42a65a62	83.17653
162	0x42a5b5ab	82.85482
163	0x42a4890c	82.26767
164	0x42a489ba	82.269
165	0x42a46894	82.204254
166	0x42a6e610	83.44934
167	0x42a625be	83.073715
168	0x42a5636c	82.69418
169	0x42a99864	84.79764
170	0x42a7f2ff	83.9746
171	0x42aaa997	85.33123
172	0x42a55ba9	82.67902
173	0x42ad4223	86.62917
174	0x42a48cae	82.274765
175	0x42a65a54	83.17642
176	0x42a5b5a3	82.85476
177	0x42a48760	82.264404
178	0x42a48238	82.25433
179	0x42a466ac	82.20053
180	0x42a6df68	83.43634
181	0x42a6210a	83.06453
182	0x42a4e316	82.44353
183	0x42a8c7aa	84.38997
184	0x42a73af3	83.615135
185	0x42aa2f6d	85.09263
186	0x42a4e007	82.43755
187	0x42ad4223	86.62917
188	0x42a3ffc0	81.99951
189	0x42a63626	83.10576
190	0x42a54d6e	82.65123
191	0x42a45db2	82.183
192	0x42a44252	82.12953
193	0x42a4126e	82.035995
194	0x42a657d4	83.17154
195	0x42a59e70	82.80945
196	0x42a5636c	82.69418
197	0x42a9962f	84.79333
198	0x42a7e943	83.95559
199	0x42aa9f19	85.31074
200	0x42a566f7	82.7011
201	0x42ad4223	86.62917
202	0x42a46c9c	82.21213
203	0x42a65540	83.166504
204	0x42a5b6df	82.85717
205	0x42a473e6	82.226364
206	0x42a4826e	82.254745
207	0x42a467b2	82.20253
208	0x42a6dc00	83.42969
209	0x42a61e7c	83.05954
210	0x42a55ce6	82.68144
211	0x42a99635	84.79337
212	0x42a7e843	83.953636
213	0x42aaa4a3	85.321556
214	0x42a566d9	82.700874
215	0x42ad4223	86.62917
216	0x42a48d88	82.27643
217	0x42a65a82	83.17677
218	0x42a5b698	82.85663
219	0x42a485b2	82.26112
220	0x42a4884a	82.26619
221	0x42a46e7e	82.215805
222	0x42a6e46e	83.44615
223	0x42a623e8	83.07013
224	0x42a55d3c	82.6821
225	0x42a98964	84.76834
226	0x42a7dccb	83.93124
227	0x42aa9a01	85.30079
228	0x42a5611f	82.68969
229	0x42ad4223	86.62917
230	0x42a491d0	82.28479
231	0x42a659ec	83.17563
232	0x42a5c130	82.87732
233	0x42a4868c	82.26279
234	0x42a48bf2	82.27333
235	0x42a46ee8	82.21661
236	0x42a6e4da	83.446976
237	0x42a62618	83.0744
238	0xba862cb3	-0.001023671
239	0xbb9941ff	-0.004677057
240	0x3b9d7a75	0.004805858
241	0x3afcbd85	0.0019282555
242	0xbbad6311	-0.0052913507
243	0xbb145118	-0.0022631343
244	0xbb5ce70e	-0.0033707055
245	0xba84ca79	-0.0010131142
246	0xbb6a3737	-0.0035738477
247	0xbb967560	-0.004591629
248	0xbb450655	-0.0030063589
249	0x3afbd6c9	0.0019213791
250	0xbb8f8c2d	-0.004380724
251	0xbb78c2ec	-0.003795798
252	0x42a560ac	82.68881
253	0x42a996d6	84.7946
254	0x42a7e985	83.95609
255	0x42aa9d3f	85.30712

layer1.bias f4 [128]
0	0x42ad3079	86.59467
1	0x42ad3079	86.59467
2	0x42ad3079	86.59467
3	0x42ad3079	86.59467
4	0x42ad3079	86.59467
5	0x42ad3079	86.59467
6	0x42ad3079	86.59467
7	0x42ad3079	86.59467
8	0x42ad3079	86.59467
9	0x42ad3079	86.59467
10	0x42ad239d	86.56956
11	0x42ad3079	86.59467
12	0x42ad3079	86.59467
13	0x42ad3079	86.59467
14	0x42ad3079	86.59467
15	0x42ad3079	86.59467
16	0x42ad3079	86.59467
17	0xbba5a0eb	-0.0050545833
18	0x42ad3079	86.59467
19	0x42ad3079	86.59467
20	0x42ad3079	86.59467
21	0x42ad3079	86.59467
22	0x42ad3079	86.59467
23	0x42ad3079	86.59467
24	0x42ad3079	86.59467
25	0x42ad3079	86.59467
26	0x42ad3079	86.59467
27	0x42ad3079	86.59467
28	0x42ad3079	86.59467
29	0x42ad3079	86.59467
30	0x42ad3079	86.59467
31	0x42ad3079	86.59467
32	0x42ad3079	86.59467
33	0x42ad3079	86.59467
34	0x42ad3079	86.59467
35	0x42ad3079	86.59467
36	0x42ad3079	86.59467
37	0x42ad3079	86.59467
38	0x42ad3079	86.59467
39	0x42ad3079	86.59467
40	0x42ad3079	86.59467
41	0x42ad3079	86.59467
42	0x42ad3079	86.59467
43	0x42ad3079	86.59467
44	0x42ad3079	86.59467
45	0x42ad3079	86.59467
46	0x42ad3079	86.59467
47	0x42ad3079	86.59467
48	0x42ad3079	86.59467
49	0x42ad3079	86.59467
50	0x42ad3079	86.59467
51	0x42ad3079	86.59467
52	0x42ad3079	86.59467
53	0x42ad3079	86.59467
54	0x42ad3079	86.59467
55	0x42ad3079	86.59467
56	0x42ad3079	86.59467
57	0x42ad3079	86.59467
58	0xbf891f81	-1.0712739
59	0x42ad3079	86.59467
60	0x42ad3079	86.59467
61	0x42ad3079	86.59467
62	0x42ad3079	86.59467
63	0x42ad3079	86.59467
64	0x42ad3079	86.59467
65	0x42ad3079	86.59467
66	0x42ad3079	86.59467
67	0x42ad3079	86.59467
68	0x42ad3079	86.59467
69	0x42ad3079	86.59467
70	0x42ad3079	86.59467
71	0x42ad3079	86.59467
72	0x42ad3079	86.59467
73	0x41025ab1	8.147141
74	0x42ad3079	86.59467
75	0x42ad3079	86.59467
76	0x42ad3079	86.59467
77	0x42ad3079	86.59467
78	0x42ad3079	86.59467
79	0x42ad3079	86.59467
80	0x42ad3079	86.59467
81	0x42ad3079	86.59467
82	0x42ad3079	86.59467
83	0x42ad3079	86.59467
84	0x42ad3079	86.59467
85	0x42ad3079	86.59467
86	0x42ac7fb3	86.24941
87	0x42ad3079	86.59467
88	0x42ad3079	86.59467
89	0x42ad3079	86.59467
90	0x42ad3079	86.59467
91	0x42ad3079	86.59467
92	0x42ad3079	86.59467
93	0x42ad3079	86.59467
94	0x42ad3079	86.59467
95	0x42ad3079	86.59467
96	0x42ad3079	86.59467
97	0x42ad3079	86.59467
98	0x42ad3079	86.59467
99	0x42ad3079	86.59467
100	0x42ad3079	86.59467
101	0x42ad3079	86.59467
102	0x42ad3079	86.59467
103	0x42ad3079	86.59467
104	0x42ad3079	86.59467
105	0x42ad3079	86.59467
106	0x42ad3079	86.59467
107	0x42ad3079	86.59467
108	0x42ad3079	86.59467
109	0x42ad3079	86.59467
110	0x3b686e07	0.0035465972
111	0x42ad3079	86.59467
112	0x42ad3079	86.59467
113	0x42ad3079	86.59467
114	0x42ad3079	86.59467
115	0x42ad3079	86.59467
116	0x42ad3079	86.59467
117	0x42ad3079	86.59467
118	0x42ad3079	86.59467
119	0x42ad3079	86.59467
120	0x42ad3079	86.59467
121	0x42ad3079	86.59467
122	0x42ad3079	86.59467
123	0x42ad3079	86.59467
124	0x42ad3079	86.59467
125	0x42ad3079	86.59467
126	0x42ad3079	86.59467
127	0x42ad3079	86.59467

layer2.weight f4 [128, 128]
0	0x42ad307c	86.594696
1	0x42ad3078	86.594666
2	0x42ad307c	86.594696
3	0x42ad307d	86.5947
4	0x42ad307c	86.594696
5	0x42ad307c	86.594696
6	0x42ad307c	86.594696
7	0x42ad307b	86.59469
8	0x42ad307c	86.594696
9	0x42ad307d	86.5947
10	0x42ab4abc	85.645966
11	0x42ad307c	86.594696
12	0x42ad307d	86.5947
13	0x42ad307c	86.594696
14	0x42ad307c	86.594696
15	0x42ad307c	86.594696
16	0x42ad307b	86.59469
17	0xb9112d7b	-0.0001384522
18	0x42ad307c	86.594696
19	0x42ad307c	86.594696
20	0x42ad307c	86.594696
21	0x42ad3084	86.59476
22	0x42ad307e	86.59471
23	0x42ad3081	86.594734
24	0x42ad308a	86.5948
25	0x42ad307c	86.594696
26	0x42ad307b	86.59469
27	0x42ad307c	86.594696
28	0x42ad307c	86.594696
29	0x42ad307c	86.594696
30	0x42ad307c	86.594696
31	0x42ad307d	86.5947
32	0x42ad307b	86.59469
33	0x42ad307c	86.594696
34	0x42ad307c	86.594696
35	0x42ad307c	86.594696
36	0x42ad307c	86.594696
37	0x42ad307c	86.594696
38	0x42ad307d	86.5947
39	0x42ad307c	86.594696
40	0x42ad307c	86.594696
41	0x42ad307d	86.5947
42	0x42ad307d	86.5947
43	0x42ad307c	86.594696
44	0x42ad307b	86.59469
45	0x42ad307f	86.59472
46	0x42ad307c	86.594696
47	0x42ad307d	86.5947
48	0x42ad307b	86.59469
49	0x42ad307c	86.594696
50	0x42ad307c	86.594696
51	0x42ad307c	86.594696
52	0x42ad307c	86.594696
53	0x42ad307d	86.5947
54	0x42ad307c	86.594696
55	0x42ad307c	86.594696
56	0x42ad3087	86.59478
57	0x42ad307d	86.5947
58	0xc10dc813	-8.861346
59	0x42ad307c	86.594696
60	0x42ad307c	86.594696
61	0x42ad307c	86.594696
62	0x42ad307d	86.5947
63	0x42ad307c	86.594696
64	0x42ad308a	86.5948
65	0x42ad307f	86.59472
66	0x42ad307c	86.594696
67	0x42ad307c	86.594696
68	0x42ad307c	86.594696
69	0x42ad307b	86.59469
70	0x42ad307c	86.594696
71	0x42ad3085	86.594765
72	0x42ad307c	86.594696
73	0xc2586cc3	-54.106213
74	0x42ad307d	86.5947
75	0x42ad307c	86.594696
76	0x42ad307c	86.594696
77	0x42ad307c	86.594696
78	0x42ad307c	86.594696
79	0x42ad307b	86.59469
80	0x42ad307c	86.594696
81	0x42ad307d	86.5947
82	0x42ad307c	86.594696
83	0x42ad307c	86.594696
84	0x42ad307c	86.594696
85	0x42ad307d	86.5947
86	0x42ab0fb1	85.53065
87	0x42ad307c	86.594696
88	0x42ad307c	86.594696
89	0x42ad3088	86.59479
90	0x42ad307d	86.5947
91	0x42ad3087	86.59478
92	0x42ad307c	86.594696
93	0x42ad307d	86.5947
94	0x42ad307c	86.594696
95	0x42ad307c	86.594696
96	0x42ad307d	86.5947
97	0x42ad307b	86.59469
98	0x42ad307c	86.594696
99	0x42ad3081	86.594734
100	0x42ad307c	86.594696
101	0x42ad307b	86.59469
102	0x42ad3089	86.594795
103	0x42ad307c	86.594696
104	0x42ad307d	86.5947
105	0x42ad307c	86.594696
106	0x42ad307c	86.594696
107	0x42ad3078	86.594666
108	0x42ad307c	86.594696
109	0x42ad3088	86.59479
110	0xbab15bb8	-0.0013531363
111	0x42ad307b	86.59469
112	0x42ad307d	86.5947
113	0x42ad307c	86.594696
114	0x42ad308b	86.59481
115	0x42ad307d	86.5947
116	0x42ad307d	86.5947
117	0x42ad307d	86.5947
118	0x42ad307c	86.594696
119	0x42ad307d	86.5947
120	0x42ad307c	86.594696
121	0x42ad307c	86.594696
122	0x42ad307c	86.594696
123	0x42ad307c	86.594696
124	0x42ad307c	86.594696
125	0x42ad307d	86.5947
126	0x42ad3080	86.59473
127	0x42ad307d	86.5947
128	0x42ad307e	86.59471
129	0x42ad2fdf	86.5935
130	0x42ad307e	86.59471
131	0x42ad307e	86.59471
132	0x42ad307f	86.59472
133	0x42ad307e	86.59471
134	0x42ad307e	86.59471
135	0x42ad307e	86.59471
136	0x42ad307e	86.59471
137	0x42ad307e	86.59471
138	0x42aa3fce	85.12462
139	0x42ad307e	86.59471
140	0x42ad307e	86.59471
141	0x42ad307e	86.59471
142	0x42ad307f	86.59472
143	0x42ad307e	86.59471
144	0x42ad307e	86.59471
145	0xb9d3bb6a	-0.0004038469
146	0x42ad307e	86.59471
147	0x42ad307e	86.59471
148	0x42ad307e	86.59471
149	0x42ad3082	86.59474
150	0x42ad3081	86.594734
151	0x42ad3082	86.59474
152	0x42ad3087	86.59478
153	0x42ad3080	86.59473
154	0x42ad307e	86.59471
155	0x42ad307e	86.59471
156	0x42ad307e	86.59471
157	0x42ad307e	86.59471
158	0x42ad307e	86.59471
159	0x42ad3080	86.59473
160	0x42ad307e	86.59471
161	0x42ad307e	86.59471
162	0x42ad307e	86.59471
163	0x42ad307e	86.59471
164	0x42ad307e	86.59471
165	0x42ad307e	86.59471
166	0x42ad307e	86.59471
167	0x42ad307e	86.59471
168	0x42ad307f	86.59472
169	0x42ad307f	86.59472
170	0x42ad307e	86.59471
171	0x42ad307e	86.59471
172	0x42ad307e	86.59471
173	0x42ad3082	86.59474
174	0x42ad307e	86.59471
175	0x42ad307f	86.59472
176	0x42ad307e	86.59471
177	0x42ad307e	86.59471
178	0x42ad307e	86.59471
179	0x42ad307e	86.59471
180	0x42ad307e	86.59471
181	0x42ad307e	86.59471
182	0x42ad307e	86.59471
183	0x42ad307e	86.59471
184	0x42abd295	85.91129
185	0x42ad307e	86.59471
186	0xc10af459	-8.684655
187	0x42ab854f	85.76037
188	0x42ad307e	86.59471
189	0x42ad307e	86.59471
190	0x42ad3080	86.59473
191	0x42ad307e	86.59471
192	0x42ad3088	86.59479
193	0x42ad3083	86.59475
194	0x42ad307e	86.59471
195	0x42ad307f	86.59472
196	0x42ad307e	86.59471
197	0x42ad307e	86.59471
198	0x42ad307e	86.59471
199	0x42ad3085	86.594765
200	0x42ad307e	86.59471
201	0xc2608542	-56.130135
202	0x42ad307e	86.59471
203	0x42ad307e	86.59471
204	0x42ad307e	86.59471
205	0x42ad307e	86.59471
206	0x42ad3080	86.59473
207	0x42ad307e	86.59471
208	0x42ad307e	86.59471
209	0x42ad307e	86.59471
210	0x42ad307e	86.59471
211	0x42ad307e	86.59471
212	0x42ad307f	86.59472
213	0x42ad307e	86.59471
214	0x42a9e00e	84.93761
215	0x42ad307f	86.59472
216	0x42ad307f	86.59472
217	0x42abf3f9	85.97651
218	0x42ad307e	86.59471
219	0x42ad3083	86.59475
220	0x42ad307e	86.59471
221	0x42ad307e	86.59471
222	0x42ad307e	86.59471
223	0x42ad307e	86.59471
224	0x42ad307e	86.59471
225	0x42ad307e	86.59471
226	0x42ad307e	86.59471
227	0x42ac3846	86.10991
228	0x42ad307e	86.59471
229	0x42ad307e	86.59471
230	0x42ad3086	86.59477
231	0x42ad307e	86.59471
232	0x42ad307e	86.59471
233	0x42ad307e	86.59471
234	0x42ad307e	86.59471
235	0x42ad307c	86.594696
236	0x42ad307e	86.59471
237	0x42ad3083	86.59475
238	0x3a86bd7f	0.0010279863
239	0x42ad307f	86.59472
240	0x42ad307e	86.59471
241	0x42ad307e	86.59471
242	0x42ad308b	86.59481
243	0x42ad307e	86.59471
244	0x42ad307e	86.59471
245	0x42ad307e	86.59471
246	0x42ad307e	86.59471
247	0x42ad307e	86.59471
248	0x42ad307e	86.59471
249	0x42ad307e	86.59471
250	0x42ad307e	86.59471
251	0x42ad307e	86.59471
252	0x42ad307e	86.59471
253	0x42ad307f	86.59472
254	0x42ac6f3d	86.21726
255	0x42ad307e	86.59471

layer2.bias f4 [128]
0	0x4288fde9	68.49592
1	0x42890bda	68.52315
2	0x42884a7d	68.145485
3	0x3978ac30	0.00023715268
4	0x4288ceb3	68.40371
5	0x42890a07	68.519585
6	0x42890d81	68.526375
7	0x42890d7e	68.52635
8	0x4288f423	68.47683
9	0x42890e44	68.52786
10	0x4289100f	68.531364
11	0x42890120	68.5022
12	0xbab818be	-0.001404546
13	0x42890e0f	68.52746
14	0x428901ed	68.50376
15	0x42890daf	68.526726
16	0x4288fe17	68.49627
17	0xbaeea6bf	-0.0018207653
18	0x42884dfb	68.152306
19	0x42890ad9	68.52119
20	0x4288ee72	68.46571
21	0x42891079	68.53217
22	0x428853ee	68.163925
23	0x42885c47	68.18023
24	0x42882498	68.07147
25	0x42890a12	68.51967
26	0x42890eca	68.528885
27	0x42889f5c	68.31125
28	0x42890a91	68.52064
29	0x42890bc2	68.522964
30	0x42890e65	68.528114
31	0x42890b55	68.52213
32	0x4288e2a6	68.44267
33	0x42890a10	68.51965
34	0x4288507e	68.15721
35	0x4288c707	68.388725
36	0x42890d66	68.52617
37	0x4288ee66	68.46562
38	0x42890ed2	68.528946
39	0x42891621	68.54322
40	0x4288d231	68.41053
41	0x3a008700	0.0004902929
42	0x42890dfd	68.52732
43	0x42890b1f	68.52172
44	0x42890101	68.50196
45	0x42886123	68.18972
46	0x42890cc9	68.52497
47	0x4289134d	68.5377
48	0x42890b68	68.52228
49	0x4288fa54	68.48892
50	0x42884f80	68.15527
51	0x428863bc	68.19479
52	0x42890f8d	68.53037
53	0x42890ac6	68.52104
54	0x428820c1	68.06397
55	0x4288bb48	68.36578
56	0x4288fd65	68.49491
57	0x42890027	68.5003
58	0x42890f8b	68.53036
59	0xba658f47	-0.0008757007
60	0x42890cc1	68.52491
61	0x42890340	68.50635
62	0x42891e23	68.55886
63	0x428901bf	68.50341
64	0x428908f6	68.5175
65	0x428818c7	68.04839
66	0x42890b19	68.521675
67	0x4289110b	68.53329
68	0x42891098	68.53241
69	0x42891076	68.53215
70	0x42890592	68.51088
71	0x42890e49	68.5279
72	0xbb0ca0c5	-0.002145813
73	0x4289067d	68.51267
74	0x42890d93	68.52651
75	0x3a5775ba	0.0008219142
76	0x42891dd4	68.55826
77	0x4288f9f5	68.4882
78	0x428913b1	68.53846
79	0x42890f83	68.5303
80	0x42890d80	68.52637
81	0xba5c4e42	-0.00084039953
82	0x4289129b	68.53634
83	0x42889f0c	68.31064
84	0x4288fc28	68.49249
85	0x42890013	68.500145
86	0x4289024b	68.50448
87	0x3a9bd829	0.0011889982
88	0x42884067	68.125786
89	0x42890317	68.506035
90	0x4289092a	68.5179
91	0x4288381f	68.10961
92	0x42890c3e	68.52391
93	0x4288f07c	68.469696
94	0x42890e4d	68.52793
95	0x42884531	68.13514
96	0x428912c3	68.536644
97	0x4289192f	68.54919
98	0x42890261	68.50465
99	0x428904dc	68.50949
100	0x42883464	68.102325
101	0xbaf58595	-0.0018731827
102	0x42890b63	68.52224
103	0x42884b60	68.14722
104	0x4288a02c	68.312836
105	0x42885b6c	68.17856
106	0x4288fed9	68.49775
107	0xbae2fa0f	-0.0017316955
108	0x4289148a	68.540115
109	0x4288f80f	68.48449
110	0x428915fc	68.54294
111	0x42890db6	68.52678
112	0x42888323	68.25613
113	0x42890680	68.512695
114	0x42890bf9	68.523384
115	0x42890282	68.5049
116	0x42890562	68.51051
117	0x42890bf9	68.523384
118	0x3ac8f07f	0.0015330462
119	0x42890164	68.502716
120	0x428900b8	68.5014
121	0x42890e35	68.52775
122	0x4289128d	68.53623
123	0x4289025f	68.50463
124	0x4288684a	68.20369
125	0x42890df2	68.52724
126	0x42890526	68.510056
127	0x42891299	68.53632

layer3.weight f4 [6, 128]
0	0x42830c6f	65.524284
1	0x4282fb06	65.49028
2	0x4282d92a	65.42415
3	0x3bd2a05e	0.0064278087
4	0x42830080	65.50098
5	0x4282fd0b	65.494225
6	0x4282fb8e	65.49132
7	0x4282fbde	65.49193
8	0x4282ff98	65.49921
9	0x4282ef2d	65.46714
10	0x4282f6f7	65.48235
11	0x42830b82	65.52248
12	0xb8f1abf5	-0.00011523805
13	0x4282f878	65.48529
14	0x4282fe87	65.49712
15	0x4282fc13	65.49233
16	0x4282f69f	65.48168
17	0xb9ee44d7	-0.00045446187
18	0x4282e1ad	65.44077
19	0x4282fbf9	65.492134
20	0x4282e0a7	65.438774
21	0x4282fcf7	65.49407
22	0x4282df41	65.43604
23	0x4282d51d	65.41624
24	0x4282cffe	65.406235
25	0x4282f9e1	65.488045
26	0x4282f974	65.48721
27	0x4282e182	65.440445
28	0x4282f8d3	65.485985
29	0x4282fb6a	65.49104
30	0x4282fbed	65.49204
31	0x42830057	65.50066
32	0x428302c9	65.50544
33	0x4282fbdb	65.491905
34	0x4282e0ce	65.43907
35	0x4282ecf8	65.46283
36	0x4282fbbd	65.49168
37	0x42830339	65.506294
38	0x4282fe87	65.49712
39	0x4282fa0a	65.48836
40	0x4282fd63	65.494896
41	0xbae3f9c9	-0.0017393167
42	0x4282fb89	65.49128
43	0x4282fb87	65.491264
44	0x4282fd32	65.49452
45	0x4282ce47	65.402885
46	0x4282fc3e	65.49266
47	0x4282efe9	65.468575
48	0x4282fa5f	65.489006
49	0x4282fa4d	65.48887
50	0x4282df5d	65.43626
51	0x4282d733	65.42031
52	0x4282fb90	65.49133
53	0x4282fcba	65.49361
54	0x4282db3e	65.42821
55	0x4282c845	65.39115
56	0x4282fb8f	65.491325
57	0x4282fedb	65.497765
58	0x4282fb12	65.49037
59	0xb9c25a76	-0.00037069962
60	0x4282fb46	65.49077
61	0x4282fbe5	65.49198
62	0x4282fb10	65.49036
63	0x42830108	65.502014
64	0x4282fdea	65.495926
65	0x4282ce6f	65.40319
66	0x4282fe0d	65.49619
67	0x4282fcbb	65.493614
68	0x4282e724	65.45145
69	0x4282f8dd	65.48606
70	0x4282fbec	65.492035
71	0x4282fb80	65.49121
72	0xbcdd1361	-0.02698678
73	0x42830010	65.50012
74	0x4282fb08	65.490295
75	0x3cb5a7f9	0.022174822
76	0x4282f33c	65.47507
77	0x4282fced	65.493996
78	0x4282fefc	65.49802
79	0x4282fb3e	65.49071
80	0x4282fd49	65.4947
81	0xb8e0fdf5	-0.000107284555
82	0x4282fce0	65.4939
83	0x42830964	65.51834
84	0x4282ff2d	65.49839
85	0x4282f87d	65.48533
86	0x4282fd02	65.494156
87	0x3ad716da	0.0016410009
88	0x4282d6f9	65.41987
89	0x4282fe7a	65.497025
90	0x4282fbbd	65.49168
91	0x4282d95b	65.42452
92	0x4282fb30	65.4906
93	0x4282ffd6	65.49968
94	0x4282f9d3	65.48794
95	0x4282d91d	65.42405
96	0x4282fb4d	65.49082
97	0x4282f7ef	65.484245
98	0x4282fd08	65.4942
99	0x4282fe58	65.496765
100	0x4282dc45	65.430214
101	0xbac8d24b	-0.0015321461
102	0x4282fbb9	65.491646
103	0x4282dbe4	65.429474
104	0x4282dc8e	65.43077
105	0x4282cd80	65.40137
106	0x4282fe0c	65.496185
107	0xbad4081c	-0.0016176733
108	0x4282fb0d	65.49033
109	0x4282fe83	65.49709
110	0x4282fbc6	65.491745
111	0x4282fc06	65.49223
112	0x42830399	65.50703
113	0x4282f9cf	65.48791
114	0x4282fa41	65.48878
115	0x4283005d	65.50071
116	0x4282fd1f	65.49438
117	0x4282fbf7	65.49212
118	0xba2b196d	-0.0006526921
119	0x4282fe7f	65.49706
120	0x4282f391	65.475716
121	0x4282fa1b	65.48849
122	0x4282fc4c	65.49277
123	0x4282fe41	65.49659
124	0x4282e792	65.452286
125	0x4282fbfb	65.49215
126	0x4282fb50	65.490845
127	0x4282fb32	65.490616
128	0x4282dea5	65.43485
129	0x4282da5a	65.42647
130	0x4282af82	65.34279
131	0x3b767f68	0.003761256
132	0x4282c1cd	65.37852
133	0x4282d95c	65.42453
134	0x4282d791	65.42103
135	0x4282d73f	65.4204
136	0x4282d750	65.42053
137	0x4282da8b	65.42684
138	0x4282c40d	65.38291
139	0x4282d64e	65.418564
140	0x3990fba3	0.00027653304
141	0x4282cd10	65.40051
142	0x4282d349	65.41267
143	0x4282d75f	65.42065
144	0x4282d3f8	65.414
145	0x3bbe2ab5	0.005803431
146	0x4282ba04	65.36331
147	0x4282d794	65.42105
148	0x4282d9dd	65.425514
149	0x4282cfb8	65.4057
150	0x4282b7a7	65.358696
151	0x4282afe0	65.343506
152	0x4282ac2e	65.33629
153	0x4282d81f	65.42211
154	0x4282d56e	65.416855
155	0x4282da41	65.42628
156	0x4282d762	65.42067
157	0x4282d853	65.42251
158	0x4282d964	65.42459
159	0x4282d886	65.4229
160	0x4282cdfc	65.40231
161	0x4282d97c	65.424774
162	0x4282b8cc	65.36093
163	0x4282dcb0	65.43103
164	0x4282d835	65.42228
165	0x4282b801	65.35938
166	0x4282d917	65.424
167	0x4282d75e	65.42064
168	0x4282cedd	65.40403
169	0xba053a4c	-0.0005082234
170	0x4282d7db	65.42159
171	0x4282d797	65.421074
172	0x4282d56d	65.41685
173	0x4282bfce	65.37462
174	0x4282d72b	65.42025
175	0x4282c93f	65.39306
176	0x4282d8d9	65.42353
177	0x4282d0cc	65.40781
178	0x4282b893	65.3605
179	0x4282b1fb	65.34762
180	0x4282d87c	65.42282
181	0x4282d987	65.42486
182	0x4282ad58	65.33856
183	0x4282aacb	65.33358
184	0x4282cf85	65.40531
185	0x4282d5ad	65.417336
186	0x4282d7f7	65.42181
187	0xb896e1b2	-7.1945964e-05
188	0x4282c798	65.38983
189	0x4282d613	65.41811
190	0x4282d876	65.422775
191	0x4282d23e	65.41063
192	0x4282d744	65.42044
193	0x4282ac30	65.3363
194	0x4282d655	65.41862
195	0x4282d791	65.42103
196	0x4282c158	65.377625
197	0x4282d914	65.42398
198	0x4282d734	65.42032
199	0x4282d8ab	65.42318
200	0xbbde7204	-0.006788494
201	0x4282db27	65.42803
202	0x4282d6be	65.41942
203	0xba88f977	-0.0010450323
204	0x4282d966	65.42461
205	0x4282d960	65.42456
206	0x4282d0d7	65.40789
207	0x4282d70b	65.420006
208	0x4282d8c6	65.423386
209	0x39efa31f	0.00045707167
210	0x4282d932	65.42421
211	0x4282d0c4	65.407745
212	0x4282d7f6	65.4218
213	0x4282d790	65.42102
214	0x4282d527	65.41631
215	0x3ab3d878	0.0013721129
216	0x4282ae60	65.340576
217	0x4282d57a	65.41695
218	0x4282d5fd	65.417946
219	0x4282b231	65.34803
220	0x4282d86c	65.4227
221	0x4282db35	65.42814
222	0x4282d7c8	65.42145
223	0x4282b46e	65.3524
224	0x4282d3ed	65.41392
225	0x4282d496	65.41521
226	0x4282d3a7	65.41338
227	0x4282d446	65.4146
228	0x4282b535	65.35392
229	0xb98791cf	-0.00025857842
230	0x4282d7a5	65.42118
231	0x4282b190	65.3468
232	0x4282df10	65.43567
233	0x4282aeb0	65.34119
234	0x4282d4ea	65.41585
235	0xb7677ec8	-1.37981915e-05
236	0x4282d955	65.42448
237	0x4282d8d8	65.42352
238	0x4282d8ca	65.423416
239	0x4282d91c	65.42404
240	0x4282ab9b	65.33517
241	0x4282db5f	65.42846
242	0x4282d7eb	65.421715
243	0x4282d607	65.41802
244	0x4282cb35	65.39689
245	0x4282d840	65.42236
246	0xba9c67d9	-0.0011932804
247	0x4282d385	65.413124
248	0x4282cb1e	65.39671
249	0x4282d60d	65.41807
250	0x4282d73f	65.4204
251	0x4282d4b1	65.41541
252	0x4282bb3f	65.365715
253	0x4282d87c	65.42282
254	0x4282d9d3	65.42544
255	0x4282d8ae	65.4232

layer3.bias f4 [6]
0	0x423597b9	45.398167
1	0x4215fd5d	37.497425
2	0x426a7170	58.61078
3	0x41691a24	14.568882
4	0x425f12e7	55.76846
5	0x3fb7f88d	1.4372727
