models/1030000-trained_model-14-13_19.pth (torch, 79726 bytes, 6 tensors)

layer1.weight f4 [128, 14]
66.34766 59.64678 77.907745 71.73078 52.85141 86.58843 53.918377 50.277477
58.364864 67.93745 56.93059 66.00252 64.70742 66.23592 66.34766 59.64677
77.907745 71.73078 52.85141 86.58843 53.91836 50.277477 58.364864 67.93745
56.93059 66.00252 64.70742 66.23592 66.34766 59.646755 77.907715 71.73078
52.851418 86.58843 53.918514 50.277477 58.36487 67.93745 56.93059 66.00251
64.70742 66.23594 66.34766 59.647102 77.90803 71.730774 52.852215 86.58843
53.918888 50.27748 58.36515 67.93745 56.93059 66.00263 64.70742 66.235954
-0.0069658435 -0.003148802 -0.003372723 -0.009616112 -0.013354912 -0.0029070082 -0.0036477407 0.0060593095
0.005263478 0.0044233385 0.0006073007 -0.00090291485 -0.0018472894 -0.0009788878 66.34766 59.64671
77.90761 71.73078 52.851387 86.58843 53.91862 50.277477 58.364876 67.93744
56.93059 66.00252 64.70742 66.235954 66.34766 59.64678 77.90776 71.73078
52.85141 86.58843 53.918346 50.277477 58.364864 67.93745 56.93059 66.00252
64.70742 66.23592 -0.0041094357 -0.0019983286 -0.0034148074 -0.0077658207 -0.0126863085 -0.0033891702
-0.0026421016 0.005080173 0.0051084924 0.0045801247 0.00071637455 -0.00029967944 -0.0020658243 -0.0009578638
66.34766 59.646816 77.9079 71.73078 52.85141 86.58843 53.918026 50.277477
58.36486 67.93746 56.93059 66.00252 64.70742 66.23593 66.34766 59.64671
77.90761 71.73078 52.851387 86.58843 53.91862 50.277477 58.364876 67.93744
56.93059 66.00251 64.70742 66.235954 66.34766 59.6468 77.90788 71.73078
52.851425 86.58843 53.91808 50.277477 58.364864 67.937454 56.93059 66.00253
64.70742 66.23593 66.34766 59.644276 77.902275 71.730774 52.847805 86.58843
53.922268 50.27748 58.36608 67.937454 56.93059 66.00239 64.707436 66.23597
66.34766 59.646378 77.906136 71.730774 52.8522 86.58843 53.919575 50.27748
58.365166 67.93745 56.930588 66.002525 64.70742 66.23592 66.34766 59.646435
77.90871 71.73078 52.85083 86.58843 53.915684 50.277477 58.36432 67.937035
56.93059 66.00244 64.70742 66.23589 -0.005636359 -0.0018134125 -0.004811293 -0.009197236
-0.013947033 -0.0032649161 -0.0033666487 0.005959584 0.0052780565 0.0048065567 0.0007930143 -0.00063301646
-0.0014280095 -0.0008624819 66.34766 59.64678 77.90773 71.73078 52.851418 86.58843
53.918392 50.277477 58.364864 67.93745 56.93059 66.00252 64.70742 66.23594
66.34766 59.648228 77.91661 71.730774 52.84717 86.58843 53.91271 50.277477
58.36455 67.93746 56.930595 66.002045 64.70741 66.235825 -0.008074082 -0.0069184927
-0.0071579325 -0.015520471 -0.015696876 -0.006842949 -0.0020906092 0.001135504 0.0011715766 0.004034925
-0.004475094 -0.0020581863 -0.0069922046 0.0004995876 66.34766 59.646473 77.90883 71.73078
00000000: 00b2 8442 4d96 6e42 c4d0 9b42 2976 8f42
00000010: d867 5342 472d ad42 6bac 5742 231c 4942
00000020: 9f75 6942 f9df 8742 edb8 6342 4a01 8442
00000030: 336a 8142 cb78 8442 00b2 8442 4b96 6e42
00000040: c4d0 9b42 2976 8f42 d867 5342 472d ad42
00000050: 67ac 5742 231c 4942 9f75 6942 f9df 8742
00000060: edb8 6342 4a01 8442 336a 8142 cb78 8442
00000070: 00b2 8442 4796 6e42 c0d0 9b42 2976 8f42
00000080: da67 5342 472d ad42 8fac 5742 231c 4942
00000090: a075 6942 f9df 8742 edb8 6342 4901 8442
000000a0: 336a 8142 cd78 8442 00b2 8442 a296 6e42
000000b0: e9d0 9b42 2876 8f42 ab68 5342 472d ad42
000000c0: f1ac 5742 241c 4942 ea75 6942 f9df 8742
000000d0: edb8 6342 5901 8442 336a 8142 cf78 8442
000000e0: bb41 e4bb 225c 4ebb e708 5dbb e68c 1dbc
000000f0: 90ce 5abc 8183 3ebb ef0e 6fbb 2c8d c63b
00000100: 4179 ac3b a7f1 903b 4333 1f3a 97b1 6cba
00000110: bf20 f2ba 064e 80ba 00b2 8442 3b96 6e42
00000120: b2d0 9b42 2976 8f42 d267 5342 472d ad42
00000130: abac 5742 231c 4942 a275 6942 f8df 8742
00000140: edb8 6342 4a01 8442 336a 8142 cf78 8442
00000150: 00b2 8442 4d96 6e42 c6d0 9b42 2976 8f42
00000160: d867 5342 472d ad42 63ac 5742 231c 4942
00000170: 9f75 6942 f9df 8742 edb8 6342 4a01 8442
00000180: 336a 8142 cb78 8442 72a8 86bb 64f6 02bb
00000190: f6ca 5fbb 6d78 febb 3cda 4fbc d71c 5ebb
000001a0: 1c27 2dbb 9477 a63b 2465 a73b df14 963b
000001b0: 15cb 3b3a 4b1e 9db9 c862 07bb 2719 7bba
000001c0: 00b2 8442 5796 6e42 d8d0 9b42 2976 8f42
000001d0: d867 5342 472d ad42 0fac 5742 231c 4942
000001e0: 9e75 6942 fbdf 8742 edb8 6342 4a01 8442
000001f0: 336a 8142 cc78 8442 00b2 8442 3b96 6e42
00000200: b2d0 9b42 2976 8f42 d267 5342 472d ad42
00000210: abac 5742 231c 4942 a275 6942 f8df 8742
00000220: edb8 6342 4901 8442 336a 8142 cf78 8442
00000230: 00b2 8442 5396 6e42 d6d0 9b42 2976 8f42
00000240: dc67 5342 472d ad42 1dac 5742 231c 4942
00000250: 9f75 6942 fadf 8742 edb8 6342 4c01 8442
00000260: 336a 8142 cc78 8442 00b2 8442 bd93 6e42
00000270: f7cd 9b42 2876 8f42 2764 5342 472d ad42
00000280: 67b0 5742 241c 4942 de76 6942 fadf 8742
00000290: edb8 6342 3901 8442 356a 8142 d178 8442
000002a0: 00b2 8442 e495 6e42 f1cf 9b42 2876 8f42
000002b0: a768 5342 472d ad42 a5ad 5742 241c 4942
000002c0: ee75 6942 f9df 8742 ecb8 6342 4b01 8442
000002d0: 336a 8142 cb78 8442 00b2 8442 f395 6e42
000002e0: 42d1 9b42 2976 8f42 4067 5342 472d ad42
000002f0: a9a9 5742 231c 4942 1075 6942 c3df 8742
00000300: edb8 6342 4001 8442 336a 8142 c778 8442
00000310: 35b1 b8bb 07b0 edba 0da8 9dbb 01b0 16bc
00000320: 1982 64bc 34f8 55bb fea2 5cbb 9d48 c33b
00000330: 8cf3 ac3b 5280 9d3b 4ae2 4f3a 04f1 25ba
00000340: 0c2c bbba 2e18 62ba 00b2 8442 4d96 6e42
00000350: c2d0 9b42 2976 8f42 da67 5342 472d ad42
00000360: 6fac 5742 231c 4942 9f75 6942 f9df 8742
00000370: edb8 6342 4a01 8442 336a 8142 cd78 8442
00000380: 00b2 8442 c997 6e42 4ed5 9b42 2876 8f42
00000390: 8163 5342 472d ad42 9da6 5742 231c 4942
000003a0: 4d75 6942 fbdf 8742 eeb8 6342 0c01 8442
000003b0: 326a 8142 be78 8442 2849 04bc 86b4 e2bb
000003c0: 178d eabb 9349 7ebc bc96 80bc d13a e0bb
000003d0: 9a02 09bb 31d5 943a 968f 993a 6737 843b
000003e0: cfa3 92bb a3e2 06bb dd1e e5bb c2f6 023a
000003f0: 00b2 8442 fd95 6e42 52d1 9b42 2976 8f42

layer1.bias f4 [128]
78.07423 78.07423 78.07423 78.07423 -0.0014754646 78.07423 78.07423 -0.00158294
78.07423 78.07423 78.07423 78.074234 78.074234 78.07423 -0.0017500888 78.07423
78.074234 -0.0038263774 78.07423 78.07423 78.07423 78.07423 78.07423 78.07423
78.07423 78.07423 78.074234 5.948432 78.07423 -0.0014607962 78.07423 78.074234
78.07423 78.07423 78.07423 -2.738129e-09 -0.0018117777 78.07423 1.8258278 78.07423
78.074234 3.379308 78.07423 78.07423 78.07423 78.07423 78.07423 78.07423
78.07423 78.07423 78.074234 78.07423 78.07423 78.07423 78.07423 78.07423
78.07423 78.07423 78.07423 78.07423 78.07423 78.074234 1.6847346 1.8304379
78.07423 78.07423 78.07423 78.07423 78.07423 78.07423 78.07423 78.07423
78.07423 78.07423 78.074234 78.07423 78.07423 78.07423 78.07423 78.07423
78.07423 78.074234 5.871312 0.41287893 78.074234 78.07423 78.07423 78.074234
78.07423 -0.00176526 78.07423 78.07423 78.07423 78.07423 78.07423 78.074234
78.07423 -1.2486614e-06 78.07423 78.07423 78.07423 78.07423 78.07423 78.07423
78.07423 78.07423 78.07423 78.07423 78.07423 78.07423 78.074234 4.3091536
78.074234 78.07423 -0.0014306232 78.07423 78.07423 78.07423 1.8272713 78.074234
78.07423 78.07423 78.07423 78.074234 78.07423 78.07423 78.07423 78.07423
00000000: 0126 9c42 0126 9c42 0126 9c42 0126 9c42
00000010: 6064 c1ba 0126 9c42 0126 9c42 a77a cfba
00000020: 0126 9c42 0126 9c42 0126 9c42 0226 9c42
00000030: 0226 9c42 0126 9c42 3c63 e5ba 0126 9c42
00000040: 0226 9c42 f6c3 7abb 0126 9c42 0126 9c42
00000050: 0126 9c42 0126 9c42 0126 9c42 0126 9c42
00000060: 0126 9c42 0126 9c42 0226 9c42 8e59 be40
00000070: 0126 9c42 3078 bfba 0126 9c42 0226 9c42
00000080: 0126 9c42 0126 9c42 0126 9c42 ad29 3cb1
00000090: 2c79 edba 0126 9c42 bab4 e93f 0126 9c42
000000a0: 0226 9c42 9546 5840 0126 9c42 0126 9c42
000000b0: 0126 9c42 0126 9c42 0126 9c42 0126 9c42
000000c0: 0126 9c42 0126 9c42 0226 9c42 0126 9c42
000000d0: 0126 9c42 0126 9c42 0126 9c42 0126 9c42
000000e0: 0126 9c42 0126 9c42 0126 9c42 0126 9c42
000000f0: 0126 9c42 0226 9c42 62a5 d73f ca4b ea3f
00000100: 0126 9c42 0126 9c42 0126 9c42 0126 9c42
00000110: 0126 9c42 0126 9c42 0126 9c42 0126 9c42
00000120: 0126 9c42 0126 9c42 0226 9c42 0126 9c42
00000130: 0126 9c42 0126 9c42 0126 9c42 0126 9c42
00000140: 0126 9c42 0226 9c42 cae1 bb40 de64 d33e
00000150: 0226 9c42 0126 9c42 0126 9c42 0226 9c42
00000160: 0126 9c42 4c60 e7ba 0126 9c42 0126 9c42
00000170: 0126 9c42 0126 9c42 0126 9c42 0226 9c42
00000180: 0126 9c42 ae97 a7b5 0126 9c42 0126 9c42
00000190: 0126 9c42 0126 9c42 0126 9c42 0126 9c42
000001a0: 0126 9c42 0126 9c42 0126 9c42 0126 9c42
000001b0: 0126 9c42 0126 9c42 0226 9c42 96e4 8940
000001c0: 0226 9c42 0126 9c42 c083 bbba 0126 9c42
000001d0: 0126 9c42 0126 9c42 07e4 e93f 0226 9c42
000001e0: 0126 9c42 0126 9c42 0126 9c42 0226 9c42
000001f0: 0126 9c42 0126 9c42 0126 9c42 0126 9c42

layer2.weight f4 [128, 128]
-9.439352e-09 -7.7155455e-09 -9.289627e-09 -1.1136528e-08 -8.175775e-09 -7.170431e-09 -7.632899e-09 6.7430097e-09
-9.842616e-09 -7.795162e-09 -6.6646804e-09 1.1519492e-08 -1.0479714e-08 -8.5477625e-09 -6.8072272e-09 -7.73031e-09
-9.031691e-09 -7.1219977e-09 -9.307174e-09 -8.9827195e-09 -9.017876e-09 -7.943898e-09 -7.526848e-09 -7.491978e-09
-7.1406023e-09 -9.226845e-09 -2.6813016e-09 -6.658603e-09 -7.30282e-09 -9.640862e-09 -8.715117e-09 -8.745345e-09
-7.0565416e-09 3.8273287e-09 -7.320335e-09 -1.9576e-09 -1.1625685e-08 -8.454142e-09 -1.0160605e-08 -8.928327e-09
-1.1750141e-08 1.4532772e-08 1.6873388e-09 -5.7882423e-09 -5.924509e-09 -1.0901543e-08 -8.700978e-09 -1.0810426e-08
-7.358412e-09 -6.5591417e-09 -4.4255963e-09 -7.4998745e-09 -7.718751e-09 -1.0679968e-08 -8.624086e-09 -8.574372e-09
-6.4947807e-09 -8.8725844e-09 -9.091951e-09 -7.828885e-09 -6.414812e-09 -3.3571055e-09 -1.0461249e-08 -1.0815777e-08
-9.656975e-09 -1.0357163e-08 -5.6861023e-09 -7.494439e-09 -5.9436296e-09 -6.9886847e-09 -9.888171e-09 -7.007736e-09
-7.3181856e-09 -8.525096e-09 -2.5962157e-09 -6.345027e-09 -9.051254e-09 -5.916805e-09 -7.965996e-09 -9.305049e-09
-6.30701e-09 5.4575655e-10 -1.1310018e-08 -2.061604e-09 -1.4583839e-09 -8.153359e-09 -1.1355018e-08 -4.4557815e-09
-7.834433e-09 -8.525516e-09 -7.923824e-09 -9.405753e-09 -8.625059e-09 -9.250732e-09 -7.012522e-09 -3.0398577e-09
-8.928893e-09 -8.6052605e-09 -9.9259445e-09 -7.728037e-09 -6.948419e-09 -9.057535e-09 -7.0598163e-09 -8.598187e-09
-8.717922e-09 -8.75738e-09 -9.097468e-09 -9.423768e-09 -9.652597e-09 -8.114084e-09 -2.8204257e-09 5.5327196e-09
-6.090775e-09 -6.8127815e-09 -1.1243758e-08 -9.279156e-09 -9.262863e-09 -8.530881e-09 1.4023595e-08 -1.1419702e-08
-7.597135e-09 -8.704244e-09 -8.621599e-09 -5.0067315e-09 -6.641061e-09 -6.6145573e-09 -8.726689e-09 -8.615628e-09
-0.0004986906 -0.00049850624 -0.0004999814 -0.00051216397 0.0017900431 -0.00050262467 -0.0004982441 0.0013221566
-0.00049555395 -0.000502729 -0.00049632456 -0.0006779201 -0.00051994127 -0.00038301133 0.0015954697 -0.00049913133
0.0008041271 0.0011714577 -0.00037410663 -0.0004988406 -0.0005091358 -0.00050247204 -0.00049787754 -0.0005020248
-0.0005008477 -0.0005009399 -0.00069472817 0.001046099 -0.00049848255 0.0017875569 -0.0004995986 0.00079154334
-0.00049665215 -0.0004926078 -0.0004994148 -1.7243033e-09 0.0015476309 -0.00049869734 0.001754636 -0.00049929967
0.00080380286 0.0013143258 -2.5105338e-09 -0.00049768685 -0.00049994804 -0.00050113956 -0.0004999803 -0.00047166107
-0.00049453316 -0.0004979649 -0.0007490325 -0.00049712264 -0.000513686 -2.088375e-06 -0.00050148915 -0.0005022499
-0.00050221325 -0.0004987953 -0.0005000984 -0.000500243 -0.0005112152 -0.000608319 0.00149062 0.001760523
-0.00049819023 -0.00042545787 -0.0004997264 -0.0004996642 -0.0004995072 -0.00050121977 -0.0004896449 -0.0004987468
-0.00049586134 -0.0004975354 -0.00075085583 -0.0004991235 -0.0005015213 -0.0004996749 -0.00050110737 -0.0004992346
-0.0004919455 -0.000730941 0.0015606247 -5.003302e-05 -0.00074620685 -0.0004973234 0.0010795877 -0.0007495331
-0.0004975005 0.0017952331 -0.0005005052 -0.00049686106 -0.0004975283 -0.00050239905 -0.0004945743 -0.00065581215
-0.00050017436 -4.663452e-06 0.0008387166 -0.0004952582 -0.00050289166 -0.00049853075 -0.0004992294 -0.0004992708
-0.0005014772 -0.00051117525 -0.0004988538 -0.00034679187 -0.0004971464 -0.0005020647 -0.00061735784 0.0015239626
-0.00053545117 -0.0005196854 0.0017593043 -0.0005032105 -0.00049883546 -0.0005002386 0.0015352479 0.0005804921
-0.00050042244 -0.0005017803 -0.0005013999 -0.000534059 -0.00049719954 -0.00050167606 -0.00050245976 -0.0004983995
00000000: b62a 22b2 548d 04b2 3698 1fb2 f852 3fb2
00000010: 7075 0cb2 c75f f6b1 d821 03b2 24b0 e731
00000020: 4818 29b2 7ceb 05b2 26ff e4b1 43e7 4532
00000030: 450a 34b2 75d9 12b2 01e5 e9b1 43ce 04b2
00000040: cc29 1bb2 c1b5 f4b1 62e5 1fb2 6b52 1ab2
00000050: 0aed 1ab2 a279 08b2 6d4f 01b2 11b6 00b2
00000060: 6759 f5b1 1884 1eb2 f541 38b1 b1c9 e4b1
00000070: 49ec fab1 f6a0 25b2 7db9 15b2 6f3e 16b2
00000080: ff75 f2b1 8a81 8331 5986 fbb1 7786 06b1
00000090: 4eba 47b2 b63d 11b2 d08e 2eb2 3363 19b2
000000a0: abdd 49b2 cfab 7932 f5e7 e730 ebe1 c6b1
000000b0: 8890 cbb1 7e49 3bb2 4e7b 15b2 c2b8 39b2
000000c0: 47d5 fcb1 d25e e1b1 f50f 98b1 ccd8 00b2
000000d0: 6d9b 04b2 ff7a 37b2 2229 14b2 7d4e 13b2
000000e0: b228 dfb1 0a6e 18b2 d332 1cb2 cd7f 06b2
000000f0: 4869 dcb1 d3b2 66b1 0fb9 33b2 4ad0 39b2
00000100: d3e7 25b2 49ef 31b2 7c5f c3b1 e4c0 00b2
00000110: b838 ccb1 1f21 f0b1 a3e0 29b2 b3c8 f0b1
00000120: 7173 fbb1 c575 12b2 1c69 32b1 7303 dab1
00000130: d67f 1bb2 c44c cbb1 d2da 08b2 0adc 1fb2
00000140: 0cb5 d8b1 3404 1630 fc4d 42b2 1fac 0db1
00000150: 5270 c8b0 da12 0cb2 e613 43b2 7819 99b1
00000160: 3398 06b2 9e77 12b2 5921 08b2 f096 21b2
00000170: 692d 14b2 26ed 1eb2 ccf2 f0b1 bee5 50b1
00000180: b065 19b2 56d6 13b2 c486 2ab2 44c4 04b2
00000190: f1be eeb1 769b 1bb2 cd92 f2b1 3ab7 13b2
000001a0: d4c5 15b2 5d73 16b2 164b 1cb2 2ce6 21b2
000001b0: 92d4 25b2 1e66 0bb2 74d1 41b1 511a be31
000001c0: 0647 d1b1 dc15 eab1 922a 41b2 296a 1fb2
000001d0: 8122 1fb2 368f 12b2 6cec 7032 6130 44b2
000001e0: 8e84 02b2 ac89 15b2 321e 14b2 ad07 acb1
000001f0: 642f e4b1 4346 e3b1 62ec 15b2 ef03 14b2
00000200: 8fba 02ba 30ae 02ba 2f11 03ba be42 06ba
00000210: e19f ea3a 92c2 03ba 989c 02ba 374c ad3a
00000220: 10e8 01ba 92c9 03ba c71b 02ba 73b6 31ba
00000230: ab4c 08ba e9ce c8b9 141f d13a 23d8 02ba
00000240: 0ecc 523a 998b 993a be23 c4b9 a0c4 02ba
00000250: 8677 05ba 54b8 03ba ff83 02ba 509a 03ba
00000260: 524b 03ba 8251 03ba 6b1e 36ba 421d 893a
00000270: 99ac 02ba 754c ea3a 7ff7 02ba 937f 4f3a
00000280: c331 02ba 5a22 01ba 29eb 02ba 87fc ecb0
00000290: e0d9 ca3a 03bb 02ba d0fb e53a 6fe3 02ba
000002a0: 4cb6 523a 7545 ac3a c785 2cb1 3377 02ba
000002b0: f20e 03ba e85e 03ba 1c11 03ba 4749 f7b9
000002c0: 8fa3 01ba dc89 02ba b85a 44ba 5651 02ba
000002d0: e2a8 06ba 0226 0cb6 5e76 03ba 6ca9 03ba
000002e0: f6a6 03ba 96c1 02ba 0919 03ba bd22 03ba
000002f0: 1203 06ba 9977 1fba e860 c33a 59c1 e63a
00000300: fb98 02ba fd0f dfb9 1200 03ba e6fb 02ba
00000310: 5cf1 02ba 4a64 03ba 835b 00ba 55be 02ba
00000320: b1fc 01ba 096d 02ba 15d5 44ba 9cd7 02ba
00000330: 8678 03ba 9dfc 02ba bf5c 03ba 11df 02ba
00000340: e7f5 00ba 9f9c 3fba e08d cc3a 8cda 51b8
00000350: 189d 43ba cf5e 02ba f480 8d3a 517c 44ba
00000360: b26a 02ba 074e eb3a 5634 03ba c83f 02ba
00000370: 8f6c 02ba 6eb3 03ba 52a6 01ba cfea 2bba
00000380: 221e 03ba bf7a 9cb6 51dd 5b3a 37d4 01ba
00000390: 7dd4 03ba d5af 02ba b8de 02ba 7fe1 02ba
000003a0: 9175 03ba 6400 06ba 83c5 02ba 9ed1 b5b9
000003b0: ee52 02ba fe9c 03ba 2fd6 21ba b3bf c73a
000003c0: 855d 0cba 7f3b 08ba 7598 e63a e3e9 03ba
000003d0: 48c4 02ba 7222 03ba 5f3a c93a 2a2c 183a
000003e0: c82e 03ba e889 03ba 6170 03ba 1800 0cba
000003f0: 7f56 02ba e982 03ba 81b7 03ba 06a7 02ba

layer2.bias f4 [128]
-7.563594e-09 -0.00011651817 3.7214435e-05 4.1066924e-06 69.71537 2.4978299e-05 3.1266284e-10 69.71537
-3.6542158e-08 -1.0901134e-09 69.71536 -1.2037638e-05 69.71537 4.9192795e-06 -1.1257587e-06 69.715355
-0.000117520314 -1.0648578e-09 69.71537 -2.2009522e-10 69.71538 69.715355 69.71537 69.71537
-2.8286115e-08 69.71537 69.71537 -4.564687e-05 69.71537 69.71537 69.71537 2.711742e-05
69.71537 69.71536 5.6307163e-05 69.71537 -0.00011621978 69.71534 69.71434 69.71537
69.71537 69.71537 5.5891083e-05 69.7156 69.71537 69.71537 -1.2770891e-09 -0.00011615396
69.71537 -0.000116649106 69.71551 69.71537 8.162989e-10 -0.00011635218 69.71536 69.71537
69.71537 69.71537 -0.0001165621 69.71537 69.71537 5.320435e-05 69.71537 69.71537
69.71537 -9.329704e-09 69.71537 69.71537 69.71533 69.71537 69.71537 69.71537
69.71536 69.71536 69.71537 69.71537 69.715355 69.71537 69.71537 69.71537
69.71532 69.71536 2.181558e-05 -0.00011588993 69.71537 -1.4140244e-08 1.5892577e-09 69.71554
69.71537 1.5041567e-09 -3.0471034e-10 1.7712533e-05 69.71537 -6.0215477e-10 69.71537 -0.000116342715
69.715355 69.71537 69.71537 -0.00011649343 69.72521 69.715385 69.71522 0.00031096552
69.715355 69.71536 69.71537 69.71537 69.7186 3.151113e-05 69.71532 -9.759166e-09
69.71536 69.71537 69.71537 69.71537 69.71544 69.71537 -1.4270455e-06 69.71544
-1.6416142e-09 1.0584148e-09 -0.00011653944 69.71537 69.71537 69.71537 69.71537 69.71537
00000000: 0af1 01b2 375b f4b8 b216 1c38 38cc 8936
00000010: 456e 8b42 7d88 d137 62e3 ab2f 456e 8b42
00000020: 87f2 1cb3 f5d2 95b0 446e 8b42 43f5 49b7
00000030: 456e 8b42 4a10 a536 c618 97b5 436e 8b42
00000040: 3d75 f6b8 5a5a 92b0 456e 8b42 4cff 71af
00000050: 466e 8b42 436e 8b42 456e 8b42 456e 8b42
00000060: d3f9 f2b2 456e 8b42 456e 8b42 f474 3fb8
00000070: 456e 8b42 456e 8b42 456e 8b42 377a e337
00000080: 456e 8b42 446e 8b42 5b2b 6c38 456e 8b42
00000090: 05bb f3b8 416e 8b42 be6d 8b42 456e 8b42
000000a0: 456e 8b42 456e 8b42 986c 6a38 636e 8b42
000000b0: 456e 8b42 456e 8b42 9485 afb0 af97 f3b8
000000c0: 456e 8b42 83a1 f4b8 576e 8b42 456e 8b42
000000d0: ee61 6030 1a02 f4b8 446e 8b42 456e 8b42
000000e0: 456e 8b42 456e 8b42 cd72 f4b8 456e 8b42
000000f0: 456e 8b42 bc27 5f38 456e 8b42 456e 8b42
00000100: 456e 8b42 7948 20b2 456e 8b42 456e 8b42
00000110: 406e 8b42 456e 8b42 456e 8b42 456e 8b42
00000120: 446e 8b42 446e 8b42 456e 8b42 456e 8b42
00000130: 436e 8b42 456e 8b42 456e 8b42 456e 8b42
00000140: 3e6e 8b42 446e 8b42 9a00 b737 ef09 f3b8
00000150: 456e 8b42 73ed 72b2 096d da30 5b6e 8b42
00000160: 456e 8b42 cfba ce30 2b84 a7af 6095 9437
00000170: 456e 8b42 e084 25b0 456e 8b42 05fd f3b8
00000180: 436e 8b42 456e 8b42 456e 8b42 ef4d f4b8
00000190: 4f73 8b42 476e 8b42 316e 8b42 1609 a339
000001a0: 436e 8b42 446e 8b42 456e 8b42 456e 8b42
000001b0: ec6f 8b42 d12a 0438 3e6e 8b42 44a9 27b2
000001c0: 446e 8b42 456e 8b42 456e 8b42 456e 8b42
000001d0: 4e6e 8b42 456e 8b42 e988 bfb5 4e6e 8b42
000001e0: 2a9f e1b0 a977 9130 a366 f4b8 456e 8b42
000001f0: 456e 8b42 456e 8b42 456e 8b42 456e 8b42

layer3.weight f4 [6, 128]
7.796691e-09 0.00071366905 0.006402334 0.0069727805 46.003376 0.0063486737 1.5484266e-06 46.003376
-8.408213e-08 1.8866761e-09 46.003376 -1.9526733e-06 46.003384 0.007013936 0.0062945015 46.003376
0.0007207554 1.3777535e-09 46.003376 -6.6181605e-10 46.003384 46.003376 46.003376 46.003376
8.98887e-10 46.003376 46.003376 0.0063819797 46.003376 46.003376 46.003376 0.006199506
46.003376 46.003376 0.0063512856 46.003376 0.0007176769 46.003384 46.003548 46.003376
46.003376 46.003376 0.0063243727 46.003384 46.003376 46.003384 1.7835099e-09 0.00071422005
46.003376 0.00072089187 46.003384 46.003376 -1.3140228e-06 0.0007139701 46.003376 46.003376
46.003376 46.003376 0.0007144751 46.003384 46.003376 0.0063160253 46.003376 46.003376
46.003376 5.009602e-11 46.003376 46.003376 46.003384 46.003376 46.003376 46.003376
46.003376 46.003376 46.003376 46.003376 46.003376 46.003376 46.003376 46.003376
46.00338 46.003384 0.0061977366 0.0007130284 46.003376 8.199788e-09 5.021196e-10 46.003384
46.003376 5.872211e-10 -1.2978907e-10 0.0060540754 46.003376 6.08045e-10 46.003376 0.0007140842
46.003384 46.003376 46.003376 0.0007147313 45.989964 46.003376 46.00338 0.0062335487
46.003384 46.003384 46.003376 46.003376 46.000546 0.006196012 46.00338 9.204207e-09
46.003376 46.003376 46.003376 46.003376 46.003376 46.003376 0.0063712467 46.003384
-3.5075278e-09 2.840507e-09 0.0007196706 46.003376 46.003376 46.003376 46.003376 46.003376
1.0249363e-08 0.0004941786 0.006711306 0.0069758673 46.34435 0.0068501 1.5501898e-06 46.344364
-5.743671e-07 -3.317199e-10 46.344364 -4.6056252e-06 46.34436 0.0069717607 0.0068214703 46.344353
0.0005005651 1.6596317e-09 46.344364 9.78178e-10 46.34435 46.344353 46.34436 46.34436
1.3367276e-09 46.344364 46.34436 0.006820191 46.344368 46.344364 46.34436 0.006838347
46.344364 46.344364 0.006674825 46.344357 0.000497629 46.344364 46.345135 46.344364
46.344364 46.344364 0.006663188 46.34434 46.34436 46.344364 -7.9448803e-10 0.0004947769
46.344357 0.0005112461 46.34435 46.34436 -1.1587946e-08 0.000494603 46.344364 46.344364
46.34436 46.344357 0.000495127 46.344364 46.344357 0.0066657704 46.344364 46.34436
46.344364 8.489234e-09 46.34436 46.34435 46.344368 46.344364 46.344364 46.34436
46.344357 46.344364 46.34436 46.344364 46.344353 46.34436 46.344364 46.344364
46.344368 46.344364 0.006841879 0.00049403 46.344364 9.800413e-09 -1.3607225e-09 46.34434
46.34435 -1.6507621e-09 -4.3849413e-09 0.006872872 46.34435 1.889446e-09 46.344364 0.0004945647
46.344357 46.34436 46.344364 0.00049524463 46.328667 46.34436 46.344368 0.007202546
46.344353 46.344364 46.344357 46.344364 46.33833 0.0068408772 46.34436 3.8246672e-10
46.344357 46.344364 46.34436 46.344364 46.34435 46.34436 0.0068474226 46.344353
-2.0323985e-09 5.5902943e-10 0.00049882114 46.344357 46.344364 46.344364 46.34436 46.344364
00000000: 36f2 0532 8515 3b3a acca d13b ec7b e43b
00000010: 7503 3842 8908 d03b 88d3 cf35 7503 3842
00000020: a490 b4b3 c2a6 0131 7503 3842 ac0a 03b6
00000030: 7703 3842 29d5 e53b 1b42 ce3b 7503 3842
00000040: 13f1 3c3a 645b bd30 7503 3842 2aeb 35b0
00000050: 7703 3842 7503 3842 7503 3842 7503 3842
00000060: 8d15 7730 7503 3842 7503 3842 ed1f d13b
00000070: 7503 3842 7503 3842 7503 3842 3a25 cb3b
00000080: 7503 3842 7503 3842 721e d03b 7503 3842
00000090: 7b22 3c3a 7703 3842 a203 3842 7503 3842
000000a0: 7503 3842 7503 3842 af3c cf3b 7703 3842
000000b0: 7503 3842 7703 3842 ad1f f530 7f3a 3b3a
000000c0: 7503 3842 3cfa 3c3a 7703 3842 7503 3842
000000d0: 7b5d b0b5 b929 3b3a 7503 3842 7503 3842
000000e0: 7503 3842 7503 3842 9d4b 3b3a 7703 3842
000000f0: 7503 3842 a9f6 ce3b 7503 3842 7503 3842
00000100: 7503 3842 1b53 5c2e 7503 3842 7503 3842
00000110: 7703 3842 7503 3842 7503 3842 7503 3842
00000120: 7503 3842 7503 3842 7503 3842 7503 3842
00000130: 7503 3842 7503 3842 7503 3842 7503 3842
00000140: 7603 3842 7703 3842 6216 cb3b 87ea 3a3a
00000150: 7503 3842 0ddf 0c32 8705 0a30 7703 3842
00000160: 7503 3842 036a 2130 60b4 0eaf 4461 c63b
00000170: 7503 3842 5d23 2730 7503 3842 6131 3b3a
00000180: 7703 3842 7503 3842 7503 3842 ce5c 3b3a
00000190: b9f5 3742 7503 3842 7603 3842 cc42 cc3b
000001a0: 7703 3842 7703 3842 7503 3842 7503 3842
000001b0: 8f00 3842 ea07 cb3b 7603 3842 8820 1e32
000001c0: 7503 3842 7503 3842 7503 3842 7503 3842
000001d0: 7503 3842 7503 3842 e4c5 d03b 7703 3842
000001e0: 1509 71b1 ba32 4331 47a8 3c3a 7503 3842
000001f0: 7503 3842 7503 3842 7503 3842 7503 3842
00000200: 2d15 3032 c48b 013a 84ea db3b d195 e43b
00000210: 9d60 3942 ce76 e03b 1e10 d035 a160 3942
00000220: 352e 1ab5 6d5d b6af a160 3942 058a 9ab6
00000230: a060 3942 5e73 e43b a486 df3b 9e60 3942
00000240: 5b38 033a 1919 e430 a160 3942 9470 8630
00000250: 9d60 3942 9e60 3942 a060 3942 a060 3942
00000260: ecb7 b730 a160 3942 a060 3942 e97b df3b
00000270: a260 3942 a160 3942 a060 3942 3614 e03b
00000280: a160 3942 a160 3942 7eb8 da3b 9f60 3942
00000290: 5173 023a a160 3942 6b61 3942 a160 3942
000002a0: a160 3942 a160 3942 df56 da3b 9b60 3942
000002b0: a060 3942 a160 3942 2063 5ab0 eab3 013a
000002c0: 9f60 3942 2505 063a 9d60 3942 a060 3942
000002d0: 5314 47b2 3fa8 013a a160 3942 a160 3942
000002e0: a060 3942 9f60 3942 69cb 013a a160 3942
000002f0: 9f60 3942 896c da3b a160 3942 a060 3942
00000300: a160 3942 0cd8 1132 a060 3942 9d60 3942
00000310: a260 3942 a160 3942 a160 3942 a060 3942
00000320: 9f60 3942 a160 3942 a060 3942 a160 3942
00000330: 9e60 3942 a060 3942 a160 3942 a160 3942
00000340: a260 3942 a160 3942 d731 e03b cb81 013a
00000350: a160 3942 ac5e 2832 2b04 bbb0 9b60 3942
00000360: 9d60 3942 07e1 e2b0 5aaa 96b1 d435 e13b
00000370: 9d60 3942 7cd7 0131 a160 3942 ada5 013a
00000380: 9f60 3942 a060 3942 a160 3942 4ed3 013a
00000390: 8e50 3942 a060 3942 a260 3942 5603 ec3b
000003a0: 9e60 3942 a160 3942 9f60 3942 a160 3942
000003b0: 735a 3942 7029 e03b a060 3942 6843 d22f
000003c0: 9f60 3942 a160 3942 a060 3942 a160 3942
000003d0: 9d60 3942 a060 3942 5860 e03b 9e60 3942
000003e0: 55aa 0bb1 33aa 1930 52c3 023a 9f60 3942
000003f0: a160 3942 a160 3942 a060 3942 a160 3942

layer3.bias f4 [6]
21.523054 15.761238 10.020108 9.6959 21.773216 1.324142
00000000: 372f ac41 082e 7c41 5d52 2041 6822 1b41
00000010: 8c2f ae41 7c7d a93f
