models/130000-trained_model-17-00_44.pth (torch, 79239 bytes, 6 tensors)

layer1.weight f4 [128, 14]
000000 01 b5 72 3d ba 56 3a 3d f7 4f 45 3d ac 8f 20 3d
       0.05925465 0.045492865 0.048171964 0.039199516
000010 85 e3 e6 3c b2 16 27 3d 75 12 56 3d c2 03 66 3d
       0.028184662 0.04079313 0.052263696 0.056155927
000020 58 14 64 3d 9c 96 83 3d 79 ec 27 3d 88 83 34 3d
       0.055683464 0.06425211 0.040997002 0.04407075
000030 22 b1 71 3d 68 ee 02 3d f1 16 ca 3c bf 6f d2 3c
       0.059006818 0.031965643 0.024669142 0.02568805
000040 42 1d 5a 3b fd e9 15 ba e3 01 84 3c 5f 01 4c bf
       0.00332816 -0.0005718766 0.01611418 -0.7968959
000050 45 07 ea 3c b8 a7 c3 3c ce 9a 09 3d 9c 41 92 3c
       0.02856792 0.023883685 0.0335949 0.01785355
000060 94 7d 26 3d cc c2 d3 3c 5a ae ec 3c 4a ac 13 3d
       0.040647104 0.025849722 0.028891731 0.03605298
000070 51 bf b4 bc 2f 7b c2 3c 5c ef be 3c f9 d9 cd bd
       -0.022063883 0.02374038 0.023307495 -0.100513406
000080 55 e2 a4 3c 7c c2 4a bf 69 14 d6 3c fc 1d fc 3c
       0.020127455 -0.7920301 0.02613278 0.030776016
000090 0a a3 07 3d ce 1d 0e 3d 83 3b 2a 3d 0c 0a ab 3c
       0.03311447 0.034696393 0.04156066 0.020878814
0000a0 80 b7 bf 3c a7 e8 08 3d 45 9f 0b be 27 ba 0f bc
       0.02340293 0.033425 -0.13634975 -0.0087724095
0000b0 f8 a4 a1 bd de f8 56 be af da 85 be 6e 1e 46 bf
       -0.078927934 -0.20993373 -0.26143405 -0.7739018
0000c0 8e 11 d6 3a e5 18 c4 3b 0d e0 fe 3c cb 66 a4 3c
       0.0016332136 0.005984413 0.031112695 0.020068547
0000d0 ab cc 13 3d 1c 16 b4 3b 15 5f ca 3c 91 13 db 3a
       0.03608386 0.0054957997 0.024703542 0.0016714205
0000e0 a8 d7 1e 3d 1c 82 60 3d aa ea c7 bd a9 ec 16 3d
       0.038779885 0.054811582 -0.097615555 0.03684679
0000f0 a2 d9 19 3d 5e 05 b4 3d db 7c 13 3d 0a 06 02 3d
       0.037561066 0.08790086 0.036007743 0.03174404
000100 7f 33 32 3d ce ad 3d 3d b8 9c b4 3d fd ee 6b 3d
       0.04350614 0.04630833 0.08818954 0.057600964
000110 12 fe 84 3d ec f0 c4 3c 71 7e 51 3d 4f 40 76 3d
       0.064937726 0.024040662 0.051145975 0.060119923
000120 95 28 86 3d e2 df 7d 3d 18 31 2b 3d 92 23 80 3c
       0.06550709 0.06198109 0.041794866 0.015641961
000130 f4 95 44 3d ec 81 85 3d c1 06 43 3d 4d b7 6e 3d
       0.04799457 0.06518921 0.047613863 0.058280278
000140 8b 0a 25 3d b3 59 17 3d cf df 25 3d 1c b8 33 3d
       0.040293258 0.03695078 0.040496644 0.043876752
000150 93 f2 6a 3d 02 74 37 3d 6f 01 8e 3d 2c bb 66 3d
       0.057360243 0.044788368 0.06933867 0.056330845
000160 67 37 69 3d a5 5d 10 3d 55 ef 2c 3d ba 35 0a 3d
       0.0569376 0.035245556 0.042220432 0.033742644
000170 60 c5 42 3d 63 07 4a 3d 76 90 6d 3d bf 72 6c 3d
       0.047551513 0.04932345 0.057999097 0.057726618
000180 a3 79 6f 3d de 7b 60 3d ae 4a 79 3d 6a cf 67 3d
       0.05846561 0.05480563 0.060862236 0.05659429
000190 2a 3c 69 3d 12 0f 2c 3d 74 21 bf 3c bf da 23 3d
       0.056942143 0.04200656 0.023331381 0.040003534
0001a0 61 ea 54 3d ed 9e 7c 3d c3 16 35 3d c5 29 5f 3d
       0.051981334 0.061675 0.04421116 0.054483194
0001b0 15 42 50 3d 66 00 5a 3d 27 ae 2c 3d b4 f1 0d 3d
       0.05084427 0.053223036 0.042158272 0.034654334
0001c0 0a d2 0a 3d 8c c8 27 3d 13 a5 5e 3d 2d e7 47 3d
       0.033891715 0.04096274 0.054356646 0.04880445
0001d0 2d 9c 58 3d c0 08 3f 3d 12 06 7a 3d 3b 2b 33 3d
       0.052883316 0.046639204 0.061040945 0.0437424
0001e0 1b 3f 8b 3d 00 f2 6a 3d 8d 6c 77 3d be 5e 22 3d
       0.06799146 0.057359695 0.060406256 0.039641134
0001f0 0a 28 3c 3d e2 76 06 3d 8d e3 5e 3d 6a 1b 81 3d
       0.04593662 0.03282822 0.054416228 0.06304057
000200 a8 bb 20 3d ca 57 12 3d 38 0e e1 3c be ef 04 3d
       0.039241463 0.035728253 0.0274726 0.0324552
000210 ff d5 2b 3d 22 2d f2 3c 6d 4c 73 3d d1 da 06 3d
       0.04195213 0.029562537 0.059399057 0.032923523
000220 cf 80 88 3d 63 1e 66 3d 79 48 4b 3d 7a 09 55 3d
       0.06665193 0.056181323 0.049629662 0.05201099
000230 51 23 1a 3d 09 c0 16 3d af ea 47 3d 48 62 65 3d
       0.037631337 0.036804233 0.048807796 0.05600193
000240 fa 19 2d 3d a4 b1 51 3b db 8f 72 3d 06 01 8a 3d
       0.0422611 0.0031996751 0.059219223 0.067384765
000250 04 55 6b 3d e4 46 7d 3d 07 76 84 3d 32 53 71 3d
       0.057454124 0.061835185 0.064678244 0.05891723
000260 8b 6a 7f 3d a7 18 83 3d b2 ea 25 3d 6c 6d ec 3b
       0.062357467 0.064011864 0.040507026 0.0072151925
000270 fa 67 6e 3d ed c1 c8 3d 53 99 47 bd d2 f5 ef bc
       0.05820463 0.098026134 -0.048730206 -0.029292021
000280 23 18 1a be d9 ec 50 bc a4 22 3b bd e4 25 a0 3d
       -0.1504827 -0.012751781 -0.045687333 0.07819727
000290 c0 08 9a 3c 3c 6c eb bb 28 e6 ed bd 99 84 c6 bd
       0.018803 -0.0071845334 -0.116161644 -0.0969326
0002a0 d0 b1 4d 3b 9a 57 bf 3c f3 bd 49 3c e6 92 0c bd
       0.0031386502 0.023357201 0.012313354 -0.03431978
0002b0 4e 86 c4 3c 19 f1 f8 be 3c 97 cf 3b cc 87 b9 3c
       0.023989823 -0.48621443 0.006335167 0.02264776
0002c0 95 2c aa 3c 8f 25 b8 3c 07 6a b8 3c 56 67 80 3c
       0.020773211 0.022478847 0.022511495 0.015674274
0002d0 b5 c4 bb 3c 2b 02 7d 3c 01 cc 33 3d 4c 40 30 3d
       0.022920946 0.015442411 0.043895725 0.04303007
0002e0 e4 68 67 3d a0 1d 4f 3d 73 76 7a 3d 3c c8 02 3d
       0.056496516 0.050565362 0.06114812 0.03192924
0002f0 1c 05 3c 3d 60 d8 28 3d 5c 56 1f 3d 21 5c 13 3d
       0.04590331 0.041221976 0.038900718 0.035976533
000300 3c a6 50 3d 7e 1c 63 3d 7d f1 5d 3d 04 a2 67 3d
       0.050939783 0.055447094 0.05418538 0.056550995
000310 5d a2 84 3d dd a7 b9 3b 91 12 ef 3c 5d a7 ee bc
       0.06476281 0.005665763 0.029183658 -0.02913254
000320 d2 37 2b 3b a6 a8 c5 3b d6 e6 df bd 5d 87 ee bc
       0.00261258 0.0060320674 -0.109327 -0.02911728
000330 ec 15 81 bc 01 20 b0 bc eb e1 d8 bb 41 b4 b9 bc
       -0.015757523 -0.021499636 -0.0066187284 -0.02266896
000340 3f 5b 03 3c 30 bd b1 ba 44 e2 83 3d df b6 6d 3d
       0.00801736 -0.0013560411 0.06439641 0.058035728
000350 20 c1 27 bd ee b9 82 3d f8 89 1d 3d a5 97 38 3d
       -0.040955663 0.063831195 0.038461655 0.045066494
000360 b0 88 75 3d 2c 79 16 3d 09 73 09 3d d9 19 4d 3d
       0.05994481 0.036736652 0.03355697 0.05007348
000370 89 5b ba 3d 07 d2 40 3d 9e 65 46 3d 2d 04 1a 3d
       0.0909949 0.047075298 0.048436753 0.03760164
000380 d8 a6 65 3d 82 9c 6d 3d 0f 77 66 3d 1a d6 64 3d
       0.056067318 0.058010586 0.056265887 0.055868246
000390 d6 b3 32 3d 74 85 38 3d 39 f6 3d 3d fb 15 57 3d
       0.043628536 0.045049146 0.046377394 0.052511197
0003a0 68 82 32 3d be 3e fd 3c 6d d8 5b 3d 0b 6a 2a 3d
       0.043581396 0.030913707 0.053673197 0.041605037
0003b0 a9 74 16 3d 66 03 36 3d 02 33 55 3b 68 14 ec 38
       0.03673235 0.044436835 0.0032531624 0.00011257158
0003c0 09 f7 2c bc 34 0d 19 3c eb 79 d9 bb 84 ba 09 bc
       -0.010556945 0.009341527 -0.006636848 -0.008406285
0003d0 e7 36 08 bc 66 65 d9 3b 63 2b 33 bc 29 79 62 bc
       -0.008313871 0.006634402 -0.010935637 -0.013822832
0003e0 94 65 e0 bb e3 6a 8d bb 04 56 5d bc a4 ac 1a bc
       -0.0068480466 -0.0043157204 -0.013509277 -0.009440575
0003f0 35 40 d6 3c b2 8f 85 3c 17 a7 d6 3c 47 db 53 3d
       0.026153663 0.01630387 0.026202722 0.05172279

layer1.bias f4 [128]
000000 c7 bf 60 3d 6f 4b 81 bc a1 a3 34 bc 8c 67 8d bc
       0.054870393 -0.01578304 -0.01102534 -0.017261289
000010 5d 58 93 3d 06 c9 8b 3d 26 20 99 3d cd 01 66 3d
       0.07194588 0.068254516 0.07476835 0.05615406
000020 2a 96 93 3d e7 08 5a 3d e6 93 87 3d b9 b0 29 bc
       0.07206376 0.053231146 0.06620006 -0.010357075
000030 aa 49 a8 bc 11 6f 41 3d 22 c3 89 3a 92 0f 4f 3d
       -0.020542938 0.04722506 0.0010510425 0.05055196
000040 aa 45 55 3d 95 bb 85 bb 71 8b b5 3b a5 43 5e 3d
       0.05206839 -0.0040811994 0.0055403044 0.05426373
000050 10 bc 80 3d 7b 2a a4 3d ae 80 86 3d 54 df fc bc
       0.0628587 0.08015915 0.065675125 -0.03086821
000060 fa 06 4c 3d c3 94 f3 bc 7b 66 6f 3c 15 d8 0d 3d
       0.04981134 -0.029734021 0.014611836 0.0346299
000070 f7 ab 38 3d b4 c4 4a 3d 0c a5 91 3d f2 da 7c 3d
       0.045085873 0.049503997 0.07111558 0.06173224
000080 73 2d 87 3d 54 3e ee 3d 27 94 66 3d b2 d9 82 3d
       0.066004656 0.11632982 0.056293633 0.06389178
000090 23 cc a4 3d 03 7b 93 bd d9 75 bc 3d 15 85 67 3d
       0.080467485 -0.07201197 0.09202165 0.0565234
0000a0 88 f0 49 3d 3e d8 ef 3c 0d 31 48 3d f5 71 31 3d
       0.049301654 0.029277917 0.048874903 0.04332157
0000b0 ef 28 8a 3d 20 e9 4b 3d 80 fe 76 3d 4a 54 5a 3d
       0.06746089 0.049782872 0.060301304 0.05330304
0000c0 10 9b 7a 3d 95 0c 8f 3d 5a de b8 bc 62 ff 00 bc
       0.061183035 0.06984822 -0.022566963 -0.007873388
0000d0 55 e8 55 3d 02 0e 80 3d 0d 79 b8 3d 6d f8 9d 3d
       0.052223522 0.06252672 0.090074636 0.07713399
0000e0 f3 91 3c 3d 8d 32 75 3d 6f 15 87 3d c9 e6 47 3d
       0.046037626 0.059862662 0.06595885 0.04880408
0000f0 23 f0 8c 3d e5 b8 90 3d 6f 6a 99 3d 94 6b 89 3d
       0.0688174 0.07066516 0.07491004 0.06709972
000100 cc 5a 3b 3d d5 b4 8f 3c c7 93 37 3d 2f 4b 82 3d
       0.045740888 0.017542282 0.044818666 0.063619964
000110 c2 57 bc 3d 08 db ac 3d 90 db 63 3d 3f 1c 6f 3d
       0.09196426 0.084402144 0.055629313 0.058376547
000120 dc 75 17 bc 38 54 8a 3c 90 43 00 bd 2c fa 88 3d
       -0.009244408 0.016885862 -0.031314433 0.066883415
000130 46 74 7d 3d ec e1 8a 3d a5 da b8 3d fe 5b b1 3c
       0.061878465 0.067813724 0.09026078 0.02165031
000140 01 84 61 3d 86 93 22 3d c5 bd ea bc 4f 0d 70 3d
       0.05505753 0.03969147 -0.028654942 0.058606442
000150 be c8 7c 3d f2 10 66 3d 21 a5 0f 3d 4c 6d 8a 3d
       0.06171488 0.056168504 0.03506959 0.06759128
000160 b2 ba db bb 92 fa 90 bc e5 3a ad bc 65 62 8f 3d
       -0.0067056054 -0.017697606 -0.021146247 0.07001189
000170 2a a2 64 3d df 03 86 3d 24 67 fb 3c 67 6c 0e 3d
       0.055818714 0.06543707 0.03068883 0.03477135
000180 c6 e6 ef 38 91 90 c1 bc aa 90 69 3d e1 15 4a bc
       0.00011439393 -0.023628505 0.057022728 -0.012334318
000190 93 09 ff 3c 04 b3 3f 3d 78 ba 47 3d 7c a4 1c 3d
       0.031132495 0.046801582 0.048761815 0.038242802
0001a0 76 7e 54 3d 4e 4e 36 3d 75 89 1b 3d 78 92 67 3d
       0.051878415 0.04450827 0.037972886 0.056536168
0001b0 1a 69 98 3d ff bb 93 3d 00 00 77 3d d9 f2 5c bc
       0.074419215 0.07213592 0.060302734 -0.013485634
0001c0 e9 b9 ca bb 14 19 97 3d 36 00 42 bc 30 d1 47 3d
       -0.006186713 0.0737783 -0.011840871 0.04878348
0001d0 96 30 58 3d 45 57 48 3d 22 00 46 3d 91 e0 65 3d
       0.05278071 0.04891135 0.04833997 0.056122366
0001e0 d9 86 7e bc db 49 84 3d 9e 2b c9 3d c3 1a 95 3d
       -0.01553508 0.06459399 0.098227724 0.07280495
0001f0 2b 92 94 3d b7 84 95 3d d6 b2 5b 3d 51 ef 5f 3d
       0.07254442 0.07300704 0.053637348 0.05467159

layer2.weight f4 [128, 128]
000000 32 01 86 3d c0 6c d6 bd 5f 3c 93 bd e2 5f e6 bd
       0.06543197 -0.10469961 -0.07189249 -0.11248757
000010 f7 a1 74 3d f8 04 6b 3d 66 ff 6c 3d 0b 0e 59 3d
       0.059724774 0.057377785 0.057860754 0.052991908
000020 19 f0 69 3d 1c 28 82 3d 9a 60 78 3d db 79 83 be
       0.05711374 0.063553065 0.060639 -0.25678906
000030 01 44 f4 bc b5 05 81 3d 87 11 89 3d 2e 5b 59 3d
       -0.029817583 0.06299917 0.06692796 0.05306547
000040 1a f1 65 3d 25 4d 2d 3b 66 eb 88 3e 87 02 80 3d
       0.056138135 0.0026443687 0.26742095 0.06250482
000050 c2 a1 67 3d 50 2c 6f 3d ec 29 6a 3d d5 5e c6 bd
       0.05655075 0.05839187 0.057168886 -0.096860565
000060 d4 72 64 3d 6b bd 25 be 02 a1 a8 3c 65 46 22 3d
       0.05577357 -0.16185538 0.020584587 0.039617915
000070 bd 22 72 3d 3f 6c 5d 3d cd dc 6f 3d d1 db 85 3d
       0.05911516 0.05405831 0.05856018 0.06536067
000080 c0 69 77 3d a0 12 3a 3e 6f 29 83 3d 04 15 68 3d
       0.060403585 0.18171167 0.06404387 0.056660667
000090 19 7e 38 be 7a 32 56 3e da 32 c1 bd be e1 48 3d
       -0.18016852 0.20917693 -0.09433527 0.04904341
0000a0 62 50 86 3d 5e b6 f9 3c af cc 75 3d 9b 5b 0f 3d
       0.065583006 0.030482467 0.060009655 0.03499947
0000b0 76 5b 67 3d 0a b8 81 3d 57 eb 81 3d 17 0a 82 3d
       0.05648371 0.06333931 0.06343716 0.06349581
0000c0 a8 db 77 3d c9 ae 6e 3d 43 c1 9a bd 88 8d 24 bd
       0.060512215 0.058272157 -0.07556393 -0.040174037
0000d0 31 ca 64 3d 49 61 6a 3d b2 70 37 be 40 28 66 3d
       0.055856887 0.057221685 -0.17914084 0.05619073
0000e0 d7 35 6a 3d 16 44 5c 3d e4 6a 88 3d be 03 6d 3d
       0.057180252 0.05377587 0.06661013 0.057864897
0000f0 45 af 80 3d a7 49 76 3d 57 14 81 3d d0 1c 68 3d
       0.0628343 0.060128834 0.06302708 0.056668103
000100 4b 66 42 3d 8f dd 6b 3d be 94 6e 3d 9b 39 5e 3d
       0.047460835 0.05758434 0.05824732 0.054254156
000110 a1 03 2e be 91 4a 16 be 68 0c 6c 3d ce a0 77 3d
       -0.16993572 -0.14676882 0.05762902 0.06045609
000120 ed a9 32 be f4 c0 a1 3d 06 10 92 bd dd 6c 6d 3d
       -0.17447634 0.07898131 -0.071319625 0.05796515
000130 7a 1e 83 3d 62 a2 6e 3d 12 53 03 be 25 da 82 3d
       0.06402297 0.05826033 -0.12824658 0.06389264
000140 f8 03 85 3d 77 18 80 3d 80 0d 1c be fc 64 56 3d
       0.064948976 0.06254666 -0.15239525 0.0523424
000150 f4 c8 ca 3a 6f 11 77 3d d9 e7 65 3d ee 41 7c 3d
       0.0015471266 0.06031936 0.05612931 0.061586313
000160 09 0e 96 3d 9a 75 9e bd 02 c1 11 be ba 77 67 3d
       0.07326896 -0.077372745 -0.14233783 0.056510665
000170 41 92 81 3d e0 26 71 3d 04 75 bd 3a 65 21 4d 3c
       0.06326724 0.058874965 0.0014454429 0.012520169
000180 d0 1a 23 3d a7 3a df 3d 62 54 8a 3d d4 b2 05 be
       0.039820492 0.10899859 0.06754376 -0.13056499
000190 b1 32 93 3d c8 46 64 3d 66 36 57 3d 71 69 92 3d
       0.07187403 0.055731565 0.052542113 0.071490176
0001a0 a0 dd 84 3d 2e 2c 78 3d 01 41 78 3d 10 1b 5a 3d
       0.06487584 0.060589008 0.060608868 0.053248465
0001b0 15 0c 6d 3d cf ac 7d 3d d9 18 87 3d cd c4 ed bd
       0.05787285 0.06193238 0.06596536 -0.116098024
0001c0 6f 06 60 3d 48 0c 7b 3d b5 2a c6 bd a7 95 ad 3d
       0.054693636 0.06129101 -0.096761145 0.084758095
0001d0 17 06 94 3d 8b 29 75 3d 54 d1 76 3d 79 78 7c 3d
       0.07227724 0.05985407 0.060258225 0.06163833
0001e0 6d 67 0f be 40 fd 6f 3d ad 58 e7 bd 60 75 82 3d
       -0.14004298 0.058591127 -0.112962104 0.06370044
0001f0 a8 47 77 3d 05 bb 81 3d 1b 72 6c 3d 14 e6 6e 3d
       0.06037107 0.06334499 0.057726007 0.05832489
000200 31 d2 6b 3d 44 21 1d 3e 39 3b 2e 3e 3f e3 29 3e
       0.0575735 0.15344721 0.17014779 0.16590594
000210 6b f4 18 bd d8 0b 42 3d 53 f8 2b 3d 6d 7c 6a 3d
       -0.03734247 0.047374576 0.041984867 0.057247568
000220 8e fe 2d 3d ab e5 0c 3d 41 82 fc 3c 9f 0d 0e be
       0.04247909 0.034398716 0.030823829 -0.13872384
000230 66 30 bf 3d 9b a4 21 3d e1 a9 f5 3d 67 d4 6d 3b
       0.09335403 0.03946362 0.119952925 0.0036289932
000240 8e b9 13 3d 7f 40 89 bb d9 60 61 3e f7 c7 0a 3d
       0.03606563 -0.0041885967 0.220096 0.033882108
000250 5b b0 03 3d 5c 5e 2a 3d 74 43 fd 3c fe 93 1d 3e
       0.032150608 0.041593894 0.030915953 0.15388486
000260 05 f5 57 3c 31 eb dd bd 58 4b 4f 3d 2b b3 1e 3d
       0.013180976 -0.10835875 0.050608963 0.038745087
000270 79 21 aa 3c c7 a3 28 3d ed 04 1a 3d 5b 0b 21 3d
       0.020767914 0.041171815 0.037602354 0.03931747
000280 e1 a1 6e 3c 8b aa 78 3d 7a 0b 14 3d 38 95 fa 3c
       0.014564962 0.060709517 0.036143757 0.030588731
000290 a2 4e 57 be 91 45 ad 3d 0f 42 82 bd 12 17 fa 3c
       -0.2102609 0.08460534 -0.06360256 0.030528579
0002a0 16 01 1c 3d 4c 83 19 3d e5 b0 c1 3b f3 d0 fc 3c
       0.038086973 0.03747873 0.00591098 0.030861354
0002b0 3a 24 11 3d 2d 01 2a 3d 72 69 22 3d 1e 99 19 3d
       0.03543494 0.041505028 0.03965134 0.03749954
0002c0 29 7f 07 3d f6 6b 03 3d e0 26 0f 3e 9a e0 23 3e
       0.033080254 0.03208538 0.13979673 0.16003647
0002d0 ea 8d f2 3c b7 d5 39 3d 34 15 c5 bd 47 99 06 3d
       0.029608686 0.04536983 -0.09623185 0.03286102
0002e0 72 cf 66 3d 3a 03 16 3d 5a 2b 25 3d 4f 39 3a 3d
       0.05635018 0.03662417 0.040324546 0.04546481
0002f0 da 37 28 3d 71 59 a2 3c a2 00 16 3d e8 d1 ff 3c
       0.04106889 0.01981804 0.036621697 0.03122802
000300 af 45 f5 3c cb 9d 58 3d 70 c1 5b 3c f8 0d 14 3d
       0.029940454 0.052884858 0.013412818 0.036146134
000310 16 43 8d bd 37 37 b2 bd 2c 8b a3 bc a0 a4 07 3d
       -0.06897561 -0.08701938 -0.019963823 0.033115983
000320 af 88 1c bd f3 47 9e 3d 7b 57 a1 3d b6 04 0f 3d
       -0.03821629 0.07728567 0.07878014 0.034916602
000330 53 2b 27 3d b0 58 4d 3c 91 d1 b6 bd d2 f9 7d 3d
       0.0408128 0.012533352 -0.0892669 0.062005825
000340 8b 05 05 3d ea 09 79 3d 2f bb 42 3e 55 ea 3f 3d
       0.03247599 0.06080047 0.19016717 0.046854336
000350 d1 cb 80 bc f2 74 4d 3d ae f1 0d 3d 17 fa 10 3d
       -0.015722187 0.050160356 0.03465431 0.035394754
000360 b1 90 8a 3d 02 13 0d 3e 67 b7 76 bd bd 14 26 3d
       0.06765879 0.13776782 -0.0602335 0.04054712
000370 ad e2 06 3d 97 43 0f 3d 71 a8 08 3b 34 44 11 bd
       0.03293102 0.034976568 0.0020852352 -0.035465434
000380 91 33 35 3d 61 99 eb 3d fd 53 2c 3d c1 45 2e 3e
       0.04423863 0.11503864 0.042072285 0.17018797
000390 ba 75 87 3d 74 d0 68 3d 87 fd 1b 3d f9 49 a2 bb
       0.066142514 0.05683942 0.03808358 -0.004952666
0003a0 94 7c 32 3d fd b9 f3 3c bd fa 23 3d 48 01 84 3c
       0.04357584 0.029751772 0.040034045 0.016113892
0003b0 72 97 27 3d 23 fe f1 3c 0f f5 4d 3d 63 a2 68 bc
       0.040915914 0.029540127 0.050282534 -0.014198872
0003c0 6a 46 a3 3b de a5 ae 3c 33 a5 ee 3d 24 4e 0e bd
       0.0049827592 0.021319326 0.11652603 -0.03474249
0003d0 1e 92 d9 3c 07 ea 23 3d 48 c3 2a 3d dc f1 18 3d
       0.026558932 0.040018108 0.04169014 0.03734003
0003e0 58 3e 70 3d 21 7f 28 3d 32 9b 7c bc d1 9c 30 3d
       0.058653206 0.041136865 -0.015417861 0.0431183
0003f0 53 c2 36 3d 0d 56 18 3d b5 e1 7f 3d 96 1e 29 3d
       0.044618916 0.03719144 0.06247111 0.041288935

layer2.bias f4 [128]
000000 45 eb 6e 3d f1 3c 2d 3d 66 b2 5b 3d 8e 6f 3b 3d
       0.05832984 0.042294446 0.05363693 0.045760684
000010 22 56 33 3b d3 52 90 bb c2 a7 d8 3d 93 c4 62 3d
       0.0027364572 -0.0044044047 0.10578872 0.05536325
000020 53 d7 70 3d ba 5a 81 3d 58 88 2a 3d d1 61 9b 3b
       0.0587991 0.06316133 0.041633934 0.0047418852
000030 41 f0 77 3d 5b 4b 5c 3d 9d c9 51 3d e5 62 76 3d
       0.06053186 0.053782802 0.051217664 0.060152907
000040 7a 83 96 bb 05 78 6c 3d 62 d5 61 3d f5 52 58 3d
       -0.00459331 0.057731647 0.05513514 0.05281349
000050 a0 4e 78 3d 83 a2 d2 3c ca 01 59 3d 8c 76 7e 3d
       0.060621858 0.025712257 0.05298022 0.062124774
000060 97 f1 52 3d c1 8c 76 ba ca 08 84 3d bb d3 78 3d
       0.05149993 -0.0009405129 0.06446989 0.060748797
000070 e6 0e 70 3d 73 e5 58 3d 8e 36 66 3d d3 42 92 bb
       0.05860796 0.052953195 0.05620437 -0.0044635325
000080 82 12 53 3d 62 91 74 3d ec 6d 6e 3d c3 c3 6b 3d
       0.051531322 0.05970896 0.0582103 0.05755974
000090 7d 00 4a 3d 1a 35 68 3d d5 41 47 3d 78 f7 75 3d
       0.049316872 0.056691267 0.048646767 0.060050458
0000a0 4f ce 80 3d 09 41 76 3d 8f d0 3b 3d a3 d6 77 3d
       0.0628935 0.060120616 0.045853194 0.060507428
0000b0 a7 74 1a bb a4 cf 2c bd e5 dc 54 3d 32 d9 12 3c
       -0.0023568065 -0.04219021 0.051968474 0.008962916
0000c0 8b 4c 71 3d f2 6c 80 3d f8 ef 4e 3d 52 ca 76 3d
       0.058910888 0.0627078 0.05052182 0.06025154
0000d0 18 cd 60 3d 41 34 65 3d 5e 13 80 3d 32 15 5c 3d
       0.054883093 0.055958036 0.06253694 0.05373115
0000e0 5e cd 48 3d 49 c4 6e 3d 2e 15 69 3d 08 f8 06 3d
       0.04902398 0.05829266 0.056904964 0.032951385
0000f0 cc 5f f1 ba fd dd 0c 3d ff 7d ce 3a a1 e1 58 3d
       -0.001841539 0.034391392 0.0015754102 0.05294955
000100 a5 65 1e 3d 1a b5 81 3d 8f ef 65 3d d9 88 1f 3d
       0.038671155 0.063333705 0.056136664 0.038948867
000110 ee 94 5b 3d 46 31 6e 3d b4 ad 89 3d 9f 58 59 bc
       0.053608827 0.05815246 0.06722584 -0.013265758
000120 c3 2d 6d 3d 25 dc 73 3d 84 10 a8 3c b6 26 73 3d
       0.05790497 0.059536118 0.020515688 0.05936309
000130 cf 9c 87 3c 8e f8 3e 3d 2f 0f 6f 3d b2 0c 82 3d
       0.016554264 0.04662376 0.05836409 0.06350078
000140 45 24 5b 3d 86 9a 82 3c 1d 72 a0 bb 31 38 7d bb
       0.053501386 0.015942823 -0.004896416 -0.003863823
000150 36 fe 80 3d 21 10 71 3d a4 9c 42 3d 1c 0b 5d 3d
       0.06298487 0.058853272 0.047512665 0.053965673
000160 2d 09 18 3c ee 71 87 3b e3 c0 0e 3b 41 24 4d 3d
       0.009279531 0.0041334545 0.002178245 0.050083403
000170 c1 c4 66 3d 95 a5 63 3d 14 28 59 3d 72 9f 72 3d
       0.056339983 0.055577833 0.053016737 0.05923409
000180 df 0c 8a 3c bc e2 01 3b 61 68 6f 3d fa 83 81 3d
       0.01685184 0.0019818982 0.058449153 0.06324001
000190 95 18 81 3d 49 cb 62 3d a5 a8 28 3d a1 d9 5d 3d
       0.06303517 0.05536965 0.041176457 0.054162625
0001a0 8b 7a 5f bb 04 8e 75 3d 41 b4 75 3d 3f ab 20 3d
       -0.003410014 0.05994989 0.059986357 0.039225813
0001b0 f3 25 64 3d db ef 73 3d d7 b1 68 3d 41 df 4b 3d
       0.055700254 0.059554916 0.056810226 0.04977346
0001c0 b4 5b 39 3b 65 a9 6c 3d fd 74 90 bb a1 dc 4b 3d
       0.002828342 0.057778735 -0.0044084773 0.049770955
0001d0 a0 d8 08 3d f6 0a e5 bb 70 13 70 3d 91 2b 54 3d
       0.033409715 -0.006989832 0.058612287 0.05179936
0001e0 fe 70 58 3d a1 9c 5a 3d 60 34 5c 3d d6 6e be b9
       0.052842133 0.05337203 0.053760886 -0.00036322203
0001f0 f9 1a 6d 3d 11 d6 5a 3d 04 8b 1b 3d 8c b3 52 3d
       0.05788705 0.053426806 0.037974373 0.05144076

layer3.weight f4 [6, 128]
000000 09 b3 ce 3c ae 6c bb 3d e6 39 92 3c 99 aa 45 3d
       0.025231855 0.091515884 0.017849874 0.048258398
000010 6a f5 7d 3b 00 ee d5 3a 6e cc 66 3c aa f3 bc 3c
       0.0038751015 0.001632154 0.014086826 0.023065407
000020 0c b5 78 3c 6d d3 83 3c 4c ec 01 bb cd 60 f7 3a
       0.015179884 0.016092027 -0.0019824682 0.0018873453
000030 a5 97 97 3c 40 8a e0 3c 7e ef ae 3c c2 72 d0 3c
       0.018504927 0.027409673 0.021354433 0.025445346
000040 18 fa fd b8 6b 4e 21 3d b4 4a 02 3d 26 29 73 3c
       -0.00012110564 0.039381426 0.031809524 0.0148413535
000050 8c 2e 3a 3c 9b da b0 3b c1 f7 a5 3c 8a 4a 98 3c
       0.011363637 0.0053971536 0.02025974 0.01859023
000060 74 3a 82 3c af da 70 bb a7 e9 a3 3c 8c cc 8d 3c
       0.015897013 -0.003675144 0.020008875 0.01730945
000070 b0 39 21 3c dd b9 14 bd 87 b6 bc 3c c5 12 2a bb
       0.009840414 -0.036310066 0.023036255 -0.002595113
000080 8b ed 6c 3d f1 9a be 3c d4 87 f6 3c 4e 77 a2 3c
       0.057843726 0.023267241 0.030094065 0.01983228
000090 19 fd 13 3c d2 8c a8 3c a1 59 29 3d bb ae 81 3c
       0.009032511 0.02057496 0.041345242 0.015830388
0000a0 b8 38 9f 3c 53 c3 e5 3c 98 6e 0d 3c 49 7a b2 3c
       0.019436225 0.02804724 0.008632325 0.021786826
0000b0 b9 bd 62 bb ef b8 2d 3d 70 fb 1e 3c cb 21 b0 3c
       -0.0034597947 0.042412695 0.009703502 0.021500489
0000c0 22 6f bd 3c 91 af a1 3c 16 96 a9 3d c1 55 be 3c
       0.023124281 0.019737037 0.0828058 0.02323425
0000d0 41 e5 a9 3c 8a 53 58 3c 85 75 a0 3c ce e5 61 3c
       0.0207392 0.013203511 0.019587288 0.0137877
0000e0 57 47 e2 3b 2e 93 68 bd 7e e9 a1 3b d7 9c a8 3d
       0.006905477 -0.056780986 0.0049411645 0.0823304
0000f0 1d 48 44 3b 82 ef 0c 3d 7a f1 13 bb 31 06 d2 3c
       0.002995021 0.0344081 -0.0022574351 0.025637718
000100 ec 60 c6 bd 2d 50 ac 3c 05 ba 07 3d 50 8f 9a 3d
       -0.09686455 0.021034325 0.033136386 0.07546866
000110 6d 6e e4 3c 1f 4c 96 3c 22 ed f9 3c ce cf 71 be
       0.027884686 0.018346844 0.030508582 -0.23614427
000120 f3 c1 a8 3c 6c 4e 9a 3c e6 8a 25 3d 9d bf 18 3c
       0.020600295 0.018836223 0.040415667 0.009323028
000130 e8 48 c9 3c cd c0 03 3b 1f 8d bd 3c c4 05 b1 3c
       0.024570897 0.0020103932 0.02313858 0.021609195
000140 ea 54 9b 3b 29 f3 83 3d 13 c2 64 bb 27 81 5c 3b
       0.004740347 0.064428635 -0.0034905716 0.0033646317
000150 e8 ed ae 3c 95 7f c4 3c 3f e2 12 3d 25 4d 77 3c
       0.021353677 0.023986617 0.035860296 0.015094076
000160 3f ed 86 bc 27 80 65 38 5d 79 ab 3a 05 18 a7 3c
       -0.01647055 5.4717206e-05 0.0013082434 0.020397196
000170 3f 2e 4a 3c 38 c3 3d 3c 7c 9c 68 3c 26 a7 99 3c
       0.0123401275 0.011582188 0.014197465 0.01875646
000180 05 c3 4f 3c eb 25 79 bb 95 54 b6 3c c5 e6 5e 3c
       0.012680774 -0.0038016986 0.022257129 0.013604824
000190 48 44 b2 3c bd c7 44 3c 0a 37 16 bd e7 42 18 3d
       0.021761075 0.012010512 -0.036673583 0.037173178
0001a0 9a 8c 74 3b 2b 81 e1 3c 77 d8 9b 3c 6d 5e 8d bc
       0.003731525 0.027527412 0.019024117 -0.01725694
0001b0 66 64 b2 3c e3 4c cf 3c 23 44 08 3d f5 4a b3 3c
       0.02177639 0.025305217 0.033268105 0.021886328
0001c0 5d 1c 1c 38 a4 6b a4 3c ba 2e 51 bb 70 dd 21 3d
       3.7219714e-05 0.020070858 -0.003191872 0.03951782
0001d0 01 18 d6 39 34 77 25 bd 39 17 c0 3c 1d 8d 41 3c
       0.00040835145 -0.040396884 0.023448573 0.011813429
0001e0 6f b9 9c 3c b3 8f 99 3c 3b 65 f5 3c 5c a9 b4 ba
       0.01913139 0.018745279 0.029955497 -0.0013783383
0001f0 37 c1 6c 3c 3a 20 35 3d 93 3c c0 3c 0e 75 01 3c
       0.014450363 0.044220187 0.023466384 0.007901443
000200 3b 33 87 3c 75 12 60 3d 26 4c 0e 3d 2c 1f 99 3c
       0.01650392 0.054705102 0.03474059 0.018691622
000210 67 9d e7 3a 89 a8 07 3b a1 2a 0c 3e f3 38 3d 3c
       0.0017670811 0.002069982 0.13688137 0.011549222
000220 fa 70 a0 3c 52 ec 83 3c 1f 5e 70 3c e1 f5 89 3a
       0.019585121 0.016103897 0.014670878 0.0010525548
000230 d9 20 60 3c ea 00 63 3c 21 f2 0d 3c 7f 78 65 3c
       0.0136797065 0.013855198 0.008663685 0.014005779
000240 24 90 5d 3b 33 ca cf 3c b9 30 9c 3c 89 13 fe 3c
       0.0033807838 0.02536497 0.019066202 0.031015174
000250 35 8d a7 3c d0 b8 4d 3d 04 d0 9b 3c 44 fd 9e 3c
       0.020453075 0.05022508 0.019020088 0.019407876
000260 66 c4 6e 3c 35 df fc bb 0a 44 27 3d bc 52 52 3c
       0.014573192 -0.007717038 0.04083637 0.012837108
000270 b5 d5 93 3c 25 fb 96 3c 5b 1d 31 3c e9 f4 28 ba
       0.01804624 0.018430302 0.010810222 -0.0006445186
000280 4d e6 0e 3d df db a9 3c 82 a7 52 3c 48 72 a5 3c
       0.0348876 0.020734726 0.01285732 0.020196095
000290 35 0d bf 3c 3d c3 bb 3c fc 3f 71 3c 2c 7f 84 3c
       0.023321727 0.022920245 0.014724728 0.016173922
0002a0 81 21 7c 3c bb a8 c6 3c 64 5c cc 3c fe 04 96 3c
       0.015388847 0.024250379 0.024946399 0.018312927
0002b0 a4 51 3e bb 33 3f dc bc 75 85 53 3c f7 4d 31 3d
       -0.002904036 -0.026885604 0.012910237 0.043287244
0002c0 06 f5 95 3c b0 55 3c 3c 5d 84 52 3d 41 f8 ad 3c
       0.018305313 0.011495039 0.051395763 0.02123654
0002d0 29 51 b9 3c 46 df 94 3c 30 8e 9f 3c c7 c4 9f 3c
       0.022621708 0.018172871 0.01947698 0.01950301
0002e0 ff 6c a3 3c 5b 6f ee bc 1f 3b 0d 3d db 50 4b 3d
       0.019949434 -0.029105833 0.03448021 0.049637657
0002f0 54 7e 98 3b 9d 0f 6d 3d 3c 48 17 ba e0 a2 e4 3d
       0.0046537314 0.057876218 -0.00057709566 0.111638784
000300 10 29 05 bd 52 fd 5e 3c ab a9 1c 3d 29 33 bb 3d
       -0.032509863 0.013610201 0.038247745 0.091406174
000310 d7 97 8d 3c ea ae 4b 3c 39 b2 90 3c a3 17 04 be
       0.017284317 0.0124318395 0.017663108 -0.12899642
000320 b3 64 57 3c 71 93 57 3c 19 e9 fb bc 7e 10 a6 3c
       0.013146567 0.013157711 -0.030750798 0.020271536
000330 fd ac 97 3c f6 27 d3 3c 6c 53 95 3c 33 8f 69 3c
       0.018515104 0.02577589 0.018228255 0.014255333
000340 b0 eb 6d 3c 38 9d 98 bd a4 89 54 39 48 f7 2a 3a
       0.014521524 -0.07451862 0.0002026917 0.0006521833
000350 91 b2 51 3c 4b b9 7a 3c aa 90 17 3d 5c f7 77 3c
       0.012798921 0.015302966 0.037003197 0.015134659
000360 d0 74 0c 3b e0 79 d4 38 cf f8 8d bb fe 0b c3 3c
       0.002143193 0.00010131649 -0.004332639 0.02380943
000370 76 44 a0 3c 9d a6 a2 3c 17 21 af 3c 89 c0 53 3c
       0.019563895 0.019854838 0.021378083 0.012924322
000380 00 a7 75 3b ee a4 51 3b 6f a2 a7 3c b6 d7 9e 3c
       0.0037483573 0.0031989175 0.020463197 0.019389968
000390 e5 0c 72 3c 08 16 9c 3c 36 03 99 3c 75 3e 8c 3d
       0.014773582 0.019053474 0.018678289 0.0684785
0003a0 11 3d 0f 3b 76 d7 8d 3c 0f a0 af 3c 52 d9 77 3d
       0.0021856467 0.017314654 0.021438627 0.060509987
0003b0 28 09 66 3c 06 af 77 3c 8e db 15 3c d0 a9 55 3c
       0.014040269 0.015117412 0.009146584 0.013040975
0003c0 31 f9 33 bb 68 43 6e 3c fb 32 30 ba 27 ec c9 3c
       -0.0027461762 0.014542438 -0.0006721464 0.024648739
0003d0 16 87 98 3c 85 bf 7e bd 2b 81 e2 3b 33 f2 53 3d
       0.018619101 -0.062194366 0.0069123707 0.05174465
0003e0 9d a9 04 3c 63 54 2c 3c 92 00 8b 3c 69 9b d1 bc
       0.00809708 0.010518166 0.016968045 -0.0255868
0003f0 cb a5 2e 3c d1 ad 31 3d 5a c3 01 3d 5f b4 25 3c
       0.010659645 0.043378655 0.031680442 0.010113805

layer3.bias f4 [6]
000000 c7 d1 12 3e 68 b2 3e 3f 20 01 fb 3d e1 0f 3b 3e
       0.14337836 0.74490976 0.12256074 0.18267776
000010 e0 90 06 3e f9 28 ef 3d
       0.13141203 0.11677737
