models/130000-trained_model-13-09_42.pth (torch, 79716 bytes, 6 tensors)

layer1.weight f4 [128, 14]
000000 d8 0e 28 3f a5 90 a6 3e 2d 75 1a 3f be 74 34 3f
       0.6564765 0.3253223 0.60335046 0.70490634
000010 4d 2f 47 3f 8c bc 2c 3f 19 16 93 3f 92 f4 77 3f
       0.7780655 0.674752 1.1491119 0.9685756
000020 cf cf 4a 3f 11 08 85 3f ac cc 7a 3f f6 55 87 3f
       0.7922334 1.0393087 0.97968554 1.0573108
000030 96 56 39 3f a2 27 a2 3f cb 47 23 3f aa 83 c4 3e
       0.72397745 1.2668345 0.6378142 0.38381702
000040 7b bb 36 3f 1f 2b 33 3f 00 ba 46 3f 8b 2f 26 3f
       0.7137982 0.6998767 0.77627563 0.64916295
000050 78 0a 8a 3f e1 46 7c 3f 07 80 4e 3f 3f a6 8e 3f
       1.0784445 0.9854565 0.80664104 1.1144484
000060 35 59 86 3f 2c 4c 89 3f c7 41 41 3f 67 e8 9d 3f
       1.0495974 1.0726371 0.75490993 1.2336549
000070 55 a6 24 3f 01 32 c6 3e 23 92 28 3f 94 0a 1f 3f
       0.643163 0.38710025 0.65847987 0.62125516
000080 a5 5d 32 3f 3e 52 61 3f fb fd 90 3f 4b 48 6a 3f
       0.6967414 0.88016117 1.1327509 0.9151656
000090 27 50 5a 3f c9 6e 8a 3f 4d a2 87 3f 8a 50 86 3f
       0.8527855 1.0815059 1.0596405 1.0493329
0000a0 ef 1f 3c 3f 0d ff 98 3f c8 79 36 3e 0f 3f 6a 3f
       0.73486227 1.1952835 0.17819893 0.9150247
0000b0 e7 28 e4 3e c7 21 52 3f b9 f2 95 3e a3 35 33 3e
       0.44562456 0.8208279 0.29286745 0.1750093
0000c0 ab 59 80 be fe 52 25 be 33 42 be 3c 52 0b ae 3e
       -0.2506841 -0.1614494 0.023224926 0.33993012
0000d0 f6 17 b3 3d 01 80 8a 3e d5 ae 02 3f 25 c0 ca be
       0.087448046 0.27050784 0.5104802 -0.3959972
0000e0 48 98 d2 bf 51 14 e2 bf fc 4a f7 bf 1b 8f 0b bf
       -1.6452723 -1.766245 -1.9319758 -0.54515237
0000f0 e6 a9 82 c0 5a 94 18 c1 a1 51 de 3e dd da f9 3e
       -4.0832396 -9.536219 0.43421653 0.48799792
000100 72 aa 05 3f ca dd 1c 3f 20 fc 98 3e a7 c6 e6 3e
       0.52213204 0.61275923 0.29879856 0.45073435
000110 45 80 c9 3e 7c f3 f2 3e 2e 41 3a 3f 35 fd 61 3e
       0.39355674 0.4745139 0.72755706 0.22069247
000120 de d2 3d 3f b7 c2 40 3f f8 b0 70 3f dc 1f 8e 3f
       0.7414988 0.7529711 0.9402003 1.1103473
000130 f5 2b 6d 3f cd b3 63 3f 94 2d 41 3f c3 08 83 3f
       0.926452 0.8894623 0.7546017 1.0237049
000140 53 f1 7e 3f 62 cd 74 3f be 0f 35 3f 4b f0 83 3f
       0.9958698 0.9562589 0.70727146 1.0307707
000150 dc 09 1f 3f fe 51 97 3e 95 66 18 3f d2 44 1a 3f
       0.6212442 0.29554743 0.5953153 0.6026126
000160 40 43 48 3f a9 e8 1f 3f ed 1e 93 3f f0 ba 7a 3f
       0.78227615 0.62464386 1.1493813 0.97941494
000170 50 c6 5b 3f d5 dd 8d 3f 7f 73 82 3f e1 69 8e 3f
       0.85849476 1.1083323 1.0191497 1.1126062
000180 58 27 47 3f 2b 1a a5 3f 20 87 e6 3d 69 dc 84 be
       0.7779441 1.2898611 0.11256242 -0.2594941
000190 60 73 62 3d 7f 69 15 be c8 d9 1d bf 32 ff ab 3d
       0.05528581 -0.14591025 -0.6166043 0.08398284
0001a0 35 b5 24 3d 18 f5 8d be cf 89 6b 3e 1b fb 69 bc
       0.040211875 -0.27726054 0.23001789 -0.01428106
0001b0 9f ad 0a 3e 68 0b 7c 3e 8a 3a 36 bb de a9 d4 be
       0.13542794 0.24613726 -0.0027805888 -0.41535848
0001c0 4d 79 17 3f 6c d7 84 3d fc b5 08 3f 54 7d 02 3f
       0.59169465 0.06486401 0.53402686 0.50972486
0001d0 25 e8 1d 3f 9e 9f 06 3e 72 5a a0 3f cf 24 84 3f
       0.6168235 0.13146827 1.2527602 1.0323733
0001e0 32 1a 4a 3f de 4f 8f 3f 6b 60 8f 3f ce 63 91 3f
       0.7894622 1.1196249 1.12013 1.1358583
0001f0 76 a0 48 3f 82 10 af 3f 20 e3 24 3f 3f ac 0b 3f
       0.78369844 1.3676913 0.64409065 0.545597
000200 54 aa 27 3f 42 09 08 3f 2d 02 63 3f 22 47 95 3f
       0.65494275 0.53139126 0.88675195 1.1662333
000210 67 c9 6b 3f c4 17 60 3f 25 36 54 3f c1 62 89 3f
       0.9210419 0.87536263 0.8289512 1.0733262
000220 53 8e 88 3f fb 52 7c 3f c4 ae 3d 3f e9 7f 83 3f
       1.0668434 0.9856412 0.74094796 1.027341
000230 63 ef 20 3f 6b 80 b1 3e 28 6a 54 3f 40 d9 1c 3f
       0.62865275 0.34668288 0.8297448 0.61269
000240 b2 15 40 3f b9 2e 96 3e 11 58 86 3f 29 cb 89 3f
       0.75033104 0.29332522 1.0495626 1.0765125
000250 67 5f 55 3f 52 47 92 3f 26 b8 86 3f 5c 87 92 3f
       0.833487 1.1428015 1.0524948 1.1447558
000260 71 4a 3d 3f fa 63 9e 3f 39 56 a1 be 81 ef a6 3f
       0.73941714 1.237426 -0.31511095 1.3041841
000270 f1 83 a2 3f a7 06 97 3f 62 c6 b1 bf 46 37 b0 40
       1.2696515 1.1798905 -1.3888667 5.5067472
000280 91 3b 22 be 14 59 8d be 33 67 49 3e b6 cf c7 3d
       -0.15843035 -0.27607024 0.19668274 0.097564146
000290 f4 e4 ca 3e 5f ec 3c be 7c 4c d7 3d b7 97 89 bd
       0.39627802 -0.18449543 0.10512635 -0.067183904
0002a0 08 d0 c5 bc 10 9c 25 40 59 3c f6 bd c0 27 9a 3d
       -0.024147049 2.5876503 -0.12023229 0.07527113
0002b0 80 26 5f bf 39 4f 39 be 18 62 07 be 1e d8 b0 bd
       -0.8716812 -0.18096627 -0.13221014 -0.08634971
0002c0 b2 23 9f 3e 49 3a 2f 3e c6 1a a4 3e 84 ea a2 3d
       0.3108192 0.17112078 0.32051677 0.079548866
0002d0 7d 29 0d 3e b5 b4 d0 be ec f1 d2 bd cf 69 ce bf
       0.13785358 -0.4076287 -0.10300049 -1.612604
0002e0 3e 2d 2f be 50 a1 28 bf c6 1c d9 3e cb a8 a3 c0
       -0.17107102 -0.65871143 0.42404765 -5.1143546
0002f0 5e 3a 1d 3f 15 88 43 3f dd 58 ff 3e 06 78 b5 3e
       0.61417186 0.7637952 0.49872485 0.35443133
000300 e2 6b cf 3e 87 5f 3d 3f bd b5 b7 3e f9 3a 3d 3f
       0.40511996 0.7397389 0.35880843 0.7391811
000310 d3 91 3a bd 8c 3f bb be 58 59 96 3e 29 76 88 3e
       -0.045549225 -0.3657192 0.2936504 0.2665265
000320 61 df b4 bd c5 b6 b9 bc 24 e9 09 bf dd 29 a8 bd
       -0.08831669 -0.02267016 -0.5387137 -0.0821111
000330 24 50 09 3c 43 99 67 3e 9e 96 93 3d 3c dd a7 be
       0.008380923 0.22617058 0.07206462 -0.32785976
000340 a0 13 8b 3d 0f 11 2a bf f1 ae 25 3f 35 91 a6 3e
       0.067908525 -0.6643228 0.64720064 0.3253266
000350 1a 2b eb 3e 6e 00 1e 3f ef 4a 37 3f cd d2 3d 3f
       0.4593132 0.61719406 0.71598715 0.7414978
000360 c8 c5 95 3f 35 06 6f 3f 8b 93 5b 3f 69 2a 84 3f
       1.1700983 0.93368846 0.8577201 1.0325443
000370 6e cd 76 3f 75 d7 7e 3f ea 6c 2b 3f e6 5a a1 3f
       0.9640721 0.9954751 0.66963065 1.2605865
000380 8d 03 5e bd 26 85 d1 bf 8a 6f 69 bd 32 ee 86 c0
       -0.054202605 -1.6368759 -0.056991138 -4.2165766
000390 78 1e 08 3e 2a ec 03 c1 ba e5 79 3f 0e e5 82 3f
       0.13292873 -8.245157 0.9761616 1.0226152
0003a0 23 44 4b 3f a4 b4 3d 3f 86 2a c3 3f 7b a4 41 3f
       0.79400843 0.7410376 1.5247352 0.756416
0003b0 b8 3b 37 3f 50 2b 62 3f 81 d6 10 be f1 8a 2f b7
       0.715755 0.8834734 -0.14144327 -1.0463163e-05
0003c0 3d 24 3e be 19 5c 9c 3d 63 7f 7b bd 7a 2a a2 3e
       -0.18568511 0.07634754 -0.061400782 0.31673032
0003d0 a3 19 b8 bc 6d 8e 12 bf 70 c9 c1 3e 41 11 24 bf
       -0.022473162 -0.57248574 0.37848997 -0.6408883
0003e0 f4 28 2e 3c f1 7a ea bd 03 c5 f2 3d c4 b3 24 be
       0.010629881 -0.114492305 0.11853983 -0.160842
0003f0 90 41 6e 3e cc ca be 3c 9d 8e b6 be 7a af bc 3e
       0.23267198 0.02329006 -0.3565568 0.36852628

layer1.bias f4 [128]
000000 95 4c 7d 3f 0b 4a 82 3f 1a 70 7c 3f 1d 87 10 3e
       0.9894498 1.0178846 0.98608553 0.14114042
000010 58 f3 c3 be 82 ed 84 3f 42 f2 7b 3f ea 0d e9 3b
       -0.38271594 1.0384982 0.9841653 0.0071122544
000020 42 7e 7a 3f 92 b8 81 3f 88 f2 80 3f f1 92 13 3f
       0.97848904 1.0134451 1.0074015 0.5764609
000030 27 66 8b 3d b7 9b 8e 3d 22 10 cf bd 07 18 80 3f
       0.068065934 0.06963294 -0.10110499 1.0007333
000040 53 20 e9 3d 19 5a 3c 39 bd 22 0a 3d 27 31 80 3f
       0.113831185 0.00017962641 0.033724535 1.0015
000050 5f 9e 36 3f ec 5c 80 3f 83 5f 79 3f 90 1f 82 3f
       0.71335405 1.0028358 0.97411364 1.0165882
000060 e8 94 7e 3f 0d bc 7d 3f 4e 67 17 3e a1 07 b3 3d
       0.9944596 0.9911507 0.14785501 0.087416895
000070 e8 49 83 3f 78 f5 dc be ee 57 7d 3f 50 17 0d 3e
       1.0256929 -0.43156028 0.98962295 0.13778424
000080 dc 88 80 3f f7 c2 a9 3d 58 8f 82 3f a5 c7 74 bc
       1.0041766 0.0828914 1.0199995 -0.014940177
000090 0f e5 c2 be a0 1b 83 3f d0 67 e1 be 7c 29 85 3f
       -0.38065383 1.0242805 -0.44024515 1.0403285
0000a0 a2 3b 02 3e 4e 49 d9 3a ee be dc bc 35 c5 7f 3f
       0.1271806 0.0016577633 -0.026946511 0.9991029
0000b0 97 5b 7d 3f 90 f5 9a 3e c4 69 84 3f f9 df 89 3e
       0.9896788 0.30265474 1.0344777 0.2692869
0000c0 64 b8 58 3f 85 99 7f 3f 01 74 24 3f 11 0e 7f 3f
       0.8465636 0.9984363 0.6423951 0.9963084
0000d0 27 7e 67 3e 13 b8 52 3e a9 f9 7f 3f 1f b8 74 3f
       0.22606717 0.20578031 0.99990326 0.95593446
0000e0 01 21 82 3f f5 d5 76 3f 93 64 84 3f 51 f2 83 3f
       1.0166322 0.9642022 1.0343193 1.0308324
0000f0 ba 3e 83 3f 73 6d 5d 3f 88 fc fe bc e4 17 bd be
       1.0253518 0.8649513 -0.031126276 -0.3693229
000100 c4 25 80 3f 73 ce 4e 3e cb bf 83 3f e0 8f 83 3f
       1.0011525 0.20195942 1.0292906 1.0278282
000110 8c 71 7c 3f 80 e1 80 3f 5f b0 74 3f 13 84 83 3f
       0.9861076 1.0068817 0.9558162 1.0274681
000120 cc 65 80 3f b3 e1 80 3f 75 e6 36 3f 5e d2 7d 3f
       1.0031066 1.0068878 0.714454 0.9914912
000130 e6 d7 86 3f 63 82 73 3f 1d 4d 86 3f 33 95 83 3f
       1.0534637 0.9512083 1.0492283 1.0279907
000140 18 a6 6d 3f a5 92 f3 3d 53 81 c6 be 24 1f be 3d
       0.92831564 0.118932046 -0.38770542 0.09283283
000150 37 e1 19 3f d8 9a 73 3f da cd 46 3d 25 2b 20 3f
       0.60109276 0.9515815 0.04853616 0.62565833
000160 a9 5f 7d 3f d7 3c 00 bc b0 08 7c 3f 69 84 81 3f
       0.9897409 -0.007827005 0.98450756 1.0118533
000170 a8 06 83 3f 07 70 80 3f 95 c3 79 3f dd 83 45 3f
       1.0236406 1.0034188 0.9756406 0.7715433
000180 84 07 83 3f d5 f3 c9 3e 15 37 04 3e cf f3 7a 3f
       1.0236669 0.39443842 0.12911637 0.9802827
000190 37 ee 85 3f 6d 30 83 3f c9 b7 84 3f 94 3f 7b 3f
       1.0463322 1.0249153 1.0368587 0.9814389
0001a0 42 32 85 3f a6 89 78 3f 2e c7 7b 3f 6e 64 a8 3e
       1.0405962 0.97085035 0.983508 0.32889122
0001b0 ba c5 76 3f f4 c7 86 3f f3 78 48 3f 73 87 1b 3e
       0.96395457 1.0529771 0.78309554 0.15188389
0001c0 c1 c1 6f 3f 76 ff 7a 3f da 6b fc bd 1f 80 84 3f
       0.9365502 0.9804605 -0.123252586 1.03516
0001d0 d9 8a 80 3f 71 ab 84 3f 91 c9 6c bd 00 79 08 3e
       1.0042373 1.036482 -0.057809416 0.13327408
0001e0 f9 dd 84 3f df 8c 7b 3f 77 b6 85 3f 42 31 38 3f
       1.0380241 0.9826183 1.0446309 0.7195016
0001f0 06 e8 71 3f e0 22 82 3f 5d 37 85 3f a5 ec 82 3f
       0.94494665 1.0166893 1.040752 1.0228468

layer2.weight f4 [128, 128]
000000 84 0d 1c bc e8 0b 9f b7 f0 6f 15 bc d5 19 e5 bb
       -0.009524707 -1.8959821e-05 -0.009120926 -0.006991605
000010 8f c0 1b 3c 6c 5a d5 3a 48 39 01 3a 42 0b e7 bb
       0.009506359 0.0016277558 0.0004929495 -0.0070509026
000020 7a 6d 2d bc 49 99 e7 ba 22 40 d3 3b 8c c1 d8 3b
       -0.010585183 -0.0017669584 0.006446854 0.0066148695
000030 3b aa 40 bb 4f ae f7 3b 8c 69 03 3b 08 90 a0 b9
       -0.002939834 0.007558621 0.0020051925 -0.0003062489
000040 ce 0e a2 3b e4 d5 02 bc dc 95 5e 3b da b0 e7 bb
       0.0049456125 -0.007985566 0.0033963835 -0.007070643
000050 d3 31 28 bc 5c 17 22 bb 3b 1e 9a 3a e8 55 21 39
       -0.010265785 -0.0024733162 0.0011758277 0.00015386159
000060 0c e3 17 3b 4f 6a 14 bc 5b 14 79 bb 3c 4d 7a 3b
       0.0023176102 -0.009058549 -0.0038006518 0.0038193008
000070 57 dd 0b 3b 70 1c ce 3a 38 ec bd bb 22 a4 d4 3b
       0.0021341646 0.0015725028 -0.0057959817 0.0064892927
000080 91 b8 8b 3b 7d 56 11 3c e5 4f e6 3a ed c0 2e bc
       0.0042639454 0.008870718 0.0017571418 -0.010666114
000090 24 62 17 bc f6 b4 88 bb 00 e6 a6 ba 98 92 e1 bb
       -0.009239707 -0.004171963 -0.001273334 -0.0068839304
0000a0 ca 7f 22 bc c8 2c 20 bb e1 06 17 3c ef bd 2f 3c
       -0.009918163 -0.0024440754 0.009217949 0.010726436
0000b0 a1 e9 17 3c f9 aa bb bb a8 2a c0 bb 28 f5 9c bb
       0.00927201 -0.0057271686 -0.00586446 -0.004789967
0000c0 0c 91 5c 3b c6 e0 d0 3b 38 61 e8 bb 70 58 cc 3a
       0.003365579 0.0063744513 -0.0070916675 0.0015590321
0000d0 98 b1 e0 ba 42 4e 85 bb 3d 20 c0 bb d2 61 bd bb
       -0.0017142771 -0.004068167 -0.005863218 -0.0057794834
0000e0 15 c5 b4 3b 3b 4d d3 bb 39 fa 03 bc 5b d0 9a ba
       0.005516658 -0.0064484156 -0.008055263 -0.0011811362
0000f0 44 53 57 3b aa bc cb 3b e8 a1 43 bb 78 07 a0 bb
       0.0032856027 0.006217559 -0.0029851142 -0.004883703
000100 f7 47 2c bc f4 31 16 bb f7 06 2e 3c 76 c7 48 3a
       -0.010515205 -0.0022917958 0.010621778 0.00076591165
000110 f1 33 18 3c 6a 04 49 3b 65 c1 04 bc 7c 38 71 3b
       0.009289728 0.0030672797 -0.0081027495 0.003680735
000120 57 9b 41 3b e3 52 87 bb 32 fe 83 3b f5 b6 ea 3b
       0.0029542053 -0.004129754 0.004028105 0.0071629235
000130 d8 91 06 bc 1d db 19 3c eb a4 0e bb 07 52 13 bc
       -0.008213483 0.00939062 -0.002176578 -0.008991725
000140 d7 d0 29 3c 3d a9 f3 3b 8c 2a f5 bb 72 73 c2 3b
       0.010364733 0.0074359463 -0.0074818786 0.0059341723
000150 53 5b 03 3c 38 24 04 bb 14 87 fd bb 87 a6 dc bb
       0.008017379 -0.002016319 -0.00773705 -0.006733719
000160 f7 71 c0 b9 45 b3 f3 3b 4f 0e e5 ba 7e bd 0e bc
       -0.00036706004 0.007437142 -0.0017475578 -0.008712171
000170 13 b8 99 bb 4a b7 1c bc bd 57 ac 3b 8e f9 db 3b
       -0.004691133 -0.009565184 0.0052594827 0.006713099
000180 5f 67 ea bb 5a 6b ed 3b e8 dd 27 38 62 be 8c 3a
       -0.007153436 0.0072454633 4.002257e-05 0.0010737891
000190 fc eb 30 3b bd 81 f1 bb 84 07 54 3b 35 d8 a7 bb
       0.0026996126 -0.0073702023 0.0032353112 -0.0051222094
0001a0 ca 2e d1 bb 55 45 1a bc d2 f0 fc bb 87 b9 35 3b
       -0.0063837515 -0.009415944 -0.0077191377 0.002772899
0001b0 73 5c 26 bc 3a c9 51 bb 56 4b e0 3b a5 73 0f 3c
       -0.010153878 -0.003201081 0.0068449182 0.008755599
0001c0 d8 69 0a 3a f8 5b ca b9 1f e3 e9 bb 86 f0 25 bc
       0.0005280054 -0.00038596964 -0.0071376706 -0.010128146
0001d0 6d 64 0d bc 56 6c a4 bb 0f c2 ed 3a 54 c6 04 bc
       -0.0086299 -0.0050177975 0.0018139499 -0.008103926
0001e0 7d 56 3b 38 fe e9 d0 bb e6 8e bf bb 21 7a e7 3b
       4.4664823e-05 -0.0063755503 -0.0058458922 0.0070641194
0001f0 31 a4 c9 3b 42 0d a8 3b f5 7c dc bb 64 f9 a1 bb
       0.0061536063 0.0051285336 -0.006728763 -0.0049430598
000200 95 4d 13 bd fa 00 e1 bc fc 84 81 bd 4f 28 92 3d
       -0.03596266 -0.027466286 -0.06324193 0.071365945
000210 98 60 06 41 a9 92 5b be 35 3a bf 3b 90 b3 2a be
       8.398582 -0.21442665 0.0058357962 -0.1667006
000220 89 6e 30 3e c4 24 5d be b6 e1 22 3e f0 85 4e c0
       0.17229666 -0.21596056 0.15906414 -3.226925
000230 76 cf 74 3e ea 16 03 40 a7 bb fc bd 9a 3a 21 bd
       0.23907265 2.0482736 -0.12340479 -0.039362527
000240 ed 70 3e 40 d8 4f 84 be 3c 78 25 40 5c 1c 4d ba
       2.9756424 -0.25842166 2.5854635 -0.0007824355
000250 be d0 12 bf 1d 33 42 be 87 de a9 3c f6 9a 1c be
       -0.57349765 -0.1896481 0.020735992 -0.15293488
000260 df fb fa bd 65 36 09 be fd 07 2f bf 41 ca ea be
       -0.12255072 -0.13399656 -0.68371564 -0.45857432
000270 9e 40 b1 3b 44 82 01 41 a6 4f 23 bd 43 f2 06 40
       0.0054093143 8.094303 -0.03987088 2.1085365
000280 26 05 47 3e 66 fc 11 3e 60 be 7d bd cb 43 1a bc
       0.19435558 0.14256439 -0.061949134 -0.009415577
000290 ee 8a f6 40 0f 0a cd bc 34 4d f1 40 5b ac 4b bd
       7.704459 -0.02502921 7.540674 -0.049724918
0002a0 5d 8b 3b 40 25 47 74 bf dc 71 60 bc ce e8 41 3d
       2.930381 -0.9542106 -0.013699021 0.04734116
0002b0 10 39 85 bd 95 d9 10 bd 40 70 8f bd 1e f0 e7 bb
       -0.065050244 -0.035363752 -0.07003832 -0.0070781847
0002c0 fe 41 f2 3e 09 c0 1e 3c 94 b1 44 c1 2e 72 8b 3d
       0.47315973 0.009689339 -12.293354 0.068088874
0002d0 d5 20 aa 3d 61 3f 01 be 20 72 83 bd fe e4 23 be
       0.083070435 -0.12621833 -0.06418252 -0.16005322
0002e0 b0 ac 30 be 3a ab 35 bc 78 f7 9e bd 1c 5e b6 bd
       -0.17253375 -0.011088187 -0.07762045 -0.08904669
0002f0 dd 05 f0 be 48 b6 80 bf e3 c1 b3 be b2 8d b0 40
       -0.46879473 -1.0055628 -0.3510886 5.517297
000300 8c b4 2e 3c 8c 6d fe 3f 19 c3 7c bd 26 1f 87 bd
       0.010663163 1.9877181 -0.061709497 -0.06597738
000310 4d a5 61 bd 68 48 0f be a9 2f 1d 3f 11 cd dd bc
       -0.055089284 -0.13992465 0.6140085 -0.027075322
000320 a9 12 1c 3e 11 3f a1 3c 9d 3f 82 c1 9f 42 35 bd
       0.15241493 0.019683393 -16.281061 -0.044252988
000330 10 05 08 be 97 23 7e bd 0d 8d 15 be 6e 3b 0b bd
       -0.13283181 -0.06204566 -0.14604588 -0.033992223
000340 51 26 ee 3e 88 a9 33 bf 00 bb fe 40 54 1b f1 be
       0.46513608 -0.7018056 7.960327 -0.47091162
000350 32 02 0a c1 27 38 57 3d 78 07 5b 40 6d 19 5e c1
       -8.625536 0.052543785 3.4223309 -13.881207
000360 81 96 f3 3c 99 ec 4f be 0c 66 c8 bd 7e a6 2a 3d
       0.029734852 -0.20305099 -0.09785089 0.041662686
000370 2c f3 ec 3c 06 a2 3d be af 0e 89 3e 8e 52 a5 bf
       0.028924547 -0.18518838 0.26769015 -1.2915819
000380 8d a9 9e bd b1 bc 23 bc 74 14 29 40 7e ba 45 3e
       -0.07747183 -0.009993718 2.6418734 0.19309422
000390 98 b3 5f be 41 10 a3 bc 49 1b 53 bd 81 44 44 bd
       -0.21845853 -0.019905211 -0.051539693 -0.047916893
0003a0 ba 05 1f be 38 66 e7 be da 42 fa bc 2c 5d ae 3c
       -0.15529528 -0.45195174 -0.030549455 0.021284662
0003b0 2e 68 74 3d 26 36 2a be cf ea c7 bf b5 0d 16 be
       0.059669666 -0.16622218 -1.5618533 -0.14653666
0003c0 27 ff 43 bf 73 cc 10 bf 92 7d 6e 40 43 99 64 be
       -0.76561207 -0.56561965 3.7264142 -0.2232409
0003d0 73 c5 20 bd a7 eb b3 bd de 1b a1 3e ed 08 73 40
       -0.039250802 -0.087851815 0.31466573 3.7974198
0003e0 64 0d d0 bd 74 c3 05 be fa 9a 11 be 1a a7 9d bf
       -0.10158804 -0.1306284 -0.14219275 -1.231662
0003f0 3e 85 4d 3d 48 b1 61 be 3a 32 3e be b1 2b 7e bb
       0.050175898 -0.22040284 -0.18573847 -0.0038783366

layer2.bias f4 [128]
000000 80 82 36 ba 88 3a fb bd 96 39 f1 bd e6 dc ed bd
       -0.0006962195 -0.12267023 -0.11778562 -0.11614399
000010 18 3b 52 3f 0a 0e 04 be 6c c2 c5 3b 47 42 87 3f
       0.8212142 -0.1289598 0.00603514 1.0567101
000020 c6 35 bf bb eb 17 8f bb 66 51 85 3f 8b 7a 10 be
       -0.0058352677 -0.004366865 1.0415466 -0.14109246
000030 82 52 86 3f ae 5d 05 be fd 8f 0c be d3 67 62 3f
       1.0493929 -0.13024017 -0.13726802 0.88439673
000040 9c 28 fe bd 1f 3d be bb 55 c5 86 3f 86 65 9d ba
       -0.124100894 -0.005805626 1.0528971 -0.0012008406
000050 24 60 71 3c 01 3b 7c 3f a2 30 85 3f af 8c 84 3f
       0.014732394 0.9852753 1.0405467 1.0355433
000060 88 1c 14 bb f2 0d 84 3f 2d 00 85 3f 98 04 de bd
       -0.0022600014 1.0316756 1.0390679 -0.1084072
000070 db a0 82 3f cc 7e 84 3f 9d f7 83 3f cb d9 f1 bd
       1.0205339 1.0351195 1.030994 -0.11809119
000080 f0 75 87 3f ef 3e 81 3f c9 f4 ea bd 4b 04 83 3f
       1.0582867 1.0097331 -0.1147247 1.0235685
000090 0f c7 ff bd e1 32 cf 3e 6c ce e4 3d 91 9d 79 3f
       -0.12489139 0.40468505 0.11172184 0.9750605
0000a0 46 4e 87 3f 68 de 85 3f de f8 fd bd be 31 15 3e
       1.0570762 1.0458498 -0.12400983 0.14569756
0000b0 12 ea 88 3f db 50 87 3f a1 44 e4 bb 41 86 f7 bd
       1.0696433 1.057155 -0.006966189 -0.12086154
0000c0 3c 1a 84 3f dd 1a 33 be 9d e6 74 3e b2 2b 8a 3f
       1.0320506 -0.17490716 0.23916097 1.0794585
0000d0 da f1 0e 3c 0f 74 e3 bd e2 48 83 3f 66 58 82 3f
       0.008724654 -0.11106121 1.0256617 1.0183227
0000e0 a7 69 82 3f 97 00 7f 3f e2 64 05 be 27 92 83 3f
       1.0188493 0.99610275 -0.13026765 1.0278977
0000f0 6a 4f 86 3f de df 0d be 9c ed 83 3f 6f a8 81 3f
       1.0492985 -0.1385493 1.0306888 1.0129527
000100 3a a1 84 3f 51 fb e7 bb d3 31 86 3f 79 91 81 3f
       1.0361702 -0.00707952 1.0483955 1.012252
000110 f8 b2 80 3c ff 6c 85 3f a3 de 84 3f fd a8 87 3f
       0.015710339 1.0423888 1.0380443 1.0598446
000120 40 88 80 3f cd a4 80 3f 71 01 85 3f 05 f1 80 3f
       1.004158 1.0050293 1.0391065 1.0073553
000130 5e fc 60 3f f1 97 86 3f 75 48 83 3f ac 90 86 3f
       0.8788508 1.0515119 1.0256487 1.05129
000140 a0 57 ce 3e 33 38 87 3f aa 36 f5 bd 99 a9 d8 bd
       0.40301228 1.0564026 -0.11973317 -0.10579223
000150 1b 23 84 3f d3 1f e7 bb 82 f9 0e 3c 7d 1a 16 3d
       1.0323213 -0.0070533543 0.0087264795 0.036646355
000160 dd 62 7f 3f 49 a0 06 3c 1a 74 d8 ba 83 d4 f4 bd
       0.9976023 0.008216926 -0.0016514093 -0.11954596
000170 cc 2d 82 3f 04 20 57 bb ae 37 83 3f 2d 64 f6 bd
       1.0170226 -0.003282548 1.0251367 -0.12030826
000180 5e cc 80 3f 02 99 83 3f b3 93 87 3f 9a e1 f4 bd
       1.0062368 1.0281069 1.0591949 -0.119570926
000190 53 f8 b2 3b 0b a8 6d 3f b3 c0 f3 ba 4d 52 f1 bd
       0.0054617315 0.9283454 -0.0018596858 -0.11783276
0001a0 74 d3 3a 3f 74 90 86 3f ea bd 82 3f d7 f0 83 3f
       0.729789 1.0512834 1.0214207 1.0307873
0001b0 f8 4a 01 3a 59 71 01 be 04 13 1a 3e 51 d2 06 bc
       0.00049321307 -0.12640895 0.15046316 -0.008228854
0001c0 da c2 84 3f 22 8c 82 3f 25 18 86 3f e2 ae 86 3f
       1.0371964 1.0199015 1.0476118 1.052212
0001d0 82 34 d4 3e 0c 9d 83 3f f7 05 ea bd e5 3e 1f 3e
       0.4144631 1.0282302 -0.11426919 0.15551336
0001e0 1c 0c 05 bc 70 86 07 3c 8b 9d e3 bd af 9d 84 3f
       -0.008120563 0.0082717985 -0.11114033 1.0360621
0001f0 8c eb 86 3f 27 1b 86 3f fb 35 81 3f 58 24 85 3f
       1.0540633 1.0477036 1.0094599 1.0401716

layer3.weight f4 [6, 128]
000000 eb 7c 9b bb c9 6c fe 3e 63 c1 15 3f c5 97 39 3f
       -0.004745116 0.4969237 0.5849821 0.72497207
000010 55 ac 7b 3f e0 0d 18 3f f1 a9 c5 bb 89 98 8c 3f
       0.9830983 0.5939617 -0.0060322215 1.098405
000020 cd 76 77 3b 4e aa 28 3c 62 a4 89 3f ba 8b 51 3f
       0.003776002 0.01029451 1.0753291 0.8185383
000030 93 3f 88 3f 18 64 0b 3f 3d 6e 08 3f 9a 69 90 3f
       1.0644401 0.54449606 0.5329321 1.1282227
000040 91 ff 1e 3f cf 41 f6 3b 3d c3 8c 3f 4c 74 6c bb
       0.62108713 0.007515169 1.0997082 -0.003608006
000050 e6 6c 75 be e4 c9 a2 3f 06 b5 86 3f 6c d4 8b 3f
       -0.23967323 1.2717862 1.0523994 1.0924201
000060 5e d2 a0 3b e8 99 82 3f e1 6d 8b 3f da dd ed 3e
       0.00490789 1.0203218 1.0892907 0.46458322
000070 14 93 88 3f ab ab 89 3f 4d b8 8d 3f 47 87 28 3f
       1.0669885 1.0755514 1.1071869 0.65831417
000080 c4 2a 8b 3f b5 8c 85 3f a3 c9 34 3f 5b b1 87 3f
       1.0872426 1.0433565 0.70620173 1.0601
000090 9e 50 23 3f df 87 f7 3e d8 0f 60 3f f0 5b 88 3f
       0.6379489 0.4834585 0.87524176 1.0653057
0000a0 b6 ef 8b 3f 4f 79 8d 3f 72 9d 12 3f 0e 39 13 3d
       1.0932529 1.1052645 0.5727149 0.035943083
0000b0 90 4d 8d 3f 1a e1 8c 3f 54 79 1f 3c 27 5d fb 3e
       1.1039295 1.1006196 0.009733517 0.49094507
0000c0 e0 72 87 3f 52 a6 96 3e 27 fe 05 3f af 78 87 3f
       1.0581932 0.29423767 0.5234093 1.0583705
0000d0 83 50 85 3c f8 44 fd 3e 16 99 8d 3f 2c 49 89 3f
       0.016273743 0.4946668 1.1062343 1.0725455
0000e0 40 a9 88 3f 79 97 89 3f 25 13 05 3f fc 70 85 3f
       1.0676651 1.0749351 0.5198234 1.0425105
0000f0 25 4f 8c 3f f4 e1 03 3f 09 2e 8a 3f 7c 59 8a 3f
       1.0961653 0.5151665 1.0795299 1.0808558
000100 49 dd 89 3f 50 4e 8f 39 5c 1f 8a 3f be 32 8a 3f
       1.0770656 0.00027333433 1.079082 1.0796735
000110 b7 1d 9f 3f d3 cc 86 3f 43 3a 89 3f 3d e5 8d 3f
       1.2430943 1.0531257 1.0720905 1.1085583
000120 eb eb 87 3f e9 96 8a 3f a7 7d 87 3f d5 3a 8a 3f
       1.0618871 1.0827304 1.0585221 1.0799204
000130 f1 9f 04 3f 34 ec 8a 3f 21 7e 8d 3f c8 5d 8e 3f
       0.5180655 1.0853333 1.1054116 1.112237
000140 e5 4d 12 3f 61 7f 8c 3f bc 51 17 3f b4 66 cb 3e
       0.5715011 1.0976373 0.5910909 0.39726794
000150 64 35 8f 3f 65 c8 bb bb 57 6a 33 3b ac 9d dc bf
       1.1188169 -0.005730676 0.0027376616 -1.7235618
000160 32 6a 88 3f 8c e6 51 3b cf a8 39 ba 9e a1 33 3f
       1.0657408 0.0032028286 -0.00070823444 0.70168483
000170 9a 19 8b 3f 8b 2f 59 3b 88 4d 91 3f 0b 9b 0e 3f
       1.0867188 0.003313991 1.1351786 0.55705327
000180 25 7a 87 3f a4 e2 86 3f 43 96 8f 3f f9 27 05 3f
       1.058415 1.0537915 1.1217731 0.5201412
000190 bc 57 3b bb 82 93 63 3f 38 e2 f8 36 f8 f2 fb 3e
       -0.002858623 0.88896954 7.4173113e-06 0.49208808
0001a0 5d 89 b9 3f b5 16 8a 3f 27 a0 8c 3f 93 4c 85 3f
       1.4495045 1.078818 1.0986375 1.0413994
0001b0 78 41 29 bc 24 60 51 3f fb 9c 78 3f 65 af 5d bb
       -0.01033055 0.81787324 0.97114533 -0.0033826467
0001c0 8a cc 8a 3f 13 bd 8e 3f cc 18 8c 3f 24 38 87 3f
       1.084367 1.1151451 1.0945067 1.0564008
0001d0 21 44 fd 3e 73 d7 8b 3f 3b 35 19 3f 29 eb c1 3c
       0.4946604 1.0925125 0.5984685 0.023671703
0001e0 ac c2 d7 3a f6 e8 09 bc 9d ed 8a 3f 7f 12 8c 3f
       0.0016461215 -0.008417359 1.0853764 1.0943145
0001f0 f8 3c 8b 3f 52 cf 8c 3f 38 72 8d 3f 6c 6e 8b 3f
       1.0877981 1.1000769 1.1050482 1.0893073
000200 9f 4d e1 3a 2a cd c9 3e 66 b5 b0 3e 44 20 2f 3f
       0.0017189271 0.3941434 0.34513396 0.6840861
000210 dc 50 9a 3f 8a d1 f4 3e 18 43 cf 3b f6 45 93 3f
       1.2055926 0.47816116 0.006325137 1.1505725
000220 5f 57 f2 3b a5 0c ed ba c3 ae 8a 3f 38 06 75 3f
       0.0073956694 -0.0018085433 1.0834583 0.95712614
000230 7b eb 92 3f 7f d8 76 3f 84 6b 19 3f d7 1b c4 3f
       1.1478113 0.96424097 0.5992968 1.5320996
000240 43 a8 bc 3e f9 7c 14 3c 71 ef 8d 3f be a3 ae 3b
       0.36847124 0.009062999 1.1088697 0.005329578
000250 9c eb 16 3f c4 ee 74 3f 7e fb 91 3f a8 e5 88 3f
       0.5895326 0.9567683 1.1404874 1.0695086
000260 a3 da ee 3b 19 52 98 3f 25 6d 8e 3f 32 8d 13 3f
       0.007289247 1.1900054 1.1127058 0.5763732
000270 67 16 83 3f 3b 54 8c 3f db 6a 82 3f ab 6d f5 3e
       1.0241212 1.0963205 1.018886 0.47935233
000280 34 ac 92 3f 52 d0 93 3f 3e 18 13 3f 98 f5 91 3f
       1.1458802 1.1547949 0.57458866 1.1403074
000290 3b ea d6 3e 46 3f c4 be 56 2d 3e 3f 8c 54 81 3f
       0.4197558 -0.38329524 0.7428793 1.0103927
0002a0 cf 20 97 3f 5a 62 8c 3f ec c1 02 3f dd a2 bd 3e
       1.1806887 1.0967515 0.5107715 0.37038317
0002b0 d9 c9 93 3f a0 9d 8e 3f 65 1e 8e bb 31 49 ea 3e
       1.1545974 1.1141853 -0.0043371194 0.45758966
0002c0 5c a7 91 3f e0 c7 a3 3f 74 8a 81 3f 22 26 9a 3f
       1.1379199 1.2795372 1.0120378 1.2042887
0002d0 39 8f 0d 3b d2 2f f1 3e 14 b9 8e 3f 0b cc 85 3f
       0.002160026 0.47106797 1.1150231 1.0452894
0002e0 33 27 85 3f a0 27 82 3f 0f 38 c6 3e d0 cd 91 3f
       1.0402588 1.0168343 0.38714644 1.1390934
0002f0 89 52 8f 3f fe 7b 37 3f c5 54 8b 3f 89 bb 88 3f
       1.1197063 0.7167357 1.0885245 1.0682231
000300 10 99 94 3f f4 f6 3e bb 69 3b 90 3f ae 9f 86 3f
       1.1609211 -0.0029138895 1.126813 1.051748
000310 22 0b 66 3f f1 a9 90 3f 90 c0 93 3f e5 42 8e 3f
       0.8986074 1.1301862 1.154314 1.1114165
000320 58 ff 84 3f df 40 84 3f e0 d7 90 3f 5d fe 89 3f
       1.0390425 1.0332297 1.131588 1.078075
000330 4e 06 6c 3f 7f be 8f 3f 89 57 82 3f 04 78 8f 3f
       0.9219712 1.123001 1.0182964 1.1208501
000340 02 82 9b 3e 7d 8a 91 3f c3 e5 f0 3e b1 03 aa 3e
       0.30372626 1.1370388 0.47050294 0.3320594
000350 70 3b 8a 3f f0 46 91 ba 4d 40 f3 bb 92 5d 7f 3d
       1.0799389 -0.0011083763 -0.0074234367 0.062345095
000360 6d 62 83 3f ed ac 13 bc 81 f4 c3 bc 6f 39 ef 3e
       1.0264412 -0.009013397 -0.0239203 0.46723506
000370 cb 36 87 3f dc e5 28 3c 93 ae 90 3f a4 64 03 3f
       1.0563596 0.010308709 1.1303276 0.5132544
000380 4a a1 84 3f 39 32 8f 3f fb 9e 90 3f 2b 9d 9f 3e
       1.0361722 1.1187202 1.1298517 0.31174597
000390 70 b6 da 3b d2 0b 9c 3f 98 da 96 bb c6 9e 46 3f
       0.0066745803 1.2191107 -0.004603695 0.7758602
0003a0 84 3d 4f 3d 1e ce 94 3f e4 85 8c 3f 77 9d 90 3f
       0.050595775 1.1625402 1.097836 1.1298054
0003b0 64 86 a3 bb ae 20 f1 3e 52 12 13 3f d0 e5 08 3b
       -0.004990386 0.47095245 0.5744983 0.0020888932
0003c0 69 c4 8c 3f bf b0 7c 3f 64 6b 92 3f 7c 7a 98 3f
       1.099744 0.98707193 1.1439023 1.1912379
0003d0 b1 27 4b 3f 28 d6 8e 3f a3 f8 c4 3e b0 81 12 3f
       0.7935744 1.1159105 0.38470945 0.5722914
0003e0 ad 26 ec bb 87 be 47 3b 0c e2 32 3f 72 cd 8a 3f
       -0.007206759 0.0030478553 0.6987617 1.0843947
0003f0 53 cc 8b 3f 4b b9 8b 3f b9 da 82 3f d3 a7 91 3f
       1.092173 1.0915922 1.0222999 1.1379341

layer3.bias f4 [6]
000000 8c 69 07 3f 4d 88 ed 3e 36 53 66 3f 3a 9a b5 3e
       0.52895427 0.46393052 0.8997072 0.35469228
000010 7e 2e 41 3e 72 79 97 3e
       0.18865392 0.29584843
