models/140000-trained_model-17-15_07.pth (torch, 79239 bytes, 6 tensors)

layer1.weight f4 [128, 14]
0.5862678 0.695489 0.40513518 0.6726416 0.517365 0.088477716 0.7940959 0.6484617
0.7338661 0.6317944 0.74969995 0.69205606 0.83418 0.7855481 0.6421426 0.6828839
0.5595603 0.62648207 0.50004476 0.4849534 0.60204536 0.56939113 0.631839 0.5732884
0.71851456 0.647406 0.75239813 0.6608141 0.5131783 0.6794483 0.44289434 0.59012926
0.5571599 0.370398 0.691418 0.6535163 0.6941017 0.6335853 0.75563383 0.6967111
0.7914813 0.75290644 0.5976271 0.61136216 0.50867116 0.6321465 0.5672615 0.43986225
0.68102765 0.6050938 0.64190817 0.596359 0.7274881 0.6909157 0.7644116 0.73753124
0.5553339 0.61544037 0.56702757 0.5650951 0.4951805 0.1636061 0.7424843 0.6485151
0.6815976 0.6710994 0.76622105 0.716046 0.81992847 0.79025286 0.48879066 0.5756994
0.25584614 0.8807851 0.5513082 -0.7331907 0.7720316 0.6371172 0.82962644 0.757005
0.80885965 0.65462565 0.8688819 0.7687525 0.6664167 0.67349535 0.6733806 0.5814653
0.6194573 0.70183516 0.4859368 0.54397845 0.5635787 0.5724831 0.6576022 0.6290163
0.6683338 0.57613844 -1.2984673 -0.56089675 -2.0197117 -1.374681 -3.704706 -3.8329568
0.40912557 -0.119496696 0.9447112 1.3800625 1.0170768 -0.10700699 0.03694712 0.24718374
0.55468047 0.7353621 0.57741743 0.5671566 0.55761814 0.18727309 0.78705996 0.64730734
0.6727105 0.6696656 0.7393417 0.7065705 0.7883865 0.7284907 0.5896058 0.27554038
0.5898665 -0.10343305 0.30029103 -3.3908777 0.91950816 1.0456152 1.0942191 0.6782562
1.4889017 0.7413472 0.85704535 0.8103533 0.030035127 1.5272806 0.80322593 0.87660235
1.3617188 6.4165907 -0.05518548 -0.14684571 -0.05034147 -0.13342805 -0.12226711 -0.15110879
-0.038506355 -0.078864925 0.6538536 0.6647809 0.3887531 0.6848993 0.5778202 0.22412364
0.80036473 0.6227605 0.72585255 0.6025939 0.7715856 0.68748057 0.7676075 0.749814
-0.7869419 -1.1006411 -0.6449231 -1.2765863 -1.7361559 -7.6587024 0.28126866 0.3270141
0.21663864 0.2729983 0.14745818 0.2893346 0.29674315 0.18820125 0.6389032 0.59993494
0.3559931 0.68252707 0.5932885 0.046197757 0.7950994 0.7031211 0.7707341 0.65195644
0.759053 0.70920044 0.8249208 0.80104756 0.8111987 0.68242896 0.48669028 0.7233988
0.59571 0.961163 0.2838859 0.46962762 0.5881671 0.48334715 0.6186827 0.5340679
0.5274306 0.3880085 0.8221459 1.1266077 0.7271745 0.96751636 1.3079069 4.5348706
-0.09767798 -0.09275153 0.0120919915 0.03489282 0.045894027 0.007642653 0.08815064 -0.10755073
0.16334406 -0.24192645 0.5248222 0.27608454 0.3088565 -0.86310035 -1.2846749 0.25954765
-0.6161879 -0.20152383 -0.17730898 0.9280187 -0.4910795 -1.8146367 0.26935035 0.9224468
-0.26225436 0.7726261 0.73793924 1.0103061 0.30552402 0.5388977 0.5451105 0.47039166
0.5961813 0.62413776 0.58406675 0.42860422 -0.35753942 -1.0645766 0.67049265 -0.27647278
00000000: a615 163f 910b 323f e16d cf3e 3d32 2c3f
00000010: 0872 043f ce33 b53d de49 4b3f 9601 263f
00000020: a6de 3b3f 47bd 213f 56ec 3f3f 962a 313f
00000030: d28c 553f ae19 493f 7563 243f 7bd1 2e3f
00000040: 583f 0f3f 2161 203f ef02 003f d04b f83e
00000050: a51f 1a3f 9ec3 113f 33c0 213f 07c3 123f
00000060: 92f0 373f 66bc 253f 2a9d 403f 1d2b 293f
00000070: a75f 033f 53f0 2d3f 0cc3 e23e b612 173f
00000080: 08a2 0e3f cfa4 bd3e c500 313f d84c 273f
00000090: a6b0 313f a532 223f 3871 413f a95b 323f
000000a0: 859e 4a3f 7abe 403f 17fe 183f 3b82 1c3f
000000b0: 4638 023f 5ad4 213f 0d38 113f a035 e13e
000000c0: d457 2e3f 6de7 1a3f 1854 243f fcaa 183f
000000d0: a93c 3a3f dadf 303f 7bb0 433f d9ce 3c3f
000000e0: 5d2a 0e3f 808d 1d3f b828 113f 13aa 103f
000000f0: 4c88 fd3e 5c88 273e 7313 3e3f 1605 263f
00000100: 2e7d 2e3f 2ccd 2b3f 1027 443f ca4e 373f
00000110: d5e6 513f 034e 4a3f c542 fa3e 0961 133f
00000120: 44fe 823e 227b 613f 8922 0d3f 63b2 3bbf
00000130: dda3 453f 1d1a 233f 6662 543f 14cb 413f
00000140: 6d11 4f3f 8c95 273f 0b6f 5e3f f7cc 443f
00000150: 499a 2a3f 316a 2c3f ac62 2c3f e9da 143f
00000160: c194 1e3f 78ab 333f b5cc f83e 2c42 0b3f
00000170: b246 103f 418e 123f 9e58 283f 3607 213f
00000180: ed17 2b3f cf7d 133f 2d34 a6bf ee96 0fbf
00000190: f542 01c0 8cf5 afbf e719 6dc0 2a4f 75c0
000001a0: e878 d13e afba f4bd 98d8 713f e3a5 b03f
000001b0: 932f 823f 7b26 dbbd dd55 173d bc1d 7d3e
000001c0: 8aff 0d3f b140 3c3f a1d1 133f 2d31 113f
000001d0: 10c0 0e3f 84c4 3f3e c37c 493f efb5 253f
000001e0: c136 2c3f 346f 2b3f 7f45 3d3f cee1 343f
000001f0: b3d3 493f 5e7e 3a3f 68f0 163f a113 8d3e
00000200: 7e01 173f b5d4 d3bd bfbf 993e 2404 59c0
00000210: e364 6b3f b8d6 853f 5f0f 8c3f 33a2 2d3f
00000220: 5594 be3f eec8 3d3f 5367 5b3f 5073 4f3f
00000230: 3a0c f63c ee7d c33f 37a0 4d3f 0369 603f
00000240: cd4c ae3f b654 cd40 2b0a 62bd b95e 16be
00000250: db32 4ebd 5da1 08be 2e67 fabd 43bc 1abe
00000260: d7b8 1dbd ef83 a1bd f362 273f 152f 2a3f
00000270: a50a c73e 8f55 2f3f 06ec 133f ab80 653e
00000280: b4e4 4c3f 3b6d 1f3f 79d1 393f 9843 1a3f
00000290: a286 453f bafe 2f3f ed81 443f cff3 3f3f
000002a0: 0675 49bf cfe1 8cbf ae19 25bf 2e67 a3bf
000002b0: 5b3a debf 1714 f5c0 7202 903e 646e a73e
000002c0: 85d6 5d3e 6fc6 8b3e 47ff 163e aa23 943e
000002d0: b8ee 973e d4b7 403e 298f 233f 5695 193f
000002e0: ba44 b63e 18ba 2e3f c1e1 173f dc39 3d3d
000002f0: a28b 4b3f bfff 333f d44e 453f 9ee6 263f
00000300: 4c51 423f 298e 353f 022e 533f 7411 4d3f
00000310: b8aa 4f3f aab3 2e3f 782f f93e aa30 393f
00000320: 7380 183f c70e 763f 7e59 913e 0873 f03e
00000330: 1e92 163f 4779 f73e fd61 1e3f adb8 083f
00000340: b105 073f 0da9 c63e 2778 523f ae34 903f
00000350: 1c28 3a3f 27af 773f 7e69 a73f a91d 9140
00000360: 650b c8bd 84f4 bdbd 7d1d 463c c6eb 0e3d
00000370: 60fb 3b3d 386f fa3b 5388 b43d 8f43 dcbd
00000380: aa43 273e 91bb 77be bf5a 063f f45a 8d3e
00000390: 7022 9e3e 25f4 5cbf 3a70 a4bf 6ee3 843e
000003a0: 7dbe 1dbf 435c 4ebe 7c90 35be a292 6d3f
000003b0: c66e fbbe 0446 e8bf 4ae8 893e 7925 6c3f
000003c0: 3446 86be d3ca 453f 96e9 3c3f b651 813f
000003d0: a56d 9c3e 33f5 093f 5d8c 0b3f 2dd7 f03e
000003e0: 569f 183f 7ec7 1f3f 6685 153f 0372 db3e
000003f0: 680f b7be 0c44 88bf 68a5 2b3f d78d 8dbe

layer1.bias f4 [128]
0.8057039 0.8080554 0.8079656 0.8068909 0.79471636 0.77067906 0.80456793 -0.13582473
0.80613256 0.37941343 0.4957361 0.8328932 -0.24002431 0.8202712 0.7601897 0.52999115
-0.017508462 0.71033823 0.3494418 0.5681817 0.5327313 0.65882874 0.8072045 0.79105324
-0.29112408 0.7153699 0.04240147 0.67153436 -0.037099488 -0.25474477 0.8089894 0.53815854
-0.28249028 0.77611905 0.8107882 0.7645929 0.7912602 0.7364787 0.56707007 0.11055267
-0.21826805 0.819693 0.79242855 0.8452925 0.7859953 0.03209454 0.7790619 0.4863248
0.087204345 0.71815085 0.8154819 0.7625674 0.80796236 0.78559095 0.74418825 0.8033007
-0.08342284 0.7395102 -0.24590212 0.6081001 0.81134385 0.7525697 0.80215085 0.7945638
0.8168534 0.57857317 0.80617255 0.7876114 0.79665846 0.76786923 0.7730368 0.79258347
0.5991741 0.76708376 -0.076435976 0.77640444 -0.34396353 0.65013045 0.52567905 0.789154
0.72813874 -0.25701308 -0.24857298 0.6145498 0.7951762 0.7666065 0.8047718 0.8134135
0.80290157 0.80325687 0.82962203 -0.21589416 -0.12576538 0.77202326 0.81884646 0.40603232
0.26079676 0.7830576 0.736074 0.82544637 0.76242846 -0.30339178 0.8161766 0.63509345
0.7786861 0.7800422 0.2566682 0.33537036 0.8317919 0.80908716 0.53483176 0.7766988
0.6740384 0.79178804 -0.03848595 0.58924437 0.07274526 0.8261898 -0.25138116 -0.018708969
0.6774681 0.8067829 0.7878172 0.739712 0.7929655 0.8054963 0.83064985 0.056897134
00000000: 9c42 4e3f b8dc 4e3f d5d6 4e3f 6790 4e3f
00000010: 8872 4b3f 394b 453f 2af8 4d3f a315 0bbe
00000020: b45e 4e3f 7a42 c23e 1fd1 fd3e 7d38 553f
00000030: efc8 75be 4bfd 513f cb9b 423f 80ad 073f
00000040: e86d 8fbc bad8 353f 09ea b23e 5b74 113f
00000050: 1461 083f 00a9 283f f4a4 4e3f 7782 4a3f
00000060: 370e 95be 7b22 373f 2aad 2d3d ade9 2b3f
00000070: a2f5 17bd e86d 82be ee19 4f3f c2c4 093f
00000080: 91a2 90be bdaf 463f d18f 4f3f 5cbc 433f
00000090: 0790 4a3f de89 3c3f 812b 113f 7069 e23d
000000a0: a981 5fbe 67d7 513f 99dc 4a3f 1765 583f
000000b0: fd36 493f 9075 033d 9a70 473f 90ff f83e
000000c0: 3198 b23d bcd8 373f 6cc3 503f 9e37 433f
000000d0: 9fd6 4e3f 7d1c 493f 1f83 3e3f 1da5 4d3f
000000e0: 98d9 aabd 8a50 3d3f c4cd 7bbe 73ac 1b3f
000000f0: 3bb4 4f3f 68a8 403f c259 4d3f 8868 4b3f
00000100: 4e1d 513f 5f1d 143f 5361 4e3f e7a0 493f
00000110: cff1 4b3f 1493 443f bde5 453f c0e6 4a3f
00000120: 7963 193f 9a5f 443f 778a 9cbd 71c2 463f
00000130: fd1b b0be f36e 263f e792 063f ff05 4a3f
00000140: 4d67 3a3f 3897 83be ea89 7ebe 2353 1d3f
00000150: ab90 4b3f 5340 443f 8605 4e3f de3b 503f
00000160: f58a 4d3f 3ea2 4d3f 1c62 543f 5c13 5dbe
00000170: a4c8 00be 51a3 453f ec9f 513f 78e3 cf3e
00000180: 2787 853e 7676 483f 586f 3c3f 7450 533f
00000190: 832e 433f 2b56 9bbe f3f0 503f 7c95 223f
000001a0: f957 473f d8b0 473f 046a 833e aab5 ab3e
000001b0: 50f0 543f 5620 4f3f bcea 083f bcd5 463f
000001c0: c88d 2c3f 9fb2 4a3f 72a3 1dbd b8d8 163f
000001d0: 78fb 943d 2d81 533f 08b5 80be 8d43 99bc
000001e0: 8d6e 2d3f 5389 4e3f 63ae 493f c45d 3d3f
000001f0: c9ff 4a3f 0135 4e3f 78a5 543f f80c 693d

layer2.weight f4 [128, 128]
0.86389434 0.8230364 0.8402464 0.8170512 0.8512229 0.92165583 0.78724754 1.3516495
0.8301593 -1.0010028 0.5418859 0.8335511 -2.94431 0.83511215 0.783218 0.589139
1.0571702 0.9145223 -1.6922394 1.2048447 0.49166915 0.72439164 0.84045714 0.82624465
-3.0801795 0.9262864 1.3119025 -2.1492152 1.0807177 0.84656805 0.7918444 0.55261075
-3.0370774 0.8632187 0.7970418 0.9248984 0.7996557 0.8619996 0.8267864 1.2322202
-2.7473965 0.81565475 0.8896949 0.82764226 0.85267884 1.3461387 0.80439234 0.428406
-1.3233228 0.88484216 0.7983082 -2.6774714 0.8566405 0.8176315 0.8730691 0.8014578
-1.6956534 0.8324063 -3.5770745 0.47143644 0.86864513 0.91728324 0.8152538 0.7998616
0.89134115 0.69527376 0.7810513 0.83113074 0.8624803 0.87369806 0.8060835 0.8463296
0.53431565 0.8510025 0.6221956 0.8577974 1.1603235 0.72115725 0.25350776 0.87011504
0.749295 0.901812 -2.586576 0.49506423 0.85216135 0.8071886 0.8803963 0.8540943
0.8177603 0.8481396 0.84416866 -2.1016767 1.2132261 0.8740527 0.8590656 -1.5616395
1.1959759 0.82917595 0.8597565 0.83173555 0.7830132 -2.9573598 0.8206059 0.5382507
0.7955948 0.82019556 -2.3158035 0.83559304 0.81159663 0.8256447 0.58452576 0.8790037
0.6202776 0.85676044 1.0251384 -1.8953879 0.2813802 0.8188083 -2.4203782 0.52458745
0.9949061 0.8051557 0.7995954 0.8091193 0.86715037 0.86763746 0.85456616 1.1019938
0.8699112 0.80790997 0.84451157 0.822759 0.84957623 0.96086854 0.7874378 1.9161737
0.8269827 -0.37894547 0.44117406 0.83968973 -1.1996932 0.8485323 0.783945 0.64371145
0.9822701 0.91546994 -1.8922726 1.2486907 0.48207662 0.68855107 0.84783286 0.8285904
-1.3967931 0.89910555 1.312578 -2.4244683 1.108436 0.8105478 0.7687581 0.53462327
-0.8656104 0.8642059 0.78375465 0.9001092 0.79096776 0.8556875 0.8116337 1.3090056
-1.1075238 0.8194059 0.91123635 0.82709193 0.84876 1.4881213 0.79772794 0.24735759
-1.3033907 0.79756045 0.8136588 -2.9122875 0.86330307 0.81400204 0.88445514 0.8053499
-1.2893519 0.82399 -2.06229 0.49060714 0.8693539 0.9264828 0.829366 0.80409724
0.9153928 0.7224295 0.7748606 0.82831043 0.88017905 0.845005 0.7862914 0.84471583
0.5164855 0.853428 0.59609807 0.86640567 1.0928307 0.7062244 0.21809591 0.88167125
0.7503489 0.9334508 -0.78253406 0.50369024 0.85051155 0.81666857 0.89318043 0.8490196
0.8200247 0.8480093 0.84622073 -0.40561002 1.1548481 0.858418 0.849692 -1.6626291
1.1807854 0.81189924 0.8276231 0.82735306 0.7798998 -1.482061 0.8135656 0.5654735
0.7902546 0.79995537 -2.3760653 0.945796 0.8199029 0.83971095 0.5888475 0.88221896
0.638753 0.8469392 0.9789575 -1.8648573 0.57024974 0.8170169 -1.034907 0.66212
0.9174935 0.7968388 0.82709837 0.83726865 0.8765403 0.8914974 0.8487965 1.1918938
00000000: 2e28 5d3f 83b2 523f 631a 573f 442a 513f
00000010: bee9 593f a3f1 6b3f 0e89 493f da02 ad3f
00000020: 5285 543f dc20 80bf 09b9 0a3f 9b63 553f
00000030: 936f 3cc0 e9c9 553f fa80 483f d0d1 163f
00000040: 5a51 873f 221e 6a3f 4d9b d8bf 5a38 9a3f
00000050: 0fbc fb3e bb71 393f 3328 573f c584 533f
00000060: a921 45c0 1b21 6d3f 6cec a73f be8c 09c0
00000070: f554 8a3f afb8 583f 51b6 4a3f e677 0d3f
00000080: 7a5f 42c0 e7fb 5c3f ee0a 4c3f 24c6 6c3f
00000090: 3cb6 4c3f 01ac 5c3f 46a8 533f 64b9 9d3f
000000a0: 58d5 2fc0 c0ce 503f 0cc3 633f 5de0 533f
000000b0: 2949 5a3f 464e ac3f a8ec 4d3f 0858 db3e
000000c0: a462 a9bf 0485 623f ed5d 4c3f b15b 2bc0
000000d0: cb4c 5b3f 4c50 513f 7581 5f3f 572c 4d3f
000000e0: 2c0b d9bf 9418 553f caee 64c0 1e60 f13e
000000f0: 875f 5e3f 13d3 6a3f 79b4 503f bbc3 4c3f
00000100: ef2e 643f 76fd 313f faf2 473f fcc4 543f
00000110: 82cb 5c3f adaa 5f3f 7d5b 4e3f 0fa9 583f
00000120: e9c8 083f 4ddb 593f 3648 1f3f 9c98 5b3f
00000130: 7b85 943f c39d 383f c5cb 813e dcbf 5e3f
00000140: ccd1 3f3f 27dd 663f 768a 25c0 0f79 fd3e
00000150: 3f27 5a3f e9a3 4e3f a761 613f eda5 5a3f
00000160: bd58 513f ad1f 593f 701b 583f df81 06c0
00000170: fe4a 9b3f ebc1 5f3f b9eb 5b3f cee3 c7bf
00000180: bd15 993f e044 543f 0119 5c3f 9fec 543f
00000190: 8e73 483f 6245 3dc0 3a13 523f ccca 093f
000001a0: 1aac 4b3f 56f8 513f 2036 14c0 6de9 553f
000001b0: ccc4 4f3f 735d 533f 7ba3 153f 6306 613f
000001c0: 83ca 1e3f a754 5b3f bc37 833f 129c f2bf
000001d0: 1111 903e 6c9d 513f 7ae7 1ac0 5d4b 063f
000001e0: 2bb2 7e3f af1e 4e3f 49b2 4c3f 7122 4f3f
000001f0: 91fd 5d3f 7d1d 5e3f d9c4 5a3f 220e 8d3f
00000200: 80b2 5e3f 30d3 4e3f e931 583f 55a0 523f
00000210: d47d 593f 7bfb 753f 8695 493f 2e45 f53f
00000220: 23b5 533f 2405 c2be 91e1 e13e e8f5 563f
00000230: 8c8f 99bf 6a39 593f 9fb0 483f 46ca 243f
00000240: 0e76 7b3f 3d5c 6a3f fd35 f2bf 19d5 9f3f
00000250: bfd2 f63e e244 303f 930b 593f 801e 543f
00000260: 1eca b2bf c82b 663f 8e02 a83f 7d2a 1bc0
00000270: 3be1 8d3f 1080 4f3f 55cd 443f 12dd 083f
00000280: a598 5dbf 993c 5d3f 25a4 483f 8e6d 663f
00000290: dd7c 4a3f 560e 5b3f 3ac7 4f3f 7f8d a73f
000002a0: 57c3 8dbf 96c4 513f c946 693f 4cbc 533f
000002b0: 5648 593f c27a be3f e637 4c3f 4f4b 7d3e
000002c0: 82d5 a6bf ec2c 4c3f f14b 503f eb62 3ac0
000002d0: 6e01 5d3f 7062 503f a76b 623f 692b 4e3f
000002e0: 7c09 a5bf 02f1 523f 8ffc 03c0 dc30 fb3e
000002f0: fa8d 5e3f fa2d 6d3f 5551 543f 51d9 4d3f
00000300: 2f57 6a3f 24f1 383f 445d 463f 270c 543f
00000310: 6a53 613f 3f52 583f 654a 493f 4c3f 583f
00000320: 6538 043f 427a 5a3f e299 183f c3cc 5d3f
00000330: e0e1 8b3f 1fcb 343f 8954 5f3e 35b5 613f
00000340: de16 403f a2f6 6e3f 2754 48bf d8f1 003f
00000350: 20bb 593f 3111 513f 79a7 643f 5959 593f
00000360: 24ed 513f 2317 593f eca1 583f 1eac cfbe
00000370: 10d2 933f 48c1 5b3f 6a85 593f 08d1 d4bf
00000380: fa23 973f a1d8 4f3f 1cdf 533f 69cd 533f
00000390: 83a7 473f 2db4 bdbf d645 503f dfc2 103f
000003a0: 204e 4a3f e0c9 4c3f 7411 18c0 b01f 723f
000003b0: 28e5 513f 4cf7 563f b6be 163f 1ad9 613f
000003c0: 5185 233f 02d1 583f f59c 7a3f a5b3 eebf
000003d0: e3fb 113f 0528 513f d577 84bf b280 293f
000003e0: dbe0 6a3f a1fd 4b3f b8bc 533f 3d57 563f
000003f0: f264 603f 2c39 643f ba4a 593f fa8f 983f

layer2.bias f4 [128]
0.67163295 0.70592827 0.6758513 0.6723207 0.10597031 0.6475243 0.092053406 -0.0061043072
0.0073534246 0.6829917 0.63579124 0.66906065 0.23874447 0.0051822667 0.68400735 0.7806214
0.44740894 0.6411193 0.09981406 0.7107291 0.68051803 0.6726346 0.9426959 0.2242788
0.70175785 0.6904099 -0.0056083594 0.0019661072 0.6530142 0.66111094 0.6350755 -0.0004795028
0.24369542 0.6824992 0.72122204 0.63361025 0.5965893 0.67070454 0.640731 0.5762588
0.67765826 0.665398 0.1455116 0.56505555 0.5505247 -0.0014955614 0.693796 0.08059592
0.0043129246 0.07503706 -0.47531068 0.6651506 0.0540767 0.6421408 -0.011113678 0.25413573
0.6705685 -0.0055272486 0.6725277 0.67781013 -0.22532877 0.6689638 0.68387294 0.70405394
-0.104676515 -0.06401947 0.004829296 0.69661576 0.6517145 0.7146369 0.67805874 0.67931926
-0.00037298285 0.096579984 0.020912787 0.17662753 0.068537265 0.13826706 0.6502936 0.5018365
0.67537606 0.6794049 0.6802917 0.47857836 0.6829287 0.2109855 -0.004815703 0.19270784
0.4751459 0.0009092058 0.12713487 0.6564101 0.686728 0.6616423 0.6216898 0.20529309
-0.0793772 0.67686146 0.05965771 0.09781166 -0.007059609 0.6713314 0.6661378 0.66980857
0.032727323 0.66630566 0.6675937 0.95900095 0.00541327 0.681983 0.6966637 -0.00012079136
0.5326992 0.6822652 0.0008363317 0.025454095 0.6681387 0.68304914 0.0017652891 -0.0018495655
0.1581333 0.04946774 0.40956503 0.66987336 0.6165488 0.6583614 0.52998865 0.6426629
00000000: 23f0 2b3f b7b7 343f 9704 2d3f 361d 2c3f
00000010: f606 d93d 27c4 253f 7f86 bc3d a406 c8bb
00000020: fff4 f03b 8bd8 2e3f 37c3 223f 8f47 2b3f
00000030: 6e79 743e 01d0 a93b 1b1b 2f3f ced6 473f
00000040: c912 e53e 6520 243f 506b cc3d 58f2 353f
00000050: 6e36 2e3f c831 2c3f 8554 713f 57a9 653e
00000060: 67a6 333f b4be 303f 54c6 b7bb ced9 003b
00000070: f02b 273f 913e 293f 4f94 223f c765 fbb9
00000080: 4b8b 793e 44b8 2e3f 02a2 383f 4834 223f
00000090: 14ba 183f 4bb3 2b3f f206 243f b285 133f
000000a0: 037b 2d3f 8657 2a3f fe00 153e 7ba7 103f
000000b0: 30ef 0c3f b706 c4ba 9d9c 313f 790f a53d
000000c0: 6f53 8d3b 08ad 993d ec5b f3be 4f47 2a3f
000000d0: 887f 5d3d 5763 243f 2516 36bc 141e 823e
000000e0: 61aa 2b3f ec1d b5bb c62a 2c3f f784 2d3f
000000f0: 96bc 66be 3641 2b3f 4c12 2f3f e13c 343f
00000100: a460 d6bd a41c 83bd 123f 9e3b 6955 323f
00000110: c3d6 263f 72f2 363f 4295 2d3f dee7 2d3f
00000120: e98c c3b9 bacb c53d 4b51 ab3c d9dd 343e
00000130: 445d 8c3d e195 0d3e a479 263f 5b78 003f
00000140: 72e5 2c3f 7bed 2d3f 9927 2e3f 3908 f53e
00000150: 6ad4 2e3f 950c 583e 0bcd 9dbb 3455 453e
00000160: 5346 f33e c557 6e3a a52f 023e 7e0a 283f
00000170: 68cd 2f3f 6461 293f 1027 1f3f 5a38 523e
00000180: 8390 a2bd cb46 2d3f a55b 743d 7b51 c83d
00000190: 4b54 e7bb 60dc 2b3f 0288 2a3f 9378 2b3f
000001a0: 160d 063d 0293 2a3f 6ce7 2a3f 1681 753f
000001b0: cd61 b13b 7096 2e3f 8d58 323f 5e51 fdb8
000001c0: fa5e 083f efa8 2e3f 453d 5b3a 1b85 d03c
000001d0: 230b 2b3f 4fdc 2e3f 4661 e73a 1f6d f2ba
000001e0: b2ed 213e af9e 4a3d 82b2 d13e d27c 2b3f
000001f0: 24d6 1d3f 5f8a 283f 56ad 073f 8e85 243f

layer3.weight f4 [6, 128]
0.62065613 0.6016695 0.6261311 0.6062294 0.12959431 0.622397 0.30323187 0.013366394
0.36914784 -0.6565048 0.64291036 0.6267311 -1.3553745 -0.00037658884 0.6187525 0.19618738
0.026785173 0.6403936 0.3966138 0.46973497 0.6218817 0.62612766 -0.31187135 0.27770543
0.4949159 0.5940573 0.0045960504 0.005266369 0.626788 0.6133343 0.6448521 -0.0007121919
0.504158 0.60560554 0.37743282 0.58909595 0.048992276 0.6169579 0.6123086 0.6212149
0.6167496 0.6220759 0.28665987 0.6752853 -0.270352 -0.0019944864 0.602166 0.3010448
-0.0015722536 -0.047564253 0.9132485 0.33297578 0.25549674 0.59896606 0.011826047 0.18536375
0.62384677 0.005261778 0.62414837 0.61141664 0.6864598 0.61895406 0.6128504 0.60066324
0.70224375 -0.97436804 0.032792002 0.5331069 0.6350063 0.39002365 0.633914 0.6266527
-0.0037588766 0.26909623 0.22017308 0.18422063 0.18105097 0.45857272 0.60208315 -0.40530282
0.6102821 0.59996855 0.6214915 -1.8355987 0.6089281 0.18182187 0.0012560791 0.32294053
0.505998 -0.0038718677 0.49777433 0.6469664 0.5958418 0.62666357 0.60506284 0.59795034
0.6059818 0.54845965 0.30108026 -0.02919717 -0.22063653 0.6194611 0.61856514 0.44882777
0.6540322 0.6253763 0.6319347 -1.4267621 0.0041118534 0.60146713 0.6113514 -0.087863065
0.73485917 0.6142934 -0.0127258375 0.36561853 0.6217029 0.5871028 0.03371083 0.04013666
-0.7029644 0.37583417 -1.2372686 0.6230847 0.6222013 0.61465704 0.6805892 0.6156154
0.65515465 0.5852584 0.65360653 0.663631 0.4307729 0.6757484 -0.39334542 0.040220954
0.5934215 -1.1880915 0.60639924 0.68517226 -1.0678635 0.0012068369 0.6639506 -0.051004387
0.07498108 0.616509 -0.48768252 0.4310187 0.6461448 0.62618405 -0.9662499 0.016898703
0.63866025 0.63620406 -0.0038384097 -0.0033926342 0.56390303 0.6460561 0.6375562 -0.0061748573
0.46680558 0.5732858 0.25419584 0.5875758 -1.7931268 0.66568214 0.67326295 0.57865995
0.60296017 0.659044 0.3861383 0.48941615 -0.06773778 -0.00019185791 0.55451524 0.43548554
-0.00039785798 0.43880022 -0.44388402 -0.15718327 0.39882985 0.6385907 -0.007117659 -0.0059965192
0.6547731 0.00206718 0.6438715 0.6381871 0.5503112 0.60039854 0.61781776 0.50540894
0.5155322 -0.34694996 0.027775347 0.60958093 0.6286932 0.28635305 0.6589896 0.56377214
0.005932621 0.3700226 0.27596647 0.068302326 -0.3707084 0.14180706 0.6853233 -1.1683074
0.61351866 0.6604142 0.66124415 -0.65779287 0.6621411 0.017798021 0.00119556 0.38153222
0.50790834 -0.006587418 0.33143833 0.6638948 0.6804946 0.6130046 0.6688174 0.32712868
0.63861996 0.5282022 0.42745692 0.531071 -0.021229642 0.631833 0.615652 0.6006294
0.43627784 0.6538237 0.66569597 -0.3685938 0.0048491578 0.46321574 0.5511752 0.40061563
0.57370824 0.66431487 -0.030295229 0.4932422 0.6415773 0.6476799 0.0056657656 0.014454548
-0.44383898 0.31633726 0.31697914 0.60598767 0.70615935 0.62716043 0.54552245 0.70046586
00000000: 52e3 1e3f 0307 1a3f 214a 203f da31 1b3f
00000010: 5fb4 043e 6955 1f3f 3541 9b3e b8fe 5a3c
00000020: f200 bd3e b310 28bf c695 243f 7371 203f
00000030: e97c adbf e670 c5b9 9066 1e3f 58e5 483e
00000040: 946c db3c d6f0 233f f710 cb3e 1a81 f03e
00000050: a433 1f3f e749 203f 9aad 9fbe 682f 8e3e
00000060: 9e65 fd3e 2414 183f 779a 963b 8191 ac3b
00000070: 2e75 203f 7a03 1d3f 0715 253f 64b2 3aba
00000080: 8010 013f f708 1b3f e03e c13e fece 163f
00000090: 20ac 483d f4f0 1d3f 42c0 1c3f f107 1f3f
000000a0: 4de3 1d3f 5e40 1f3f 15c5 923e 7fdf 2c3f
000000b0: 946b 8abe eeb5 02bb 8d27 1a3f 8b22 9a3e
000000c0: 1414 ceba bcd2 42bd a7ca 693f cd7b aa3e
000000d0: 78d0 823e d755 193f 09c2 413c ffcf 3d3e
000000e0: 6cb4 1f3f fe6a ac3b 30c8 1f3f cd85 1c3f
000000f0: d4bb 2f3f c673 1e3f c4e3 1c3f 11c5 193f
00000100: 3fc6 333f 2f70 79bf e850 063d b279 083f
00000110: c68f 223f 2eb1 c73e 3048 223f 506c 203f
00000120: 7c57 76bb fbc6 893e 0d75 613e 55a4 3c3e
00000130: 6d65 393e 0bca ea3e 1f22 1a3f da83 cfbe
00000140: 733b 1c3f 8a97 193f 111a 1f3f e6f4 eabf
00000150: b6e2 1b3f 832f 3a3e 05a3 a43a 7658 a53e
00000160: 1689 013f 29bf 7dbb 47dc fe3e 979f 253f
00000170: 1789 183f 066d 203f 66e5 1a3f 4613 193f
00000180: a021 1b3f da67 0c3f 3127 9a3e e72e efbc
00000190: 8bee 61be 0195 1e3f 495a 1e3f c1cc e53e
000001a0: a76e 273f a918 203f 79c6 213f 24a0 b6bf
000001b0: babc 863b c0f9 193f 8681 1c3f 8df1 b3bd
000001c0: bb1f 3c3f 5542 1d3f 0880 50bc 5a32 bb3e
000001d0: ec27 1f3f 5e4c 163f 5e14 0a3d 5766 243d
000001e0: 7af5 33bf 566d c03e d15e 9ebf 7b82 1f3f
000001f0: 9648 1f3f 2a5a 1d3f 183b 2e3f f998 1d3f
00000200: 37b8 273f 7fd3 153f c252 273f b9e3 293f
00000210: 448e dc3e d9fd 2c3f 9264 c9be babe 243d
00000220: 79ea 173f 6213 98bf fb3c 1b3f 7367 2f3f
00000230: c0af 88bf ba2e 9e3a abf8 293f fae9 50bd
00000240: ae8f 993d 89d3 1d3f 86b1 f9be 7cae dc3e
00000250: bf69 253f 994d 203f 275c 77bf 266f 8a3c
00000260: 3d7f 233f 45de 223f d48d 7bbb f556 5ebb
00000270: f35b 103f ef63 253f e236 233f 7556 cabb
00000280: 2401 ef3e dcc2 123f f525 823e 5e6b 163f
00000290: 2e85 e5bf 256a 2a3f f65a 2c3f 0f23 143f
000002a0: 995b 1a3f 1cb7 283f ebb3 c53e c194 fa3e
000002b0: 1bba 8abd 772d 49b9 b6f4 0d3f f6f7 de3e
000002c0: 9897 d0b9 6caa e03e c444 e3be a7f4 20be
000002d0: 6d33 cc3e ae7a 233f 403b e9bb 737e c4bb
000002e0: 369f 273f 8679 073b c3d4 243f 3b60 233f
000002f0: 32e1 0c3f b8b3 193f 4e29 1e3f 7b62 013f
00000300: ebf9 033f 6da3 b1be 2089 e33c 7f0d 1c3f
00000310: 0af2 203f de9c 923e 8bb3 283f 5f53 103f
00000320: 6f66 c23b 9a73 bd3e 7a4b 8d3e 17e2 8b3d
00000330: 7ecd bdbe df35 113e 5971 2f3f 198b 95bf
00000340: 8f0f 1d3f e810 293f 4c47 293f 1d65 28bf
00000350: 1482 293f 28cd 913c 56b4 9c3a 3158 c33e
00000360: 4806 023f 44db d7bb 49b2 a93e 02f5 293f
00000370: e534 2e3f dfed 1c3f 9e37 2b3f 697d a73e
00000380: 997c 233f 4238 073f a2db da3e 45f4 073f
00000390: c9e9 adbc cfbf 213f 5f9b 1d3f d9c2 193f
000003a0: cf5f df3e fd60 273f 0d6b 2a3f 54b8 bcbe
000003b0: afe5 9e3b 9d2a ed3e d119 0d3f 7e1d cd3e
000003c0: 8bde 123f 8a10 2a3f b32d f8bc 3e8a fc3e
000003d0: 693e 243f 5ace 253f e3a7 b93b c5d2 6c3c
000003e0: dd3e e3be f5f6 a13e 174b a23e 0222 1b3f
000003f0: dcc6 343f 968d 203f 5ca7 0b3f bb51 333f

layer3.bias f4 [6]
-0.33548528 0.25648805 0.33711833 0.1644779 0.54268193 -0.2472846
00000000: bac4 abbe 6752 833e c69a ac3e e56c 283e
00000010: 34ed 0a3f 2d38 7dbe
