models/160000-trained_model-17-16_12.pth (torch, 79239 bytes, 6 tensors)

layer1.weight f4 [128, 14]
0.36456707 0.44527543 0.23081735 0.41404283 0.2292762 0.029391391 0.47858244 0.47951967
0.41902065 0.37896112 0.44920745 0.50019264 0.49689287 0.46199465 0.39905038 0.44163826
0.3379701 0.38635015 0.2254772 0.29323155 0.36414945 0.41839328 0.35765108 0.3394766
0.431673 0.45681754 0.44578767 0.3802801 0.3136085 0.4334851 0.25815904 0.36011365
0.2611577 0.21731134 0.4153027 0.47786784 0.39679754 0.37849054 0.4559516 0.5014923
0.47081196 0.43662915 0.3708451 0.39606574 0.3023044 0.38960657 0.2679235 0.26335028
0.4146247 0.44384637 0.3636893 0.35469317 0.43902546 0.48709902 0.45405298 0.4277316
0.33952358 0.39641067 0.34078076 0.34308526 0.21578953 0.07874298 0.45335203 0.47027063
0.38917118 0.39879492 0.46372172 0.52230656 0.48716572 0.4582778 0.3096895 0.37163424
0.12485262 0.5474026 0.235818 -0.518656 0.44274756 0.48667607 0.46389127 0.4649776
0.48037127 0.4928619 0.50982183 0.44641408 0.4148853 0.4384569 0.41578674 0.35835084
0.30958292 0.43861818 0.29496524 0.39430496 0.31606206 0.33895782 0.39661247 0.44145525
0.3916331 0.32142004 -0.83872837 -0.27705982 -1.3521012 -0.9989142 -2.5157316 -2.4620206
0.52786916 -0.19241677 0.3224247 0.84498316 0.7487664 0.7393515 -0.059069075 0.15431632
0.34253892 0.46881488 0.34753618 0.34692988 0.2628487 0.09784124 0.4829513 0.46703148
0.38377646 0.39973348 0.4514848 0.525921 0.46829087 0.41635835 0.6292465 0.11533962
0.4148896 0.014141937 0.31352863 -2.1115077 0.62790465 0.63020647 0.64735645 0.55229396
1.1677016 0.7879366 0.57619387 0.50272185 0.024011653 0.89617026 0.5089696 0.5770646
0.8020091 4.231465 0.0097616995 -0.030712914 -0.0052487277 -0.07004428 -0.035732765 -0.003889747
0.011682714 0.046284944 0.41221565 0.42748603 0.22205842 0.4240406 0.2725237 0.120542385
0.48488176 0.46414384 0.41209534 0.3616296 0.4639919 0.49326658 0.45319018 0.4423334
-0.5221856 -0.718493 -0.4181563 -0.8008066 -1.0679651 -5.0940437 0.16100769 0.2095765
0.14444688 0.16713028 0.03653254 0.11053679 0.15854584 0.16551305 0.40095854 0.38979185
0.19922593 0.4215003 0.27998757 0.0022899432 0.47837797 0.51686454 0.43932933 0.39489695
0.45432252 0.5162308 0.4898602 0.47376856 0.5136846 0.44736275 0.28966942 0.45217243
0.2949022 0.6103215 0.16094905 0.35645384 0.32247323 0.2870398 0.36213347 0.34912944
0.29769257 0.21574949 0.53958243 0.7138145 0.44926143 0.6336891 0.76286745 2.9893484
-0.024876157 -0.02342786 -0.035553884 0.037318546 0.039991662 0.02650733 0.043591797 -0.040684514
0.099896595 -0.18755963 0.32335594 0.15938148 0.18009146 -0.5895226 -0.85439366 0.1541307
-0.4330301 -0.14574489 -0.13487327 0.58479583 -0.34449735 -1.2106396 0.16519095 0.5546415
-0.21452215 0.4774935 0.38597998 0.63885975 0.12670164 0.44170955 0.27993014 0.28581944
0.33566976 0.42800188 0.3377111 0.23594406 -0.3032061 -0.80307627 0.33229724 -0.2760413
00000000: 89a8 ba3e 24fb e33e 625b 6c3e 6cfd d33e
00000010: 61c7 6a3e 37c6 f03c c208 f53e 9a83 f53e
00000020: e089 d63e 3107 c23e 85fe e53e a00c 003f
00000030: be68 fe3e 908a ec3e 5550 cc3e 691e e23e
00000040: 6b0a ad3e b0cf c53e 7fe3 663e 7222 963e
00000050: cc71 ba3e a537 d63e 0b1e b73e e0cf ad3e
00000060: 3e04 dd3e fde3 e93e 483e e43e 13b4 c23e
00000070: 4b91 a03e c2f1 dd3e 6c2d 843e d160 b83e
00000080: 76b6 853e dd86 5e3e 8ea2 d43e 18ab f43e
00000090: 0c29 cb3e 83c9 c13e 7d72 e93e cd61 003f
000000a0: 440e f13e db8d df3e 69df bd3e 21c9 ca3e
000000b0: a4c7 9a3e 837a c73e 452d 893e d9d5 863e
000000c0: b049 d43e d53f e33e 7c35 ba3e 589a b53e
000000d0: f2c7 e03e 0b65 f93e a279 e83e a3ff da3e
000000e0: 09d6 ad3e 57f6 ca3e d17a ae3e dfa8 af3e
000000f0: eef7 5c3e 0044 a13d c21d e83e 50c7 f03e
00000100: 7241 c73e d92e cc3e ef6c ed3e e2b5 053f
00000110: c96d f93e 63a3 ea3e 9f8f 9e3e d846 be3e
00000120: bbb2 ff3d 9422 0c3f 467a 713e a4c6 04bf
00000130: cfaf e23e 9b2d f93e 2883 ed3e 8b11 ee3e
00000140: 39f3 f53e 6558 fc3e af83 023f 6390 e43e
00000150: d96b d43e 6c7d e03e 00e2 d43e c379 b73e
00000160: a781 9e3e 9092 e03e af05 973e 57e2 c93e
00000170: e3d2 a13e e18b ad3e ca10 cb3e 6c06 e23e
00000180: 2284 c83e 2b91 a43e e7b6 56bf c9da 8dbe
00000190: a711 adbf d7b8 7fbf bf01 21c0 bf91 1dc0
000001a0: 6f22 073f e708 45be da14 a53e d150 583f
000001b0: 28af 3f3f 2446 3d3f 6af2 71bd 1905 1e3e
000001c0: 4361 af3e 8108 f03e 43f0 b13e cba0 b13e
000001d0: 1b94 863e fd60 c83d 6545 f73e c01e ef3e
000001e0: 597e c43e dea9 cc3e 0429 e73e c2a2 063f
000001f0: d2c3 ef3e ec2c d53e 4c16 213f 2e37 ec3d
00000200: 696c d43e 95b3 673c d386 a03e f122 07c0
00000210: 5cbe 203f 3655 213f 27b9 253f 2363 0d3f
00000220: 3f77 953f 37b6 493f 7181 133f 61b2 003f
00000230: 16b4 c43c 6a6b 653f d54b 023f 81ba 133f
00000240: 7850 4d3f 2968 8740 89ef 1f3c a699 fbbc
00000250: 85fd abbb 6073 8fbd 855c 12bd 20eb 7ebb
00000260: db68 3f3c 4895 3d3d ee0d d33e 73df da3e
00000270: 4863 633e d91b d93e 3a88 8b3e edde f63d
00000280: 6c42 f83e 43a4 ed3e 29fe d23e 8427 b93e
00000290: 5990 ed3e 708d fc3e 8b08 e83e 8679 e23e
000002a0: f5ad 05bf 28ef 37bf 9518 d6be a901 4dbf
000002b0: 15b3 88bf 6802 a3c0 33df 243e 399b 563e
000002c0: e2e9 133e 3324 2b3e 25a3 153d 1d61 e23d
000002d0: d759 223e 417c 293e 704a cd3e cc92 c73e
000002e0: e201 4c3e e3ce d73e 885a 8f3e df12 163b
000002f0: f5ed f43e 3c51 043f c6ef e03e ef2f ca3e
00000300: f69c e83e b427 043f f5ce fa3e cb91 f23e
00000310: d580 033f bb0c e53e 8d4f 943e 2583 e73e
00000320: 6cfd 963e 083e 1c3f d4cf 243e 1e81 b63e
00000330: 361b a53e e1f6 923e 8f69 b93e 18c1 b23e
00000340: 296b 983e 6fed 5c3e 1322 0a3f 8cbc 363f
00000350: 9805 e63e 7339 223f 484b 433f 7c51 3f40
00000360: 15c9 cbbc c9eb bfbc f3a0 11bd 55db 183d
00000370: 4cce 233d e625 d93c 508d 323d cea4 26bd
00000380: 9696 cc3d a20f 40be e98e a53e e634 233e
00000390: e569 383e f4ea 16bf 8bb9 5abf 70d4 1d3e
000003a0: 1fb6 ddbe 263e 15be 381c 0abe 2eb5 153f
000003b0: f561 b0be 3df6 9abf d127 293e fcfc 0d3f
000003c0: b2ab 5bbe 077a f43e 2b9f c53e 508c 233f
000003d0: 13be 013e c127 e23e 0153 8f3e ed56 923e
000003e0: e8dc ab3e 1023 db3e 78e8 ac3e 529b 713e
000003f0: d43d 9bbe 6896 4dbf dd22 aa3e 4955 8dbe

layer1.bias f4 [128]
0.5229009 0.52478385 0.52450943 0.5240207 0.5154944 0.49731284 0.52289337 -0.07220459
0.5237348 0.27524984 0.3168522 0.5409388 -0.14586923 0.53292054 0.49158406 0.33964658
-0.01826955 0.45712212 0.20259543 0.35720673 0.34297812 0.42499143 0.52421457 0.5129399
-0.18164137 0.4600457 0.044866037 0.4922783 -0.02855295 -0.17242517 0.525762 0.34613556
-0.16912429 0.50212955 0.5266631 0.49276513 0.51318306 0.47565886 0.35520232 0.07517001
-0.12522128 0.5325551 0.5134106 0.5492047 0.5094554 0.0120134065 0.50437945 0.3072164
0.056594044 0.46289587 0.5300725 0.55549765 0.5245779 0.5092647 0.48039845 0.521721
0.01673663 0.47822988 -0.1351158 0.38370183 0.5266034 0.485811 0.521023 0.51606435
0.53008616 0.3716435 0.5238886 0.51073956 0.5169752 0.49570453 0.5000249 0.5140731
0.38578257 0.4954387 -0.052005146 0.50190216 -0.22863808 0.41934305 0.3433276 0.5114932
0.4712727 -0.18594328 -0.15053399 0.3963948 0.5158605 0.4962688 0.5221616 0.5280327
0.52144194 0.52152485 0.53882617 -0.14098439 -0.07104903 0.49889815 0.5317407 0.30150747
0.15772651 0.5071062 0.47531816 0.5361412 0.49316466 -0.18920727 0.5301143 0.40984634
0.5042677 0.50503415 0.14060405 0.22265102 0.5403688 0.5255503 0.34222665 0.5021588
0.43315125 0.5134683 -0.039139926 0.43262434 0.047613427 0.5366401 -0.15276186 -0.0032552062
0.43557015 0.5240552 0.5112815 0.47852904 0.5141772 0.52292216 0.5392965 0.040535133
00000000: d5dc 053f 3c58 063f 4046 063f 3826 063f
00000010: 71f7 033f ca9f fe3e 57dc 053f 00e0 93bd
00000020: 7c13 063f 8ced 8c3e 743a a23e f77a 0a3f
00000030: be5e 15be 7b6d 083f e8b0 fb3e 28e6 ad3e
00000040: 06aa 95bc e90b ea3e 2d75 4f3e cde3 b63e
00000050: d49a af3e 7a98 d93e ed32 063f 0750 033f
00000060: 3200 3abe 1c8b eb3e 73c5 373d e70b fc3e
00000070: e0e7 e9bc 3990 30be 5798 063f ae38 b13e
00000080: eb2e 2dbe 908b 003f 65d3 063f b64b fc3e
00000090: f75f 033f 8f89 f33e 14dd b53e bcf2 993d
000000a0: 023a 00be 8855 083f e16e 033f ae98 0c3f
000000b0: ab6b 023f e1d3 443c 031f 013f 784b 9d3e
000000c0: 28cf 673d b000 ed3e d5b2 073f 1835 0e3f
000000d0: bd4a 063f 2c5f 023f c9f6 f53e 828f 053f
000000e0: 421b 893c 8cda f43e cc5b 0abe 9174 c43e
000000f0: 7bcf 063f 38bc f83e c361 053f cb1c 043f
00000100: bab3 073f 0f48 be3e 901d 063f d4bf 023f
00000110: 7d58 043f fccc fd3e a201 003f 4b9a 033f
00000120: 4b85 c53e 24aa fd3e 5903 55bd a97c 003f
00000130: 1a20 6abe 22b4 d63e a3c8 af3e 38f1 023f
00000140: a84a f13e ea67 3ebe 9525 1abe 42f4 ca3e
00000150: 6f0f 043f f216 fe3e 62ac 053f 272d 073f
00000160: 387d 053f a782 053f 83f0 093f 365e 10be
00000170: 2782 91bd 946f ff3e 2920 083f 305f 9a3e
00000180: 0f83 213e b6d1 013f e75c f33e 8d40 093f
00000190: 1480 fc3e 8dbf 41be 92b5 073f 61d7 d13e
000001a0: b017 013f eb49 013f 82fa 0f3e a1fe 633e
000001b0: 9c55 0a3f 778a 063f 5538 af3e 7b8d 003f
000001c0: 00c6 dd3e a972 033f 3051 20bd f080 dd3e
000001d0: 4c06 433d 3f61 093f 9b6d 1cbe 4c55 55bb
000001e0: 0d03 df3e 7b28 063f 58e3 023f c201 f53e
000001f0: 1ea1 033f 3ade 053f 560f 0a3f 2b08 263d

layer2.weight f4 [128, 128]
0.56469023 0.537573 0.5489684 0.53401124 0.5564171 0.6039022 0.5130285 0.9202634
0.5421813 -0.7149495 0.34451437 0.5443488 -1.9909534 0.54573166 0.50941783 0.375137
0.702617 0.5984023 -1.1257414 0.79843605 0.3103595 0.47074753 0.54897404 0.5400635
-2.084833 0.6072158 0.8535153 -1.5190654 0.71831536 0.56266576 0.51636904 0.35259044
-2.0646276 0.56403106 0.52060485 0.6060697 0.5220949 0.5635805 0.54822963 0.77402335
-1.8656983 0.53276485 0.58267856 0.5405254 0.55707014 0.87189627 0.5253093 0.27023387
-0.88050395 0.58217734 0.52140874 -1.873774 0.5594719 0.5341286 0.57078356 0.52364975
-0.98731506 0.5428934 -2.4212134 0.2977478 0.56789994 0.6002389 0.53279144 0.5225431
0.5839176 0.44748288 0.507987 0.54285383 0.5636294 0.57186496 0.5264615 0.55299985
0.33954704 0.5563988 0.41616738 0.5609404 0.7713114 0.46717998 0.14963394 0.568836
0.48611948 0.59793514 -1.7562307 0.3120383 0.5569209 0.5283858 0.5761289 0.558137
0.53442407 0.55408835 0.5514139 -1.4077187 0.80876714 0.5720867 0.5613813 -1.0983995
0.7916986 0.5416232 0.56197417 0.5434689 0.5089089 -1.9957807 0.53632224 0.3408797
0.51925516 0.5358312 -1.5269654 0.5579024 0.5301455 0.5392101 0.3716435 0.5751144
0.394819 0.5598685 0.6812169 -1.326028 0.16890904 0.5350953 -1.6295918 0.35351634
0.6518841 0.5259345 0.52222526 0.5309382 0.5668975 0.56712294 0.5583814 0.70290184
0.569539 0.5290249 0.55260485 0.5385791 0.5560805 0.6300499 0.51470476 1.3385403
0.5410221 -0.31757426 0.28228843 0.54918003 -0.8379339 0.5549655 0.512182 0.41622385
0.65402853 0.601083 -1.2667643 0.82461977 0.30873352 0.4495552 0.5544677 0.5422842
-0.9621979 0.5903973 0.8371225 -1.7189168 0.7369193 0.5387334 0.5016129 0.34498763
-0.6314659 0.5652561 0.5125302 0.5908863 0.5179231 0.56091154 0.5350895 0.835294
-0.7776461 0.53619385 0.59736377 0.5410793 0.5553818 0.9547859 0.5225714 0.15385817
-0.8669141 0.5254129 0.5324499 -1.9991972 0.564807 0.5329623 0.5797878 0.52734756
-0.8740626 0.53913325 -1.4123375 0.31441975 0.5691145 0.6065432 0.54242444 0.5263871
0.60010535 0.4695146 0.50569034 0.54182935 0.5761654 0.5536894 0.5146057 0.5526972
0.33303374 0.55829555 0.39638358 0.5675343 0.72639066 0.46018896 0.1307439 0.577647
0.48887032 0.6183948 -0.5586925 0.3220029 0.55655694 0.5350802 0.5855055 0.55565536
0.53686947 0.55469364 0.5533979 -0.28250816 0.76918805 0.5622979 0.5560125 -1.1741472
0.78225684 0.5319659 0.54319316 0.54157484 0.50940573 -1.0193127 0.53297794 0.3643918
0.5172337 0.5242087 -1.5689553 0.6321706 0.53657615 0.5489789 0.3796879 0.5780466
0.41210204 0.55432534 0.65206164 -1.2863504 0.33825803 0.5350609 -0.7107597 0.44405344
0.6033319 0.52177477 0.5402412 0.5492101 0.57400864 0.58396727 0.55538696 0.7618002
00000000: 8a8f 103f 629e 093f 3189 0c3f f6b4 083f
00000010: 5a71 0e3f 5699 1a3f d655 033f 6296 6b3f
00000020: 65cc 0a3f ee06 37bf 3064 b03e 715a 0b3f
00000030: 90d7 febf 12b5 0b3f 3569 023f f511 c03e
00000040: b5de 333f e530 193f 4b18 90bf 4e66 4c3f
00000050: 71e7 9e3e d205 f13e 9089 0c3f 9a41 0a3f
00000060: e76d 05c0 7f72 1b3f fb7f 5a3f bc70 c2bf
00000070: 84e3 373f dd0a 103f c330 043f bc86 b43e
00000080: dc22 04c0 5764 103f 5c46 053f 6227 1b3f
00000090: 03a8 053f d046 103f c758 0c3f 6526 463f
000000a0: 34cf eebf 4763 083f 6c2a 153f df5f 0a3f
000000b0: 269c 0e3f 9834 5f3f ac7a 063f 185c 8a3e
000000c0: b568 61bf 9309 153f 0b7b 053f d4d7 efbf
000000d0: 8d39 0f3f a7bc 083f df1e 123f e90d 063f
000000e0: aec0 7cbf 10fb 0a3f 29f5 1ac0 6672 983e
000000f0: e461 113f 42a9 193f 0565 083f 62c5 053f
00000100: a07b 153f 7a1c e53e 700b 023f 78f8 0a3f
00000110: 044a 103f be65 123f 2ec6 063f 6691 0d3f
00000120: 1cd9 ad3e 2770 0e3f e413 d53e ca99 0f3f
00000130: aa74 453f 3732 ef3e a439 193e 3c9f 113f
00000140: a7e4 f83e 4712 193f 2bcc e0bf 7cc3 9f3e
00000150: 5e92 0e3f 4b44 073f 2f7d 133f 11e2 0e3f
00000160: 04d0 083f bcd8 0d3f 7629 0d3f 2030 b4bf
00000170: 5d0b 4f3f 4674 123f afb6 0f3f 5b98 8cbf
00000180: c2ac 4a3f d1a7 0a3f 8add 0f3f c720 0b3f
00000190: db47 023f be75 ffbf 6a4c 093f c987 ae3e
000001a0: e8ed 043f 3c2c 093f 9a73 c3bf b1d2 0e3f
000001b0: 9eb7 073f ac09 0a3f 0f48 be3e b33a 133f
000001c0: b725 ca3e 8b53 0f3f 3b64 2e3f 49bb a9bf
000001d0: 7ef6 2c3e 01fc 083f 7796 d0bf 1800 b53e
000001e0: e0e1 263f a5a3 063f 8eb0 053f 91eb 073f
000001f0: 3220 113f f82e 113f 15f2 0e3f 60f1 333f
00000200: 4fcd 113f 2d6e 073f 8377 0d3f 52e0 093f
00000210: 4b5b 0e3f f34a 213f b1c3 033f 4a55 ab3f
00000220: 6d80 0a3f 1899 a2be 1c88 903e 1097 0c3f
00000230: d682 56bf 3812 0e3f 5c1e 033f 4b1b d53e
00000240: 6a6e 273f 93e0 193f 5525 a2bf 481a 533f
00000250: 5212 9e3e 192c e63e 98f1 0d3f 23d3 0a3f
00000260: 9a52 76bf 4724 173f a94d 563f 7705 dcbf
00000270: bea6 3c3f 6fea 093f b469 003f 38a2 b03e
00000280: c0a7 21bf a0b4 103f 2e35 033f 5344 173f
00000290: 9c96 043f e697 0f3f a0fb 083f d4d5 553f
000002a0: d113 47bf 0044 093f d5ec 183f 2c84 0a3f
000002b0: 802d 0e3f d96c 743f 3dc7 053f ff8c 1d3e
000002c0: 15ee 5dbf 7681 063f a34e 083f b2e5 ffbf
000002d0: 3197 103f 3870 083f f96c 143f 4000 073f
000002e0: 91c2 5fbf a304 0a3f 7ac7 b4bf a0fb a03e
000002f0: 7db1 113f 6a46 1b3f 54dc 0a3f 4ec1 063f
00000300: 81a0 193f 3864 f03e ec74 013f 54b5 0a3f
00000310: 937f 133f 97be 0d3f 33bd 033f 907d 0d3f
00000320: 6683 aa3e 75ec 0e3f caf2 ca3e ee49 113f
00000330: bdf4 393f e39d eb3e bbe1 053e ace0 133f
00000340: 364d fa3e 1f4f 1e3f 7906 0fbf 90dd a43e
00000350: 847a 0e3f 04fb 083f b0e3 153f 6e3f 0e3f
00000360: 4770 093f 6700 0e3f 7cab 0d3f e9a4 90be
00000370: 82e9 443f c1f2 0f3f d656 0e3f 754a 96bf
00000380: fc41 483f eb2e 083f b50e 0b3f a6a4 0a3f
00000390: 6a68 023f d778 82bf 3e71 083f 9091 ba3e
000003a0: 6e69 043f 8b32 063f 87d3 c8bf efd5 213f
000003b0: 0e5d 093f e289 0c3f 7466 c23e ddfa 133f
000003c0: 0aff d23e 44e8 0d3f 83ed 263f 21a7 a4bf
000003d0: 2830 ad3e c0f9 083f 59f4 35bf f95a e33e
000003e0: f673 1a3f 0893 053f 3f4d 0a3f 0899 0c3f
000003f0: 3bf2 123f e17e 153f d72d 0e3f 5705 433f

layer2.bias f4 [128]
0.4067876 0.43061942 0.4104733 0.40684253 0.1348302 0.3869223 0.027785769 -0.0040649306
-0.03830392 0.68048483 0.3818745 0.40446752 0.26864427 0.0034457974 0.41525394 0.5201655
0.39480668 0.3852346 0.03608016 0.44051564 0.41324073 0.40825722 0.77151185 0.22045784
0.43276572 0.42051432 -0.0037283618 0.0013077398 0.3939174 0.39804652 0.3804844 -0.00031927138
0.114261866 0.41465712 0.45610097 0.37950096 0.4698599 0.4066703 0.38277617 0.34163523
0.41202822 0.4021782 0.1344012 0.33522516 0.3444809 -0.0009951066 0.42306545 0.10251782
0.0028668335 0.1646536 -0.3198909 0.42672658 0.25894514 0.38588944 -0.00738803 0.11439781
0.4060568 -0.003674288 0.40812653 0.41218778 -0.14168647 0.40557635 0.41573974 0.43105456
-0.11551547 -0.040423088 0.0032135798 0.42265287 0.39285472 0.44339702 0.41171065 0.413477
-0.00024814837 0.11184401 -0.021913111 0.11494537 -0.09377772 0.10296871 0.39061308 0.37544432
0.41028017 0.41223916 0.41278666 0.41996196 0.4144975 0.18047509 -0.0032043145 0.15839258
0.27163008 0.00060475693 0.11839468 0.3948252 0.41686243 0.39946434 0.37022966 0.11465639
-0.09836304 0.4143389 -0.010884168 0.08402494 -0.004700481 0.40724427 0.4030521 0.40473592
0.033975787 0.40236446 0.40328333 0.6586175 0.0035983024 0.41788793 0.42608157 -0.047719102
0.30590874 0.41401464 0.0005568138 -0.032123424 0.40456095 0.41512302 0.0011753781 -0.0012309323
0.16373746 -0.031608965 0.32674178 0.40632382 0.36775428 0.39691177 0.30784065 0.38555795
00000000: 7746 d03e 267a dc3e 8e29 d23e aa4d d03e
00000010: ee10 0a3e ae1a c63e fb9e e33c 1c33 85bb
00000020: 92e4 1cbd 4134 2e3f 0e85 c33e 5e16 cf3e
00000030: be8b 893e e3d2 613b 2a9c d43e 9129 053f
00000040: 1a24 ca3e 783d c53e cac8 133d 448b e13e
00000050: 4a94 d33e 1707 d13e cd81 453f b3bf 613e
00000060: 7893 dd3e a74d d73e 8857 74bb 7768 ab3a
00000070: 8baf c93e c1cc cb3e dace c23e e163 a7b9
00000080: 2002 ea3d f04d d43e 1186 e93e f34d c23e
00000090: 7a91 f03e 1737 d03e 3dfb c33e d0ea ae3e
000000a0: 5df5 d23e 4dea cd3e 78a0 093e a2a2 ab3e
000000b0: cd5f b03e 3d6e 82ba 099c d83e ddf4 d13d
000000c0: 7ce1 3b3b f49a 283e bdc8 a3be e87b da3e
000000d0: 7594 843e 4d93 c53e 4a17 f2bb 6649 ea3d
000000e0: ade6 cf3e 53cc 70bb f6f5 d03e 470a d33e
000000f0: 4216 11be b4a7 cf3e d7db d43e 2fb3 dc3e
00000100: 6093 ecbd ae92 25bd ec9a 523b f565 d83e
00000110: 4124 c93e ef04 e33e bdcb d23e 42b3 d33e
00000120: e919 82b9 790e e53d 2083 b3bc 7a68 eb3d
00000130: 890e c0bd 42e1 d23d 70fe c73e 3d3a c03e
00000140: 3e10 d23e 0311 d33e c658 d33e 4105 d73e
00000150: 0439 d43e 76ce 383e 7aff 51bb aa31 223e
00000160: 1913 8b3e 8d88 1e3a e978 f23d 8726 ca3e
00000170: fe6e d53e 9786 cc3e be8e bd3e f8d0 ea3d
00000180: 9072 c9bd 3a24 d43e 8253 32bc 4515 ac3d
00000190: 7e06 9abb 5282 d03e d85c ce3e 8c39 cf3e
000001a0: 322a 0b3d b702 ce3e 277b ce3e 289b 283f
000001b0: 7fd1 6b3b 68f5 d53e 5d27 da3e 1b75 43bd
000001c0: 12a0 9c3e baf9 d33e 24f7 113a da93 03bd
000001d0: 9d22 cf3e 018b d43e 250f 9a3a 3c57 a1ba
000001e0: cbaa 273e 6778 01bd b34a a73e ad09 d03e
000001f0: 4a4a bc3e 0538 cb3e 4a9d 9d3e da67 c53e

layer3.weight f4 [6, 128]
0.30193886 0.27312803 0.3015186 0.2955248 -0.016545864 0.3129937 0.057521377 0.008899079
0.13884105 -0.63268447 0.31452855 0.30868393 -1.0479637 -0.00025064484 0.29737082 -0.076487914
-0.16804036 0.31771857 0.21088299 0.16071346 0.29763117 0.30086672 -0.44250467 0.10448726
0.21545698 0.2801679 0.0030542337 0.0035031396 0.3043176 0.29477322 0.3254569 -0.00047347657
0.2981297 0.28182846 0.07902931 0.28954762 -0.18287134 0.29646584 0.30567616 0.3216064
0.29120475 0.30141622 0.07565528 0.34573346 -0.27127978 -0.0013254328 0.27464005 0.090824075
-0.0010471508 -0.12914018 0.608012 0.03455946 0.060690273 0.294164 0.007865007 -0.022895975
0.30122077 0.0035000094 0.29700524 0.2885453 0.45382926 0.29292285 0.28353983 0.25954637
0.41621664 -0.6169511 0.021793736 0.23796017 0.31287298 0.10144881 0.3087068 0.29317906
-0.0025029394 0.072871916 0.13757609 -0.011901393 -0.020563602 0.18697608 0.2986352 -0.4603888
0.29025495 0.28779945 0.30053303 -1.4582664 0.2919161 -0.020032912 0.00083452597 0.086643554
0.26604557 -0.002577365 0.21880737 0.31933698 0.28634536 0.30108532 0.30227137 0.2987453
0.33020872 0.23652476 0.085942544 -0.13150324 -0.14690141 0.2968115 0.29606217 0.20068903
0.31406716 0.3039699 0.31117693 -1.153186 0.002732786 0.25798735 0.2751286 -0.17229924
0.39982015 0.29617688 -0.008472226 0.13340801 0.29936346 0.2759891 0.02240629 0.026665373
-0.5182996 0.13229606 -0.8988886 0.29523212 0.32297924 0.29562226 0.36447397 0.30729076
0.31737936 0.2690845 0.32015952 0.3230415 0.30449972 0.33385536 -0.20549968 0.026722845
0.42877653 -1.0074162 0.2959286 0.33897454 -1.081713 0.0008030849 0.3230232 -0.20122086
-0.0857015 0.30548877 -0.305695 0.14848642 0.3170847 0.3040478 -0.9188403 -0.026265
0.2510948 0.30528218 -0.0025557156 -0.0022587937 0.27519107 0.31783864 0.30634126 -0.0041137733
0.20568536 0.2771249 -0.016101407 0.27425733 -1.325162 0.3221276 0.32606763 0.2583388
0.29381785 0.3183417 0.29342255 0.23696028 -0.17841716 -0.00012778945 0.26472658 0.30188018
-0.00026486992 0.3089319 -0.29554346 -0.2275475 0.28125387 0.31873223 -0.0047391807 0.08077224
0.32246065 0.0013738951 0.31604034 0.31048393 0.38208437 0.28999048 0.30067757 0.22460927
0.3706295 -0.2777986 0.018493196 0.30188218 0.30311123 0.040722527 0.3222909 0.27836788
0.003946071 0.26119933 0.22078186 0.113818504 -0.17778905 0.13280748 0.3304866 -1.0207113
0.29777384 0.31579402 0.3245363 -0.6768606 0.3200909 0.09261207 0.00079522264 0.310836
0.20493318 -0.0043820585 0.2338112 0.32926998 0.3174045 0.29567116 0.32906574 0.17664833
0.45743725 0.25316098 0.30643192 0.37692308 -0.014119379 0.30361086 0.29643488 0.27198344
0.307827 0.3210183 0.32484436 -0.38420188 0.003226219 0.19412485 0.25618923 0.2822825
0.31477427 0.31965283 -0.020177664 0.35797703 0.30808112 0.31268886 0.0037666329 0.0096158385
-0.3318953 0.22950333 0.1230788 0.29506776 0.34677067 0.2971056 0.27092558 0.33782202
00000000: bb97 9a3e 70d7 8b3e a560 9a3e 074f 973e
00000010: 318b 87bc b640 a03e 899b 6b3d 71cd 113c
00000020: 592c 0e3e 9cf7 21bf e309 a13e d20b 9e3e
00000030: ad23 86bf fb68 83b9 fd40 983e b2a5 9cbd
00000040: c612 2cbe 02ac a23e b6f1 573e 1292 243e
00000050: 1d63 983e 340b 9a3e f98f e2be 6bfd d53d
00000060: c1a0 5c3e 2b72 8f3e 8a29 483b ee94 653b
00000070: 84cf 9b3e 84ec 963e 49a2 a63e f33c f8b9
00000080: 75a4 983e d24b 903e 1eda a13d 963f 943e
00000090: a042 3bbe 5fca 973e 9681 9c3e 98a9 a43e
000000a0: ca18 953e 3a53 9a3e 28f1 9a3d fa03 b13e
000000b0: 2fe5 8abe 25ba adba 9f9d 8c3e f901 ba3d
000000c0: 8d40 89ba 533d 04be ada6 1b3f 388e 0d3d
000000d0: 5d96 783d aa9c 963e 3bdc 003c 5790 bbbc
000000e0: 9c39 9a3e 6a60 653b 1211 983e 36bc 933e
000000f0: 4f5c e83e fcf9 953e 222c 913e 43e3 843e
00000100: 591a d53e 82f0 1dbf c788 b23c d5ab 733e
00000110: e330 a03e 65c4 cf3d d10e 9e3e 911b 963e
00000120: 5b08 24bb df3d 953d bfe0 0c3e 0ffe 42bc
00000130: 0075 a8bc a876 3f3e b7e6 983e 15b8 ebbe
00000140: 4c9c 943e 735a 933e 77df 993e 79a8 babf
00000150: 0776 953e 101c a4bc 17c4 5a3a 2d72 b13d
00000160: 2037 883e 02e9 28bb 0a0f 603e 2380 a33e
00000170: dc9b 923e db27 9a3e 50c3 9a3e 25f5 983e
00000180: 1e11 a93e 8c33 723e a502 b03d c9a8 06be
00000190: 536d 16be adf7 973e 7695 973e 6d81 4d3e
000001a0: 69cd a03e f1a1 9b3e 9552 9f3e 999b 93bf
000001b0: 8a18 333b eb16 843e a8dd 8c3e 366f 30be
000001c0: 3ab5 cc3e 7fa4 973e 17cf 0abc 1c9c 083e
000001d0: 2b46 993e 714e 8d3e 658d b73c 5771 da3c
000001e0: 48af 04bf 9e78 073e 901d 66bf aa28 973e
000001f0: 895d a53e cd5b 973e 559c ba3e 3755 9d3e
00000200: 8c7f a23e 72c5 893e f3eb a33e b265 a53e
00000210: 63e7 9b3e 17ef aa3e 826e 52be dee9 da3c
00000220: 9988 db3e 04f3 80bf f483 973e 128e ad3e
00000230: 9275 8abf 1e86 523a 4c63 a53e d70c 4ebe
00000240: 4584 afbd 0669 9c3e 0e84 9cbe d30c 183e
00000250: ed58 a23e 27ac 9b3e 1e39 6bbf b329 d7bc
00000260: 7f8f 803e f24d 9c3e cb7d 27bb 4508 14bb
00000270: d8e5 8c3e bfbb a23e c3d8 9c3e d5cc 86bb
00000280: 2f9f 523e 51e3 8d3e 19e7 83bc 756b 8c3e
00000290: e99e a9bf e9ed a43e 56f2 a63e fc44 843e
000002a0: 4b6f 963e affd a23e 7b3b 963e b7a5 723e
000002b0: fdb2 36be 38ff 05b9 3e8a 873e 0a90 9a3e
000002c0: 3dde 8ab9 522c 9e3e 7951 97be 3602 69be
000002d0: 8200 903e df30 a33e 214b 9bbb eb6b a53d
000002e0: 9019 a53e 4514 b43a 0ad0 a13e c0f7 9e3e
000002f0: 90a0 c33e a279 943e 69f2 993e f9ff 653e
00000300: 26c3 bd3e 9e3b 8ebe 0b7f 973c 4d90 9a3e
00000310: 6531 9b3e aacc 263d 5003 a53e 3c86 8e3e
00000320: 0b4e 813b ebbb 853e a414 623e ad19 e93d
00000330: 550e 36be affe 073e 8a35 a93e aba6 82bf
00000340: d075 983e c1af a13e 9f29 a63e bc46 2dbf
00000350: f4e2 a33e 66ab bd3d 7d76 503a e525 9f3e
00000360: 01da 513e 5f97 8fbb 346c 6f3e 1396 a83e
00000370: d882 a23e 3662 973e 4e7b a83e 4de3 343e
00000380: 3735 ea3e 519e 813e a5e4 9c3e 10fc c03e
00000390: f854 67bc e272 9b3e 50c6 973e 6a41 8b3e
000003a0: 809b 9d3e 835c a43e 0052 a63e 1cb6 c4be
000003b0: f96e 533b aac8 463e 3c2b 833e 5587 903e
000003c0: 182a a13e 89a9 a33e a14b a5bc c448 b73e
000003d0: cfbc 9d3e c118 a03e 9dd9 763b c08b 1d3c
000003e0: 2eee a9be ec02 6b3e bd10 fc3d 1f13 973e
000003f0: ed8b b13e 3a1e 983e c2b6 8a3e 02f7 ac3e

layer3.bias f4 [6]
-0.32147056 0.0705757 0.13205454 -0.06681153 0.27970058 -0.17940408
00000000: ca97 a4be fe89 903d 4e39 073e 7cd4 88bd
00000010: ea34 8f3e b4b5 37be
