models/1670000-trained_model-17-00_11.pth (torch, 79726 bytes, 6 tensors)

layer1.weight f4 [128, 14]
0.0022731717 0.00278625 0.0021840392 0.0028686197 0.0015758711 0.004159457 0.0037682208 0.0037606664
0.004558671 0.003928161 0.003429089 0.00455037 0.0038556815 0.004063967 0.0019272552 0.0023111457
0.0015162533 0.0024874264 0.0017050675 0.0032079644 0.0030241772 0.0030545914 0.0035667287 0.0030581981
0.0030168314 0.0038802088 0.0032378812 0.0031219264 0.04847416 0.006877512 0.006413131 0.018025495
0.0027090865 0.012904799 -0.056961026 -0.018939456 0.037480485 -0.012359122 0.026995787 -0.036081403
-0.004384717 -0.085432686 0.0019358292 0.002327256 0.0015343284 0.0024962197 0.001705737 0.0032342328
0.0030436548 0.003074955 0.0035942208 0.0030777394 0.0030288263 0.0039012884 0.0032503512 0.0031432994
0.0019328396 0.0023219076 0.0015280567 0.0024933142 0.0017052206 0.0032264623 0.0030370152 0.0030687258
0.0035855826 0.0030717282 0.003024864 0.003894392 0.003247228 0.0031359615 0.0019662955 0.0024171511
0.001609867 0.0025386182 0.0017112398 0.0033086296 0.0031162906 0.003165058 0.0037019271 0.0031891442
0.003059884 0.003965894 0.0032981238 0.0032257312 0.004961512 0.0047891177 0.004401065 0.002989345
0.0051688864 -0.0026477987 0.0042308024 0.0054684165 0.0028808236 0.0051234476 0.0030805522 0.005080733
0.0049251933 0.0021389707 0.0019426538 0.0023385317 0.0015454483 0.0025035732 0.0017055551 0.0032535314
0.0030583292 0.0030904035 0.0036130596 0.003097043 0.003036051 0.0039168615 0.003257866 0.0031595563
0.0022312135 0.0027139073 0.0020329421 0.0027828193 0.0016394409 0.0039359266 0.0036084421 0.0036382272
0.0043572155 0.0037477396 0.0033421807 0.004444743 0.003714409 0.003851155 0.0022698054 0.0027832522
0.0021768457 0.002864012 0.0015800996 0.0041475883 0.0037614089 0.0037538689 0.0045466525 0.003916012
0.0034238338 0.00454586 0.0038467315 0.0040502604 0.0019324636 0.0023211818 0.0015273102 0.0024929002
0.0017051225 0.0032253996 0.0030360967 0.0030678953 0.0035844708 0.0030709049 0.0030243895 0.0038935652
0.0032467688 0.0031349165 0.0019292852 0.0023156272 0.0015209161 0.002489645 0.0017048087 0.0032163342
0.0030289206 0.0030609197 0.0035748936 0.0030639805 0.0030200682 0.0038861306 0.0032429637 0.003127469
0.0020186326 0.0024644309 0.00167087 0.0025750487 0.0017106105 0.0033891825 0.0031727052 0.0032177707
0.0037747698 0.003255013 0.0030957856 0.0040353877 0.0033599841 0.003290213 0.0019291795 0.0023154002
0.0015207878 0.0024895433 0.0017047933 0.0032162974 0.0030286398 0.0030605765 0.0035744929 0.0030636906
0.0030199306 0.0038857588 0.0032427143 0.0031272494 0.0019437929 0.002341653 0.0015470998 0.0025047157
0.0017056173 0.0032549086 0.00306269 0.0030933248 0.0036177621 0.0031013058 0.0030371726 0.003920474
0.0032594015 0.0031618457 0.0039560776 0.003789272 0.003919348 0.0024098612 0.005154511 -0.0011146144
0.0032907946 0.0033398932 0.0007746826 0.0026321565 0.0016763797 0.0038079554 0.0033873322 0.0018913654
0.0019377513 0.0023300448 0.0015365486 0.0024979915 0.0017057845 0.0032375026 0.0030474889 0.003079
0.0035976057 0.0030803652 0.0030311507 0.0039054083 0.003252118 0.0031473043 0.0019498974 0.002362619
0.0015627819 0.002513823 0.0017034053 0.0032720913 0.0030827685 0.0031094635 0.0036446305 0.0031304453
0.0030449454 0.00393917 0.0032692393 0.0031779895 0.0019294557 0.0023159194 0.0015212712 0.0024898758
00000000: 7ef9 143b 8599 363b 1922 0f3b 74ff 3b3b
00000010: 768d ce3a 0e4c 883b 41f4 763b 8375 763b
00000020: e760 953b ceb7 803b 91ba 603b 451b 953b
00000030: 9aaf 7c3b 072b 853b f49b fc3a 9776 173b
00000040: 05bd c63a 1704 233b 927c df3a b63c 523b
00000050: 4631 463b 8a2f 483b c7bf 693b 0d6c 483b
00000060: 08b6 453b 1a4b 7e3b a232 543b 3c99 4c3b
00000070: d78c 463d c15c e13b 3e25 d23b 34aa 933c
00000080: ee8a 313b a66e 533c f74f 69bd eb26 9bbc
00000090: 2385 193d ea7d 4abc 4526 dd3c 18ca 13bd
000000a0: acad 8fbb 55f7 aebd a6bb fd3a e084 183b
000000b0: 851b c93a 9e97 233b 0993 df3a 6cf5 533b
000000c0: 0e78 473b 2f85 493b 058d 6b3b e6b3 493b
000000d0: 467f 463b c2ac 7f3b d803 553b d0ff 4d3b
000000e0: 5657 fd3a 252b 183b 1349 c83a df66 233b
000000f0: b581 df3a 0e73 533b a908 473b ad1c 493b
00000100: 18fc 6a3b 0c4f 493b cc3c 463b 0e39 7f3b
00000110: 72cf 543b b484 4d3b f7dc 003b 1169 1e3b
00000120: 2c02 d33a f25e 263b ae4b e03a 98d5 583b
00000130: ae3a 4c3b dd6c 4f3b 089c 723b f600 513b
00000140: 5688 483b 55f4 813b 5625 583b ca66 533b
00000150: 2e94 a23b 08ee 9c3b cf36 903b e3e8 433b
00000160: c35f a93b b186 2dbb 8ba2 8a3b 6730 b33b
00000170: 33cc 3c3b 98e2 a73b 17e3 493b 477c a63b
00000180: 8463 a13b f92d 0c3b a5a0 fe3a 0d42 193b
00000190: a490 ca3a fd12 243b ef8c df3a 3339 553b
000001a0: 406e 483b 5e88 4a3b 15c9 6c3b c2f7 4a3b
000001b0: 7cf8 463b 0459 803b ec81 553b 8f10 4f3b
000001c0: 8d39 123b cfdb 313b 1c3b 053b f65f 363b
000001d0: 82e2 d63a f2f8 803b 9d7b 6c3b 536f 6e3b
000001e0: f9c6 8e3b a39c 753b 7d08 5b3b 35a5 913b
000001f0: 716d 733b a963 7c3b 04c1 143b 3967 363b
00000200: 69a9 0e3b 26b2 3b3b 581b cf3a 7ee8 873b
00000210: f881 763b 7803 763b 16fc 943b e451 803b
00000220: 6662 603b 70f5 943b 7219 7c3b 0cb8 843b
00000230: b84a fd3a f81e 183b 0730 c83a ed5f 233b
00000240: 6b7e df3a 3a61 533b 40f9 463b be0e 493b
00000250: 71e9 6a3b 3c41 493b d634 463b 2f2b 7f3b
00000260: bec7 543b 2c73 4d3b 12e0 fc3a c7c1 173b
00000270: 7a59 c73a 5029 233b e373 df3a 22c9 523b
00000280: db80 463b b699 483b c348 6a3b 10cd 483b
00000290: 56ec 453b 74ae 7e3b e787 543b 39f6 4c3b
000002a0: 094b 043b 4a82 213b 1801 db3a 26c2 283b
000002b0: 9036 e03a 0c1d 5e3b 29ed 4f3b 3ce1 523b
000002c0: 2162 773b 0e52 553b aae2 4a3b 493b 843b
000002d0: 2e33 5c3b 9da0 573b 86dc fc3a f8bd 173b
000002e0: 2c55 c73a 9b27 233b 5f73 df3a 84c8 523b
000002f0: 257c 463b f493 483b 0a42 6a3b 33c8 483b
00000300: 07ea 453b 37a8 7e3b b883 543b 8af2 4c3b
00000310: dec6 fe3a 6b76 193b 0ec8 ca3a 2826 243b
00000320: 058f df3a 4e50 553b 69b7 483b 61b9 4a3b
00000330: fa17 6d3b 473f 4b3b 4d0b 473b 5277 803b
00000340: af9b 553b f836 4f3b fca1 813b 6f55 783b
00000350: e06d 803b c3ee 1d3b 2ce7 a83b 4118 92ba
00000360: 5faa 573b 1ce2 5a3b 1214 4b3a 4280 2c3b
00000370: f8b9 db3a e48e 793b 01fe 5d3b b1e7 f73a
00000380: 25fc fd3a aab3 183b 0466 c93a 58b5 233b
00000390: a194 df3a 482c 543b 61b8 473b 0cc9 493b
000003a0: cfc5 6b3b f4df 493b 45a6 463b e1f1 7f3b
000003b0: 7c21 553b 0143 4e3b b393 ff3a 2bd6 1a3b
000003c0: 42d6 cc3a f4be 243b cc44 df3a 9570 563b
000003d0: 4608 4a3b 24c8 4b3b c1da 6e3b 2828 4d3b
000003e0: b58d 473b 2714 813b bc40 563b d145 503b
000003f0: cae5 fc3a aec6 173b 6465 c73a 2f2d 233b

layer1.bias f4 [128]
0.00071667397 0.00050388824 -0.004313321 0.0005096265 0.00050776417 0.0005270524 0.0012666655 0.0005125932
0.00065998116 0.0007142032 0.0005075218 0.0005055188 0.0005419347 0.00050553266 0.00051308644 0.0009797141
0.000510593 0.0005167846 0.0005056572 0.00050510024 0.0006431442 0.00067711127 0.00050679815 0.00059080846
0.0005155399 0.0007567451 0.0007031936 0.0012274494 0.00069016917 0.0005060723 0.00050931604 0.0005076273
0.00050529727 0.0005805138 0.0010429778 0.0005091463 0.0005109356 0.00071354845 0.00060218043 0.0005305948
0.00050655974 0.0005076798 0.0005048742 0.077858314 0.0005027662 0.00050534785 0.0008307147 0.0007252624
0.0013591574 0.00050904497 0.10633208 0.00068010256 0.00050826307 0.0005065563 0.0002361608 0.0005112101
0.00050878286 0.000491253 0.0005032024 0.000512597 0.0005090148 0.0014214166 0.0005033751 0.00049232255
0.00050601736 0.0006921688 0.0014116545 0.0010900858 0.00050448056 0.00051323435 0.0006394068 0.000520904
0.00064784486 0.00058192335 0.000573102 0.0012416922 0.00050411065 0.0011984248 0.0012474769 0.0012787073
0.0005059151 0.0005102377 0.0006637907 0.00050763565 0.00051093404 0.00050659734 0.0005127433 0.00050581957
0.00050780235 0.00054556865 0.00050555414 0.00050735497 0.0005064728 0.0008174608 0.0005083482 0.00045307833
0.0004845869 0.00050695066 0.0005093085 0.00077071454 0.00075536786 0.00050807616 0.00050588243 0.0005063312
0.00050490274 0.00051268155 0.00078733 0.0005980787 0.00050426385 0.00050431635 0.0011791807 0.0005087241
0.0005224994 0.0005054148 0.00050711527 0.000507115 0.0005060612 0.000882343 0.00051262777 0.0005106257
0.0005007558 0.000506131 0.0005042602 0.00050516607 0.0005072852 0.00050921156 0.00072313973 0.00072613463
00000000: 2ddf 3b3a 5e17 043a c256 8dbb 7598 053a
00000010: 7a1b 053a e329 0a3a 3e06 a63a 8c5f 063a
00000020: 9602 2d3a 5e39 3b3a 360b 053a cb84 043a
00000030: 9f10 0e3a b985 043a a680 063a c069 803a
00000040: 51d9 053a d478 073a 158e 043a b468 043a
00000050: ad98 283a 2b80 313a a6da 043a 7ce0 1a3a
00000060: 4c25 073a 4e60 463a 8656 383a 5ee2 a03a
00000070: 78ec 343a f0a9 043a 9f83 053a 4b12 053a
00000080: ed75 043a 9f2d 183a 87b4 883a 3b78 053a
00000090: 4ff0 053a 6d0d 3b3a a5db 1d3a 9d17 0b3a
000000a0: a6ca 043a d115 053a 8959 043a 2e74 9f3d
000000b0: 12cc 033a 5279 043a 52c4 593a 891f 3e3a
000000c0: c125 b23a 6e71 053a a2c4 d93d e948 323a
000000d0: f53c 053a 6bca 043a efa1 7739 bb02 063a
000000e0: d75f 053a 6ec7 003a 57e9 033a cd5f 063a
000000f0: 686f 053a d44e ba3a eef4 033a 350f 013a
00000100: 40a6 043a a972 353a 4407 b93a 36e1 8e3a
00000110: 1e3f 043a 938a 063a dd9d 273a 478d 083a
00000120: 22d4 293a 378c 183a 393c 163a 47c0 a23a
00000130: 4b26 043a 7714 9d3a 6182 a33a 4c9a a73a
00000140: 639f 043a 79c1 053a 3d02 2e3a da12 053a
00000150: 34f0 053a 2ccd 043a 9f69 063a fa98 043a
00000160: 0a1e 053a 7e04 0f3a 2a87 043a 0400 053a
00000170: d0c4 043a de4a 563a ac42 053a 258b ed39
00000180: 2710 fe39 e2e4 043a 1d83 053a c709 4a3a
00000190: e103 463a 6a30 053a 329d 043a 50bb 043a
000001a0: 735b 043a 7a65 063a d264 4e3a 62c8 1c3a
000001b0: 9330 043a 1934 043a bd8e 9a3a e55b 053a
000001c0: 57f8 083a d07d 043a eeef 043a e9ef 043a
000001d0: 31a9 043a 094d 673a de61 063a 83db 053a
000001e0: 2745 033a e0ad 043a 5430 043a 1f6d 043a
000001f0: 55fb 043a 9c7c 053a 1691 3d3a 125a 3e3a

layer2.weight f4 [128, 128]
-4.530276e-05 -0.0001904355 -1.6774437e-07 -0.00018748414 -0.00018828364 -0.00017254734 -0.00015123916 -0.00018492748
-7.6974524e-05 -4.7114903e-05 -0.0001883822 -0.00018929013 -0.00016002217 -0.00018934689 -0.00018462847 -3.90811e-05
-0.0001869537 -0.00018048786 -0.00018921189 -0.00018961237 -8.969483e-05 -6.665826e-05 -0.0001887094 -0.00012367732
-0.00018192641 -2.2712102e-05 -5.3815435e-05 -0.00014483776 -6.0235605e-05 -0.00018904814 -0.00018771339 -0.00018835004
-0.00018945811 -0.00013080596 0.00010597874 -0.00018776095 -0.00018695717 -4.7305137e-05 -0.00011513415 -0.000168779
-0.00018880396 -0.00018833575 -0.00018975709 -0.0008326815 -0.00019122404 -0.0001894605 0.0014499126 -3.955972e-05
0.0012744992 -0.00018779609 -6.9634348e-06 -6.54158e-05 -0.00018798171 -0.00018881015 0.00019290464 -0.00018688446
-0.00018758755 -0.00020124146 -0.00019092717 -0.00018543557 -0.00018787736 0.0014098155 -0.0001905019 -0.0001987644
-0.00018907101 -5.925329e-05 -0.00015545185 0.0012220793 -0.00019001917 -0.00018430216 -9.234792e-05 -0.00017582356
-8.558148e-05 -0.00013023516 -0.00013630175 0.0012948806 -0.0001902963 0.00016487688 -0.00014552964 0.0012016773
-0.00018907715 -0.00018727905 -7.486228e-05 -0.00018837421 -0.00018695786 -0.00018864484 -0.00018540345 -0.00018913111
-0.00018830074 -0.00015861818 -0.00018929515 -0.000188417 -0.0001888677 -5.75694e-07 -0.00018813144 -0.00023770351
-0.00020886863 -0.00018869704 -0.00018768967 -1.649189e-05 -2.3503215e-05 -0.00018824566 -0.00018909831 -0.00018893184
-0.00018976304 -0.00018534764 -9.403655e-06 -0.00011894006 -0.00019021372 -0.00019015637 0.0011416086 -0.00018794305
-0.00017493486 -0.0001893989 -0.0001885981 -0.00018857997 -0.00018903724 0.00091839704 -0.00018519869 -0.00018711224
-0.0001922914 -0.00018900595 -0.00019015699 -0.00018955031 -0.00018847905 -0.0001877129 -4.0277126e-05 -3.911244e-05
-3.9153103e-05 -0.00018642722 -1.4044319e-07 -0.00018350508 -0.00018442541 -0.00016723106 -0.00014607163 -0.00017980603
-7.114852e-05 -4.0692892e-05 -0.00018457884 -0.00018573216 -0.00015565872 -0.00018578896 -0.00017920914 -3.7597758e-05
-0.00018262758 -0.00017532527 -0.00018564881 -0.00018605134 -8.337979e-05 -6.0220886e-05 -0.00018504269 -0.00011819763
-0.00017661079 -1.5951553e-05 -4.7854526e-05 -0.0001400942 -5.4101085e-05 -0.00018541545 -0.00018359062 -0.00018453346
-0.00018590332 -0.00012601326 0.00011441262 -0.00018361567 -0.00018263533 -4.102322e-05 -0.000109158056 -0.00016303081
-0.00018518038 -0.00018450827 -0.00018618145 -0.0008414311 -0.000187034 -0.00018590453 0.0014212659 -3.2957698e-05
0.0012418076 -0.0001836585 -7.2078606e-06 -5.890481e-05 -0.00018391549 -0.00018518833 0.00013208749 -0.00018244766
-0.00018354067 -0.00019657548 -0.00018678639 -0.0001805734 -0.00018376709 0.0013802341 -0.00018646616 -0.0001938826
-0.00018545966 -5.316862e-05 -0.00014968177 0.0011907334 -0.00018628131 -0.00017886532 -8.6183536e-05 -0.00017166727
-8.010202e-05 -0.00012524707 -0.00013140177 0.0012632004 -0.00018636341 0.00017438868 -0.00014070775 0.001168593
-0.00018546656 -0.00018325621 -6.844109e-05 -0.00018457195 -0.00018263863 -0.00018493675 -0.00018052661 -0.00018554916
-0.00018445599 -0.00015256972 -0.00018573545 -0.00018462297 -0.00018526446 7.203188e-06 -0.00018409574 -0.00023409865
-0.00020385082 -0.00018501791 -0.00018357416 -9.466368e-06 -1.6536993e-05 -0.00018427338 -0.00018550425 -0.00018529446
-0.00018618179 -0.00018045858 -2.237194e-06 -0.000113167895 -0.00018632792 -0.00018631184 0.0011059508 -0.00018384997
-0.0001708266 -0.00018583942 -0.0001848752 -0.0001848511 -0.00018539792 0.0008810823 -0.00018026892 -0.00018304736
-0.00018785067 -0.00018535249 -0.00018630941 -0.00018599004 -0.00018471444 -0.00018358522 -3.3902696e-05 -3.261668e-05
00000000: 7803 3eb8 a4af 47b9 391d 34b4 6497 44b9
00000010: 016e 45b9 d3ed 34b9 f495 1eb9 18e9 41b9
00000020: 626d a1b8 3e9d 45b8 7688 45b9 2f7c 46b9
00000030: a0cb 27b9 6b8b 46b9 d498 41b9 03eb 23b8
00000040: 0009 44b9 5741 3db9 2e67 46b9 afd2 46b9
00000050: 8c1a bcb8 e1ca 8bb8 4be0 45b9 61af 01b9
00000060: 80c3 3eb9 de85 beb7 e2b7 61b8 97df 17b9
00000070: 7da5 7cb8 393b 46b9 eed4 44b9 d47f 45b9
00000080: 46a9 46b9 f528 09b9 e740 de38 b2e1 44b9
00000090: ef09 44b9 8169 46b8 2d74 f1b8 45fa 30b9
000000a0: adf9 45b9 fe7b 45b9 88f9 46b9 4f48 5aba
000000b0: 5083 48b9 eaa9 46b9 fe0a be3a edec 25b8
000000c0: 190d a73a 21eb 44b9 73a7 e9b6 d72f 89b8
000000d0: f51c 45b9 57fb 45b9 7246 4a39 6af6 43b9
000000e0: 26b3 44b9 5804 53b9 9f33 48b9 7b71 42b9
000000f0: f200 45b9 8fc9 b83a 77c1 47b9 6a6b 50b9
00000100: 5d41 46b9 bc86 78b8 ca00 23b9 2d2e a03a
00000110: e23f 47b9 3c41 41b9 e9aa c1b8 475d 38b9
00000120: 357a b3b8 bc8f 08b9 39ec 0eb9 fcb8 a93a
00000130: 468a 47b9 cde2 2c39 5199 18b9 9981 9d3a
00000140: 0343 46b9 5660 44b9 61ff 9cb8 5186 45b9
00000150: 1e0a 44b9 f7ce 45b9 dc68 42b9 7f51 46b9
00000160: 9872 45b9 be52 26b9 887d 46b9 ce91 45b9
00000170: ca0a 46b9 6489 1ab5 2645 45b9 0d40 79b9
00000180: bf03 5bb9 fadc 45b9 90ce 44b9 1058 8ab7
00000190: c528 c5b7 cf63 45b9 b148 46b9 011c 46b9
000001a0: 21fb 46b9 e159 42b9 64c4 1db7 756f f9b8
000001b0: 1b74 47b9 b664 47b9 07a2 953a 9412 45b9
000001c0: b86e 37b9 6199 46b9 6bc2 45b9 8dbd 45b9
000001d0: 4c38 46b9 95c0 703a e531 42b9 8f33 44b9
000001e0: d4a1 49b9 e62f 46b9 e164 47b9 06c2 46b9
000001f0: 76a2 45b9 ccd4 44b9 3cef 28b8 aa0c 24b8
00000200: 5338 24b8 ad7b 43b9 bbcc 16b4 456b 40b9
00000210: 5262 41b9 bf5a 2fb9 ce2a 19b9 508a 3cb9
00000220: 9235 95b8 a9ad 2ab8 818b 41b9 19c1 42b9
00000230: 5238 23b9 58d0 42b9 16ea 3bb9 49b2 1db8
00000240: b87f 3fb9 85d7 37b9 b9aa 42b9 c716 43b9
00000250: 2fdc aeb8 af95 7cb8 0508 42b9 dfe0 f7b8
00000260: 9930 39b9 b3cf 85b7 68b7 48b8 40e6 12b9
00000270: 99ea 62b8 156c 42b9 3b82 40b9 537f 41b9
00000280: 0bef 42b9 6d22 04b9 cff0 ef38 f588 40b9
00000290: cc81 3fb9 5910 2cb8 c9eb e4b8 40f3 2ab9
000002a0: fb2c 42b9 9078 41b9 b439 43b9 7c93 5cba
000002b0: 8f1e 44b9 5eef 42b9 c549 ba3a 0f3c 0ab8
000002c0: 26c4 a23a 7494 40b9 0ddb f1b6 8f10 77b8
000002d0: 70d9 40b9 1d2f 42b9 f780 0a39 6c4f 3fb9
000002e0: d374 40b9 d41f 4eb9 17dc 43b9 4e58 3db9
000002f0: 9ab1 40b9 f9e8 b43a 2186 43b9 f74c 4bb9
00000300: f377 42b9 5f01 5fb8 e5f3 1cb9 6212 9c3a
00000310: 8254 43b9 cb8d 3bb9 6fbd b4b8 9501 34b9
00000320: 72fc a7b8 c154 03b9 e5c8 09b9 f991 a53a
00000330: 8c6a 43b9 1bdc 3639 f38a 13b9 792b 993a
00000340: cd79 42b9 7728 40b9 0888 8fb8 a889 41b9
00000350: af82 3fb9 95eb 41b9 be4b 3db9 f98f 42b9
00000360: 876a 41b9 1ffb 1fb9 fbc1 42b9 5a97 41b9
00000370: 8d43 42b9 eab2 f136 d309 41b9 6178 75b9
00000380: cac0 55b9 5e01 42b9 d07d 40b9 bed1 1eb7
00000390: ecb8 8ab7 8239 41b9 eb83 42b9 9a4b 42b9
000003a0: cb39 43b9 7b39 3db9 b322 16b6 8d54 edb8
000003b0: 0561 43b9 b45c 43b9 8df5 903a dac7 40b9
000003c0: eb1f 33b9 e4dd 42b9 0fdb 41b9 97d4 41b9
000003d0: 6067 42b9 6ff8 663a 9206 3db9 67f0 3fb9
000003e0: c8f9 44b9 2e5b 42b9 0d5c 43b9 5206 43b9
000003f0: e8af 41b9 c880 40b9 be32 0eb8 e5cd 08b8

layer2.bias f4 [128]
-0.00016940736 -0.0001660255 -0.00020026739 -0.0002920755 0.06921497 -0.00016921737 -0.00016729113 -0.00019059639
0.018785866 -0.00016700999 -0.00018583382 -0.00019011601 4.6397684e-11 -0.00016986944 -0.00017530409 -0.00029631273
-0.00016524807 -0.00019519641 -0.00016797893 -0.00029284068 -0.00012878141 -0.00016593326 -0.0001704094 -0.00016495345
-3.8741215e-12 -0.00016757539 -0.0001693151 -0.00016866243 -0.00019210578 -0.00016716587 -0.00016585737 7.0240615e-12
-0.00017019245 -0.00016929314 -0.00019186616 -0.00020173969 -0.00016790834 -0.00016877307 -0.00018207553 -0.00016762973
0.055868376 -0.00016881754 -0.00016706453 -7.264905e-05 -0.00019800747 -0.00019262017 -9.3231925e-15 -0.00016759227
-0.00016699104 -0.00017220974 -0.0001662688 -0.00018055116 -0.00016767952 -0.00018997602 -0.00030723982 -0.00016744628
-0.0001715251 -0.00020298292 -0.00016860674 -0.00016793564 -3.9242168e-05 -0.00020510849 0.05015623 -0.0001658817
-0.000119848584 -0.00016675345 -0.00019278628 -0.00016435426 -0.00015577392 -0.00018985632 -0.00016998929 -0.00016648979
-0.00061447505 -0.00016871552 -0.00016784265 -0.00018277578 -0.00016643197 1.0995779e-16 -0.00018630152 -0.00019209548
-6.782635e-07 -0.00021657575 -0.00019270685 -0.00021053535 2.1334276e-15 -0.00016979959 -0.0001708851 -0.0013344531
-0.00016857726 -0.00017025073 -0.00016699513 -0.00016862799 0.019077728 -0.00020348729 -1.2743466e-13 -0.00017173942
-0.00017681136 -0.00016741955 1.7845188e-12 -0.00012612739 -0.00016863963 -0.00016562146 -0.00020118702 -0.00016656084
-0.00016526911 1.2508715e-15 -0.00019319265 -0.0001906846 -0.00016986742 -6.683411e-16 -0.00016579179 -0.00016773354
-0.00017981231 -0.00017333151 -0.00018958033 -0.00016627867 -0.00019180917 -0.00019155371 -0.00020242264 -0.00016623679
-0.00016707633 -0.00016826036 -0.00019196431 -0.0020599475 -0.0001779668 -0.0001714599 -0.00016869458 -0.00015435155
00000000: f1a2 31b9 2117 2eb9 defe 51b9 b621 99b9
00000010: 94c0 8d3d f16f 31b9 df6a 2fb9 d4da 47b9
00000020: d1e4 993c 671f 2fb9 63dc 42b9 e159 47b9
00000030: 260f 4c2e fb1e 32b9 d5d1 37b9 6c5a 9bb9
00000040: 7146 2db9 a3ad 4cb9 8023 30b9 6988 99b9
00000050: 7f09 07b9 5ffe 2db9 edaf 32b9 5bf7 2cb9
00000060: fc4e 88ac 2db7 2fb9 2d8a 31b9 fada 30b9
00000070: 0170 49b9 3f49 2fb9 00ea 2db9 1f23 f72c
00000080: b075 32b9 4884 31b9 ae2f 49b9 168a 53b9
00000090: 8d10 30b9 adf8 30b9 87eb 3eb9 c3c5 2fb9
000000a0: 3dd6 643d 9d04 31b9 0b2e 2fb9 295b 98b8
000000b0: 3aa0 4fb9 15fa 49b9 a3f3 27a8 b5bb 2fb9
000000c0: 511a 2fb9 3393 34b9 7158 2eb9 5552 3db9
000000d0: 21d3 2fb9 4d34 47b9 0815 a1b9 8594 2fb9
000000e0: 6bdb 33b9 d0d7 54b9 07cc 30b9 e117 30b9
000000f0: f597 24b8 6412 57b9 9e70 4d3d 88f0 2db9
00000100: 3857 fbb8 8ada 2eb9 ac26 4ab9 8356 2cb9
00000110: 3e57 23b9 2b14 47b9 273f 32b9 c393 2eb9
00000120: b914 21ba 3ae9 30b9 ebfe 2fb9 80a7 3fb9
00000130: 3e84 2eb9 9f8b fd24 ef59 43b9 3d6d 49b9
00000140: ea11 36b5 9c18 63b9 5a11 4ab9 27c3 5cb9
00000150: cbba 1927 3b0c 32b9 9f2f 33b9 d1e8 aeba
00000160: 1dc4 30b9 5585 32b9 6a1b 2fb9 bbd1 30b9
00000170: e548 9c3c 345f 55b9 8a7a 0faa f314 34b9
00000180: 7066 39b9 588d 2fb9 1126 fb2b 1041 04b9
00000190: dbd4 30b9 acaa 2db9 bbf5 52b9 d6a6 2eb9
000001a0: 174c 2db9 0345 b426 c293 4ab9 82f2 47b9
000001b0: 701e 32b9 dea2 40a6 65d8 2db9 a1e1 2fb9
000001c0: 008c 3cb9 53c0 35b9 15ca 46b9 175b 2eb9
000001d0: 6220 49b9 cfdb 48b9 6a41 54b9 d94f 2eb9
000001e0: 3631 2fb9 0c6f 30b9 074a 49b9 2f00 07bb
000001f0: 999c 3ab9 ebc9 33b9 9be3 30b9 6ed9 21b9

layer3.weight f4 [6, 128]
0.0016884309 0.0016999542 0.001662964 0.0016075235 0.08003365 0.0016920051 0.0016899104 0.0017375223
-0.0966772 0.001693912 0.0016901317 0.0016729665 -7.763441e-11 0.001686289 0.0016805142 0.0016003652
0.0017000203 0.001734987 0.0016879364 0.0016020976 0.0019021062 0.001697579 0.0016843269 0.001699802
-4.644361e-14 0.0016892855 0.0016891441 0.0016875225 0.0016664123 0.0016884833 0.0016963427 2.4880187e-12
0.001686042 0.0016998163 0.0016757814 0.0017019234 0.001690371 0.001689838 0.0017434014 0.0016935795
0.02382011 0.0016943209 0.0016885914 0.0019397418 0.0017032975 0.0017296147 -4.5250877e-16 0.0016927408
0.0016890297 0.0016877463 0.0016921244 0.0016744984 0.0016884292 0.0016705677 0.0015938426 0.0016882946
0.00168465 0.0016802219 0.0016859991 0.0016881365 0.0016936007 0.0016541728 -0.07417347 0.0016960499
0.0017936161 0.0016930504 0.0017274081 0.001699358 0.001750201 0.001738259 0.0016897978 0.0016921168
0.0047949017 0.0016878446 0.0016919562 0.00167056 0.0016941392 3.2054204e-15 0.0016736011 0.001732057
0.0014675616 0.0016441795 0.0017290112 0.0016438339 1.9178374e-11 0.0016933226 0.0016847005 0.0043192436
0.0016914707 0.0016912685 0.0016939772 0.001688104 -0.049762703 0.0016865677 2.574358e-13 0.0016850184
0.0016771503 0.0016948857 1.4177572e-13 0.0018135319 0.0017116966 0.0016985512 0.0016966009 0.0016978665
0.0017587966 2.527753e-15 0.0017273347 0.0016710918 0.0016883386 5.0628745e-14 0.0017031272 0.001694378
0.0016714139 0.0016817148 0.0017403127 0.0016949652 0.0017321627 0.001732489 0.0016747948 0.0017001436
0.0016924866 0.0016885418 0.0017301358 0.005117985 0.0016924147 0.0016850808 0.001688482 0.0017554694
0.0016764158 0.0016727756 0.0016885715 0.0016891954 0.10094032 0.0016762374 0.0016843883 0.0017058911
-0.111152165 0.0016785485 0.001666599 0.0016731025 -5.3331988e-11 0.0016845395 0.0016764619 0.0016899608
0.0016759149 0.0017108853 0.001685559 0.0016890987 0.0018765674 0.0016762157 0.0016871112 0.0016743483
4.578354e-15 0.0016816435 0.0016847689 0.0016837622 0.0016831555 0.0016855313 0.0016758505 1.4914223e-12
0.0016804048 0.001674579 0.0016840263 0.0016748564 0.001684679 0.0016773869 0.0017137467 0.0016779817
0.020525854 0.0016769678 0.0016863244 0.00079748046 0.0016719705 0.001697623 -2.2846492e-15 0.0016787939
0.0016853103 0.0016844976 0.0016815899 0.0016800457 0.0016868991 0.0016856309 0.001694272 0.0016855805
0.0016849624 0.0016671695 0.0016867347 0.0016851766 -0.0006776151 0.0016786715 -0.091065206 0.0016784909
0.0015310247 0.0016800609 0.0016959847 0.001676063 0.0017022889 0.0017071629 0.0016805537 0.0016823575
-0.0003930275 0.0016873871 0.0016772839 0.0016853228 0.0016779006 4.401908e-16 0.001676079 0.0016999574
-0.0011732694 0.001678991 0.001697792 0.0016842601 2.13856e-10 0.0016783995 0.0016821699 0.0016035927
0.0016761918 0.001677827 0.0016780623 0.0016843624 -0.066049956 0.001667626 4.5258166e-13 0.0016807227
0.0016855735 0.0016767186 -5.249094e-14 0.0015836305 0.0016700455 0.0016770595 0.0016701483 0.0016770643
0.0017195963 2.811932e-16 0.0016958184 0.0016779961 0.0016781655 9.0448916e-14 0.0016729707 0.0016759892
0.0016898183 0.0016855128 0.0017201669 0.0016810258 0.0017011955 0.0017001396 0.001676069 0.0016760658
0.0016824532 0.0016848972 0.0016984647 0.0008812851 0.0016725626 0.0016801876 0.0016830611 0.0015297281
00000000: 574e dd3a ffd0 de3a d0f7 d93a 8ab3 d23a
00000010: afe8 a33d 45c6 dd3a fc7f dd3a 93bd e33a
00000020: b2fe c5bd 4106 de3a 6987 dd3a 7147 db3a
00000030: 4ab8 aaae 7806 dd3a b344 dc3a 58c3 d13a
00000040: 37d3 de3a 8168 e33a bf3d dd3a 7afd d13a
00000050: 1850 f93a 4d81 de3a a2c4 dc3a e4cb de3a
00000060: d629 51a9 046b dd3a 4566 dd3a dc2f dd3a
00000070: 856b da3a 1950 dd3a d157 de3a 2914 2f2c
00000080: 2efe dc3a 5fcc de3a e5a5 db3a 1313 df3a
00000090: 708f dd3a 8e7d dd3a d882 e43a 19fb dd3a
000000a0: 6422 c33c fa13 de3a ba53 dd3a ef3e fe3a
000000b0: 2e41 df3a 3db4 e23a 416d 02a6 f5de dd3a
000000c0: 6f62 dd3a 5e37 dd3a 46ca dd3a d87a db3a
000000d0: 484e dd3a f3f6 da3a 7ce8 d03a c449 dd3a
000000e0: 79cf dc3a e43a dc3a befc dc3a 7644 dd3a
000000f0: cffb dd3a d4d0 d83a 43e8 97bd fe4d de3a
00000100: c517 eb3a 58e9 dd3a 336a e23a febc de3a
00000110: 0067 e53a 4bd6 e33a 357c dd3a 05ca dd3a
00000120: 8d1e 9d3b ab3a dd3a a1c4 dd3a b1f6 da3a
00000130: e10d de3a 92f9 6627 bc5c db3a 3006 e33a
00000140: 325b c03a 8281 d73a fd9f e23a ea75 d73a
00000150: dcb1 a82d 7af2 dd3a 2bd1 dc3a 7188 8d3b
00000160: 57b4 dd3a 8ead dd3a 7108 de3a 5f43 dd3a
00000170: fad3 4bbd d20f dd3a 69ec 902a d6db dc3a
00000180: d3d3 db3a ed26 de3a 12a0 1f2a 08b4 ed3a
00000190: 025b e03a eca1 de3a 7b60 de3a f28a de3a
000001a0: 6c87 e63a d024 3627 bc67 e23a 8908 db3a
000001b0: 3e4b dd3a f802 6429 773b df3a e415 de3a
000001c0: 5813 db3a fc6c dc3a 341b e43a 9829 de3a
000001d0: bc09 e33a af14 e33a ca84 db3a 5ad7 de3a
000001e0: 6dd6 dd3a 1052 dd3a b9c5 e23a c5b4 a73b
000001f0: 04d4 dd3a eedd dc3a 0e50 dd3a c717 e63a
00000200: 2ebb db3a 0941 db3a 0f53 dd3a fe67 dd3a
00000210: ccb9 ce3d 32b5 db3a b1c6 dc3a 3598 df3a
00000220: bfa3 e3bd be02 dc3a c871 da3a 014c db3a
00000230: 7b8e 6aae c4cb dc3a babc db3a ad81 dd3a
00000240: 5faa db3a c93f e03a faed dc3a bf64 dd3a
00000250: 27f7 f53a 77b4 db3a 0f22 dd3a ce75 db3a
00000260: ddf3 a427 986a dc3a 77d3 dc3a afb1 dc3a
00000270: 549d dc3a 0ced dc3a 36a8 db3a 27e6 d12b
00000280: 0741 dc3a 8c7d db3a 8cba dc3a db86 db3a
00000290: 72d0 dc3a c4db db3a cc9f e03a b9ef db3a
000002a0: d625 a83c b4cd db3a a807 dd3a 020e 513a
000002b0: 0526 db3a c782 de3a 57a0 24a7 fa0a dc3a
000002c0: a1e5 dc3a 5cca dc3a cb68 dc3a fb34 dc3a
000002d0: f11a dd3a 63f0 dc3a 5612 de3a b2ee dc3a
000002e0: f5d9 dc3a ed84 da3a 6d15 dd3a 25e1 dc3a
000002f0: fba1 31ba de06 dc3a 6580 babd cf00 dc3a
00000300: aaac c83a 7d35 dc3a ce4b de3a 58af db3a
00000310: 561f df3a e2c2 df3a 0646 dc3a 8d82 dc3a
00000320: 420f ceb9 512b dd3a 4fd8 db3a 0de6 dc3a
00000330: 00ed db3a b2c0 fd25 e1af db3a 1bd1 de3a
00000340: 63c8 99ba 9711 dc3a 7288 de3a 64c2 dc3a
00000350: 1d23 6b2f befd db3a 417c dc3a a42f d23a
00000360: aab3 db3a 88ea db3a 6df2 db3a d3c5 dc3a
00000370: 3345 87bd 3e94 da3a e4c7 fe2a b24b dc3a
00000380: 76ee dc3a 57c5 db3a ef65 6ca9 d291 cf3a
00000390: 6ee5 da3a c7d0 db3a e1e8 da3a f1d0 db3a
000003a0: 1464 e13a cb18 a225 3946 de3a 35f0 db3a
000003b0: e4f5 db3a 40ac cb29 9547 db3a deac db3a
000003c0: e57c dd3a 6dec dc3a 3977 e13a de55 dc3a
000003d0: a6fa de3a 38d7 de3a 8baf db3a 70af db3a
000003e0: c385 dc3a c5d7 dc3a 059f de3a 0b06 673a
000003f0: e339 db3a be39 dc3a 299a dc3a 2881 c83a

layer3.bias f4 [6]
0.61717325 0.22587918 0.25868496 0.34584373 0.40413928 0.35454977
00000000: 11ff 1d3f df4c 673e 5b72 843e 6e12 b13e
00000010: 58eb ce3e 8c87 b53e
