models/260000-trained_model-17-15_18.pth (torch, 79239 bytes, 6 tensors)

layer1.weight f4 [128, 14]
82.42576 83.57604 83.46847 84.169685 82.00613 86.65124 81.72682 82.16662
82.05788 82.03968 81.754585 82.431526 82.95696 82.30497 80.17407 81.26751
82.03215 82.548836 79.77862 83.31705 80.22458 81.49658 80.815025 81.45026
80.00477 80.1579 82.038155 80.52618 82.42163 83.567894 83.446945 84.15658
82.010376 86.76219 81.70698 82.163994 82.04241 82.00296 81.73949 82.432556
82.95322 82.295006 82.43065 83.5718 83.48147 84.16442 82.007454 86.65296
81.74937 82.17399 82.04397 82.00465 81.74014 82.41729 82.948944 82.29737
82.434715 83.56905 83.41844 84.15438 81.98464 86.63311 81.5759 82.17411
82.01165 81.957596 81.74239 82.42576 82.922516 82.20524 82.33575 83.47312
83.425606 84.113365 81.970245 86.43895 81.74056 82.14648 82.050835 82.04862
81.756325 82.34152 82.84076 82.30445 82.40222 83.55016 83.43099 84.15745
81.996284 86.70564 81.75771 82.17422 82.02155 82.00781 81.71872 82.38283
82.96661 82.30689 82.36381 83.500694 83.42836 84.15948 81.97432 86.643425
81.762794 82.16838 82.04551 81.99595 81.75973 82.42289 82.92517 82.30689
82.43283 83.56695 83.42028 84.17991 82.00896 86.66526 81.70275 82.162895
82.062775 82.02539 81.74277 82.42437 82.92978 82.295006 82.434715 83.563194
83.42954 84.12827 81.936966 86.438934 81.69208 82.17112 82.03894 82.03142
81.738075 82.42774 82.88669 82.27363 79.76877 80.87754 79.84665 80.75972
78.01688 80.71852 80.23953 80.04373 80.18286 80.1583 78.93546 79.24388
80.59654 80.07066 82.43412 83.56356 83.45398 84.17571 82.00972 86.687805
81.74814 82.17422 82.05049 82.04311 81.75422 82.42495 82.96445 82.30581
82.434715 83.57598 83.47667 84.181496 81.98829 86.66006 81.750046 82.17411
82.05043 82.03985 81.739555 82.42123 82.95144 82.29662 82.18406 83.16831
83.11721 83.942894 81.74682 86.438934 81.4748 82.10344 81.8469 81.95844
81.614746 82.25669 82.686646 82.04154 82.434715 83.57166 83.45767 84.161
82.010376 86.77177 81.68741 82.16419 82.05284 82.00179 81.73997 82.423225
82.944786 82.29163 82.421974 83.57171 83.45571 84.17182 82.01014 86.68214
81.75171 82.17445 82.0523 82.03657 81.75141 82.4365 82.96126 82.30222
82.422646 83.546684 83.43332 84.151054 81.99896 86.66585 81.76008 82.17332
82.07299 82.03822 81.758545 82.4373 82.96208 82.306496 -0.0015963016 -0.007294795
0.0075008767 0.0030120062 -0.008273888 -0.0035289428 -0.0052625015 -0.00157988 -0.0055842637 -0.0071581104
-0.0046954597 0.0030014892 -0.0068395683 -0.0059311567 82.429344 83.572945 83.458176 84.15739
00000000: fdd9 a442 ef26 a742 dbef a642 e156 a842
00000010: 2303 a442 6f4d ad42 2274 a342 4f55 a442
00000020: a21d a442 5114 a442 5982 a342 f1dc a442
00000030: f7e9 a542 259c a442 2059 a042 f788 a242
00000040: 7610 a442 0119 a542 a78e 9f42 54a2 a642
00000050: fc72 a042 40fe a242 4ba1 a142 88e6 a242
00000060: 7102 a042 d850 a042 8913 a442 670d a142
00000070: e0d7 a442 c322 a742 d6e4 a642 2b50 a842
00000080: 5005 a442 3e86 ad42 f969 a342 f753 a442
00000090: b715 a442 8401 a442 9e7a a342 78dd a442
000000a0: 0ce8 a542 0b97 a442 7edc a442 c324 a742
000000b0: 83f6 a642 2f54 a842 d103 a442 514e ad42
000000c0: ad7f a342 1559 a442 8316 a442 6102 a442
000000d0: f47a a342 a7d5 a442 dce5 a542 4198 a442
000000e0: 93de a442 5b23 a742 3ed6 a642 0b4f a842
000000f0: 23f8 a342 2744 ad42 dc26 a342 2559 a442
00000100: f705 a442 4aea a342 1b7c a342 fdd9 a442
00000110: 54d8 a542 1569 a442 e7ab a442 3df2 a642
00000120: e9d9 a642 0b3a a842 c4f0 a342 bee0 ac42
00000130: 2b7b a342 ff4a a442 071a a442 e518 a442
00000140: 3d83 a342 dcae a442 78ae a542 e19b a442
00000150: f0cd a442 af19 a742 abdc a642 9d50 a842
00000160: 19fe a342 4a69 ad42 f383 a342 3359 a442
00000170: 090b a442 0004 a442 fc6f a342 02c4 a442
00000180: e8ee a542 219d a442 45ba a442 5b00 a742
00000190: 52db a642 a751 a842 daf2 a342 6f49 ad42
000001a0: 8d86 a342 3656 a442 4d17 a442 edfd a342
000001b0: fb84 a342 85d8 a442 b0d9 a542 219d a442
000001c0: 9cdd a442 4722 a742 2fd7 a642 1d5c a842
000001d0: 9604 a442 9d54 ad42 cf67 a342 6753 a442
000001e0: 2420 a442 000d a442 4c7c a342 47d9 a442
000001f0: 0cdc a542 0b97 a442 93de a442 5b20 a742
00000200: eddb a642 ad41 a842 badf a342 bce0 ac42
00000210: 5862 a342 9d57 a442 f013 a442 1610 a442
00000220: e579 a342 01db a442 fcc5 a542 198c a442
00000230: 9c89 9f42 4dc1 a142 7cb1 9f42 fa84 a142
00000240: a408 9c42 e26f a142 a47a a042 6416 a042
00000250: a05d a042 0d51 a042 f5de 9d42 de7c 9e42
00000260: 6e31 a142 2e24 a042 45de a442 8b20 a742
00000270: 70e8 a642 f759 a842 fa04 a442 2860 ad42
00000280: 0c7f a342 3359 a442 da19 a442 1316 a442
00000290: 2982 a342 93d9 a442 cced a542 939c a442
000002a0: 93de a442 e726 a742 0ef4 a642 ed5c a842
000002b0: 01fa a342 f351 ad42 0680 a342 2559 a442
000002c0: d219 a442 6714 a442 a77a a342 abd7 a442
000002d0: 23e7 a542 df97 a442 3d5e a442 2d56 a642
000002e0: 033c a642 c3e2 a742 5f7e a342 bce0 ac42
000002f0: 19f3 a242 f634 a442 9db1 a342 b9ea a342
00000300: c03a a342 6d83 a442 905f a542 4515 a442
00000310: 93de a442 b124 a742 54ea a642 6f52 a842
00000320: 5005 a442 258b ad42 f45f a342 1154 a442
00000330: 0e1b a442 eb00 a442 dd7a a342 b1d8 a442
00000340: bbe3 a542 5195 a442 0dd8 a442 b724 a742
00000350: 53e9 a642 f957 a842 3105 a442 415d ad42
00000360: e080 a342 5259 a442 c71a a442 b912 a442
00000370: b980 a342 7ddf a442 2aec a542 bd9a a442
00000380: 65d8 a442 e717 a742 dcdd a642 574d a842
00000390: 78ff a342 ea54 ad42 2985 a342 bd58 a442
000003a0: 5f25 a442 9213 a442 6084 a342 e6df a442
000003b0: 96ec a542 ed9c a442 fe3a d1ba 2d09 efbb
000003c0: eac9 f53b 1465 453b 348f 07bc d645 67bb
000003d0: 1071 acbb fa13 cfba 33fc b6bb 958e eabb
000003e0: 5fdc 99bb a2b4 443b 751e e0bb 265a c2bb
000003f0: d3db a442 5925 a742 96ea a642 9550 a842

layer1.bias f4 [128]
85.52367 85.47657 85.52367 85.52367 85.52367 85.52367 85.52367 85.52367
85.52368 85.52368 83.73458 85.52367 85.52367 85.52367 85.52367 85.52367
85.52367 -0.007887327 85.52368 85.52367 85.52367 85.52367 85.52368 85.52368
85.52367 85.52367 85.52368 85.52367 85.52368 85.52367 85.52367 85.52367
85.52367 85.52367 85.52367 85.52367 85.52367 85.52367 85.52367 85.52367
85.52368 85.52367 85.52367 85.52367 85.52367 85.52367 85.52367 85.52367
85.52367 85.52367 85.52367 85.52367 85.52367 85.52367 85.52367 85.52367
85.179115 85.52367 -1.4328256 85.118095 85.52367 85.52367 85.52367 85.52367
85.52368 85.52368 85.52367 85.52368 85.52367 85.52367 85.52367 85.52368
85.52367 9.339788 85.52367 85.52367 85.52367 85.52367 85.52367 85.52367
85.52367 85.52367 85.52367 85.52367 85.52368 85.52368 83.41442 85.52367
85.52367 85.13136 85.52367 85.52367 85.52367 85.52367 85.52367 85.52368
85.52368 85.52368 85.52367 85.38741 85.52367 85.52367 85.523636 85.52368
85.52367 85.52368 85.52367 85.52367 85.52368 85.52367 0.0055418895 85.52368
85.52368 85.52367 83.88664 85.52367 85.52367 85.52367 85.52368 85.52367
85.52367 85.52367 85.52367 85.52367 85.52367 85.52368 85.46223 85.52367
00000000: 1e0c ab42 01f4 aa42 1e0c ab42 1e0c ab42
00000010: 1e0c ab42 1e0c ab42 1e0c ab42 1e0c ab42
00000020: 200c ab42 200c ab42 1b78 a742 1e0c ab42
00000030: 1e0c ab42 1e0c ab42 1e0c ab42 1e0c ab42
00000040: 1e0c ab42 d939 01bc 200c ab42 1e0c ab42
00000050: 1e0c ab42 1e0c ab42 200c ab42 200c ab42
00000060: 1e0c ab42 1e0c ab42 200c ab42 1e0c ab42
00000070: 200c ab42 1e0c ab42 1e0c ab42 1e0c ab42
00000080: 1e0c ab42 1e0c ab42 1e0c ab42 1e0c ab42
00000090: 1e0c ab42 1e0c ab42 1e0c ab42 1e0c ab42
000000a0: 200c ab42 1e0c ab42 1e0c ab42 1e0c ab42
000000b0: 1e0c ab42 1e0c ab42 1e0c ab42 1e0c ab42
000000c0: 1e0c ab42 1e0c ab42 1e0c ab42 1e0c ab42
000000d0: 1e0c ab42 1e0c ab42 1e0c ab42 1e0c ab42
000000e0: b55b aa42 1e0c ab42 d466 b7bf 773c aa42
000000f0: 1e0c ab42 1e0c ab42 1e0c ab42 1e0c ab42
00000100: 200c ab42 200c ab42 1e0c ab42 200c ab42
00000110: 1e0c ab42 1e0c ab42 1e0c ab42 200c ab42
00000120: 1e0c ab42 c66f 1541 1e0c ab42 1e0c ab42
00000130: 1e0c ab42 1e0c ab42 1e0c ab42 1e0c ab42
00000140: 1e0c ab42 1e0c ab42 1e0c ab42 1e0c ab42
00000150: 200c ab42 200c ab42 2fd4 a642 1e0c ab42
00000160: 1e0c ab42 4243 aa42 1e0c ab42 1e0c ab42
00000170: 1e0c ab42 1e0c ab42 1e0c ab42 200c ab42
00000180: 200c ab42 200c ab42 1e0c ab42 5bc6 aa42
00000190: 1e0c ab42 1e0c ab42 1a0c ab42 200c ab42
000001a0: 1e0c ab42 200c ab42 1e0c ab42 1e0c ab42
000001b0: 200c ab42 1e0c ab42 bd98 b53b 200c ab42
000001c0: 200c ab42 1e0c ab42 f6c5 a742 1e0c ab42
000001d0: 1e0c ab42 1e0c ab42 200c ab42 1e0c ab42
000001e0: 1e0c ab42 1e0c ab42 1e0c ab42 1e0c ab42
000001f0: 1e0c ab42 200c ab42 a9ec aa42 1e0c ab42

layer2.weight f4 [128, 128]
85.52995 85.01503 85.5308 85.53043 85.53136 85.52892 85.53025 85.52958
85.530556 85.53061 82.81285 85.530205 85.53041 85.529625 85.53113 85.53025
85.52985 -0.00021606838 85.53062 85.529884 85.529396 85.53231 85.53315 85.522285
85.379196 85.53078 85.530106 85.52999 85.530655 85.53037 85.52974 85.53102
85.53024 85.530426 85.52982 85.53003 85.53005 85.53071 85.53034 85.53011
85.530815 85.53256 85.530846 85.52994 85.52939 85.53223 85.529915 85.53141
85.530365 85.53014 85.52989 85.52972 85.52981 85.53004 85.530014 85.52998
84.33228 85.530556 -6.8761992 84.08392 85.52992 85.53034 85.531364 85.5303
85.49571 85.532974 85.530396 85.531876 85.53015 85.52973 85.53048 85.52828
85.530235 -66.374825 85.53029 85.52997 85.52996 85.529724 85.531395 85.529816
85.53 85.530174 85.52994 85.53013 85.526146 85.53109 82.696106 85.53133
85.53029 84.29795 85.53027 85.5314 85.52996 85.53092 85.53027 85.5305
85.53066 85.52792 85.53044 84.487045 85.5298 85.52916 85.30969 85.5301
85.53042 85.53001 85.53018 85.52705 85.530685 85.53166 -0.00211392 85.5311
85.5308 85.5299 83.92777 85.53043 85.53023 85.53038 85.5301 85.53046
85.53004 85.52998 85.53024 85.530136 85.530685 85.52903 84.60236 85.53021
85.529205 83.84324 85.53005 85.529785 85.529976 85.52803 85.52951 85.52889
85.52961 85.52974 82.291885 85.529495 85.52955 85.529 85.53021 85.52956
85.52918 -0.0006308358 85.52979 85.52922 85.52861 85.53071 85.53224 84.808334
84.36197 85.52977 85.529396 85.52927 85.52989 85.529724 85.52905 85.52932
85.52967 85.52969 85.5291 85.52925 85.5293 85.52999 85.529594 85.529434
85.530014 85.53187 85.530014 85.52928 85.528694 85.53086 85.529274 85.53044
85.529724 85.52949 85.52925 85.529045 85.52909 85.52927 85.52928 85.529205
83.07896 85.529884 -6.8429737 82.92869 85.52925 85.5295 85.53055 85.52959
84.55457 85.53189 85.52966 85.53085 85.52949 85.52885 85.529594 84.879005
85.52939 -69.21989 85.52956 85.52928 85.529205 85.529076 85.530365 85.52909
85.52928 85.529434 85.529305 85.52939 85.264175 85.53037 82.10364 85.53002
85.52961 83.14456 85.5296 85.530205 85.52928 85.53012 85.52958 85.52971
85.52989 85.52712 85.52955 83.27855 85.529144 85.52835 84.15976 85.52938
85.52963 85.52926 85.52951 85.52616 85.529976 85.53054 0.0016030143 85.52965
85.53002 85.52913 83.92865 85.52965 85.52958 85.52969 85.52943 85.5297
85.5293 85.52926 85.529465 85.52949 85.52983 85.52695 83.38513 85.5295
00000000: 560f ab42 b207 aa42 c50f ab42 950f ab42
00000010: 0e10 ab42 cf0e ab42 7d0f ab42 250f ab42
00000020: a50f ab42 ac0f ab42 2ea0 a542 770f ab42
00000030: 920f ab42 2b0f ab42 f00f ab42 7d0f ab42
00000040: 480f ab42 6a90 62b9 ad0f ab42 4d0f ab42
00000050: 0d0f ab42 8b10 ab42 f910 ab42 690b ab42
00000060: 26c2 aa42 c20f ab42 6a0f ab42 5b0f ab42
00000070: b20f ab42 8d0f ab42 3a0f ab42 e20f ab42
00000080: 7c0f ab42 940f ab42 450f ab42 600f ab42
00000090: 630f ab42 b90f ab42 890f ab42 6b0f ab42
000000a0: c70f ab42 ac10 ab42 cb0f ab42 540f ab42
000000b0: 0c0f ab42 8010 ab42 510f ab42 1510 ab42
000000c0: 8c0f ab42 6f0f ab42 4e0f ab42 370f ab42
000000d0: 430f ab42 610f ab42 5e0f ab42 5a0f ab42
000000e0: 21aa a842 a50f ab42 d309 dcc0 f82a a842
000000f0: 520f ab42 890f ab42 0f10 ab42 830f ab42
00000100: cefd aa42 e210 ab42 900f ab42 5210 ab42
00000110: 700f ab42 390f ab42 9b0f ab42 7b0e ab42
00000120: 7b0f ab42 e9bf 84c2 820f ab42 580f ab42
00000130: 570f ab42 380f ab42 1310 ab42 440f ab42
00000140: 5c0f ab42 730f ab42 540f ab42 6d0f ab42
00000150: 630d ab42 eb0f ab42 6864 a542 0a10 ab42
00000160: 820f ab42 8d98 a842 800f ab42 1410 ab42
00000170: 570f ab42 d50f ab42 800f ab42 9e0f ab42
00000180: b30f ab42 4c0e ab42 960f ab42 5ef9 a842
00000190: 420f ab42 ee0e ab42 909e aa42 690f ab42
000001a0: 930f ab42 5d0f ab42 740f ab42 d90d ab42
000001b0: b60f ab42 3610 ab42 b189 0abb ec0f ab42
000001c0: c50f ab42 4f0f ab42 05db a742 950f ab42
000001d0: 7a0f ab42 8e0f ab42 690f ab42 980f ab42
000001e0: 610f ab42 5a0f ab42 7c0f ab42 6e0f ab42
000001f0: b60f ab42 dd0e ab42 6934 a942 780f ab42
00000200: f40e ab42 bdaf a742 630f ab42 400f ab42
00000210: 590f ab42 5a0e ab42 1c0f ab42 cb0e ab42
00000220: 290f ab42 3a0f ab42 7295 a442 1a0f ab42
00000230: 210f ab42 d90e ab42 780f ab42 220f ab42
00000240: f10e ab42 ad5e 25ba 410f ab42 f60e ab42
00000250: a60e ab42 b90f ab42 8210 ab42 de9d a942
00000260: 54b9 a842 3e0f ab42 0d0f ab42 fc0e ab42
00000270: 4e0f ab42 380f ab42 e00e ab42 030f ab42
00000280: 310f ab42 340f ab42 e60e ab42 fa0e ab42
00000290: 000f ab42 5b0f ab42 270f ab42 120f ab42
000002a0: 5e0f ab42 5110 ab42 5e0f ab42 fe0e ab42
000002b0: b10e ab42 cd0f ab42 fd0e ab42 960f ab42
000002c0: 380f ab42 190f ab42 fa0e ab42 df0e ab42
000002d0: e50e ab42 fc0e ab42 fe0e ab42 f40e ab42
000002e0: 6d28 a642 4d0f ab42 a4f9 dac0 7ddb a542
000002f0: fa0e ab42 1b0f ab42 a40f ab42 260f ab42
00000300: f11b a942 5410 ab42 300f ab42 cc0f ab42
00000310: 190f ab42 c50e ab42 270f ab42 0dc2 a942
00000320: 0c0f ab42 9570 8ac2 220f ab42 fe0e ab42
00000330: f40e ab42 e30e ab42 8c0f ab42 e50e ab42
00000340: fe0e ab42 120f ab42 010f ab42 0c0f ab42
00000350: 4287 aa42 8d0f ab42 1035 a442 5f0f ab42
00000360: 290f ab42 044a a642 280f ab42 770f ab42
00000370: fe0e ab42 6c0f ab42 250f ab42 360f ab42
00000380: 4e0f ab42 e30d ab42 210f ab42 9e8e a642
00000390: ec0e ab42 840e ab42 cc51 a842 0b0f ab42
000003a0: 2c0f ab42 fb0e ab42 1c0f ab42 650d ab42
000003b0: 590f ab42 a30f ab42 3c1c d23a 2e0f ab42
000003c0: 5f0f ab42 ea0e ab42 78db a742 2e0f ab42
000003d0: 250f ab42 340f ab42 110f ab42 350f ab42
000003e0: 000f ab42 fb0e ab42 160f ab42 190f ab42
000003f0: 460f ab42 cc0d ab42 30c5 a642 1b0f ab42

layer2.bias f4 [128]
72.92901 72.97509 72.264015 0.00037056778 72.758064 72.96947 72.98065 72.980354
72.88947 72.98261 72.99126 72.94132 -0.002191938 72.9835 72.94332 72.98126
72.92802 -0.002842894 72.2831 72.97217 72.86619 72.992676 72.303505 72.33926
72.07373 72.96948 72.98539 72.58804 72.97076 72.97503 72.98409 72.97381
72.828545 72.96947 72.29244 72.7246 72.979904 72.8727 72.98574 73.0119
72.77111 0.00076541613 72.982994 72.97295 72.93815 72.37373 72.978226 73.00151
72.97376 72.91319 72.28854 72.38493 72.98859 72.971954 72.06115 72.6794
72.92282 72.93584 72.98789 -0.0013679547 72.97895 72.94694 73.03809 72.94322
72.9657 72.02583 72.97313 72.993996 72.992065 72.99145 72.95435 72.98382
-0.0033467792 72.957275 72.98095 0.001284018 73.03638 72.91146 73.00332 72.98848
72.98031 -0.0013122859 72.99857 72.59153 72.91912 72.93487 72.94404 0.0018552731
72.21678 72.94665 72.96623 72.16038 72.976295 72.8766 72.98378 72.24512
72.99963 73.02246 72.94439 72.952324 72.14467 -0.0029256267 72.97378 72.26707
72.5898 72.33511 72.9315 -0.0027043798 73.007164 72.90324 73.01163 72.98159
72.5047 72.95685 72.97553 72.94515 72.95439 72.97558 0.0023936788 72.94018
72.937195 72.98351 72.9985 72.94439 72.41473 72.98286 72.953 72.99847
00000000: a7db 9142 3ff3 9142 2d87 9042 c448 c239
00000010: 2184 9142 5ef0 9142 18f6 9142 f1f5 9142
00000020: 69c7 9142 19f7 9142 86fb 9142 f5e1 9142
00000030: 9ea6 0fbb 8df7 9142 fbe2 9142 68f6 9142
00000040: 25db 9142 d94f 3abb f290 9042 c0f1 9142
00000050: 7dbb 9142 40fc 9142 659b 9042 b3ad 9042
00000060: c025 9042 60f0 9142 85f8 9142 142d 9142
00000070: 07f1 9142 37f3 9142 dbf7 9142 97f2 9142
00000080: 37a8 9142 5ef0 9142 bb95 9042 ff72 9142
00000090: b6f5 9142 d3be 9142 b3f8 9142 1806 9242
000000a0: cf8a 9142 35a6 483a 4bf7 9142 27f2 9142
000000b0: 55e0 9142 5abf 9042 daf4 9142 c600 9242
000000c0: 91f2 9142 8ed3 9142 bc93 9042 16c5 9042
000000d0: 28fa 9142 a4f1 9142 4f1f 9042 da5b 9142
000000e0: 7cd8 9142 26df 9142 cdf9 9142 f14c b3ba
000000f0: 39f5 9142 d5e4 9142 8113 9242 eee2 9142
00000100: 70ee 9142 3a0d 9042 3ef2 9142 edfc 9142
00000110: f0fb 9142 9ffb 9142 a1e8 9142 b7f7 9142
00000120: a355 5bbb 20ea 9142 3ff6 9142 7f4c a83a
00000130: a012 9242 abd2 9142 b301 9242 1afa 9142
00000140: ebf5 9142 0201 acba 45ff 9142 dd2e 9142
00000150: 97d6 9142 a7de 9142 59e3 9142 a32c f33a
00000160: fe6e 9042 afe4 9142 b6ee 9142 1d52 9042
00000170: ddf3 9142 d2c0 9142 b2f7 9142 807d 9042
00000180: d0ff 9142 800b 9242 87e3 9142 97e7 9142
00000190: 124a 9042 dfbb 3fbb 93f2 9142 bd88 9042
000001a0: fa2d 9142 94ab 9042 eedc 9142 f73b 31bb
000001b0: ab03 9242 75ce 9142 f405 9242 93f6 9142
000001c0: 6802 9142 e8e9 9142 79f3 9142 ebe3 9142
000001d0: a6e8 9142 7ff3 9142 44df 1c3b 5fe1 9142
000001e0: d8df 9142 8ff7 9142 3bff 9142 87e3 9142
000001f0: 57d4 9042 39f7 9142 f0e7 9142 37ff 9142

layer3.weight f4 [6, 128]
66.274994 66.241585 66.172325 0.010040351 66.25091 66.24535 66.242355 66.24292
66.24949 66.21858 66.23405 66.27268 -0.00017986838 66.236824 66.24741 66.24328
66.23263 -0.0007096293 66.18891 66.24309 66.18959 66.24538 66.18421 66.16481
66.15371 66.23922 66.23834 66.18973 66.2371 66.24219 66.243164 66.25093
66.25546 66.24314 66.1872 66.2126 66.242714 66.25682 66.24829 66.239
66.24482 -0.002716574 66.24232 66.24212 66.24484 66.15151 66.24368 66.22028
66.240105 66.23939 66.18442 66.168816 66.24235 66.24475 66.17613 66.14261
66.24218 66.248604 66.24151 -0.00057909364 66.24242 66.24273 66.241455 66.25221
66.247116 66.1506 66.24704 66.24466 66.203156 66.23727 66.24318 66.24228
-0.04213101 66.25115 66.24135 0.034609683 66.226685 66.244675 66.24965 66.241844
66.245766 -0.00016750948 66.24511 66.26898 66.249535 66.23635 66.24461 0.002563593
66.16789 66.247375 66.24279 66.172424 66.24161 66.24988 66.23898 66.172585
66.24208 66.23575 66.244675 66.24745 66.17824 -0.0023922941 66.24282 66.17759
66.18 66.14991 66.24637 -0.0025269354 66.24158 66.2473 66.24294 66.243286
66.25626 66.2391 66.23974 66.250916 66.24455 66.243164 -0.0010200655 66.24735
66.22735 66.2393 66.24385 66.24708 66.2009 66.24316 66.241936 66.24175
66.21024 66.20197 66.11776 0.005875451 66.15378 66.2 66.19649 66.19585
66.19583 66.20243 66.15862 66.19384 0.0004315797 66.17612 66.187965 66.19609
66.18945 0.009068939 66.13828 66.196495 66.200935 66.18124 66.13367 66.118576
66.11121 66.19761 66.19235 66.20145 66.19614 66.197975 66.20006 66.19819
66.177574 66.20028 66.1359 66.20625 66.19774 66.13468 66.19948 66.19601
66.17929 -0.000792532 66.19705 66.1965 66.19215 66.14971 66.195694 66.168785
66.199 66.18311 66.13547 66.12267 66.19827 66.200325 66.11355 66.10918
66.18074 66.192764 66.19728 -0.000112168294 66.16552 66.19352 66.19824 66.18591
66.195915 66.11122 66.19405 66.19649 66.153336 66.19948 66.19578 66.19865
-0.010596259 66.2035 66.194885 -0.0016295302 66.20026 66.19994 66.18356 66.19547
66.19885 0.000713544 66.19971 66.18311 66.19727 66.19647 66.19161 0.0021423849
66.115585 66.19224 66.19341 66.12301 66.19814 66.203415 66.1969 66.12747
66.18942 66.1908 66.18868 66.18999 66.12892 -0.00040321422 66.19667 66.12179
66.21082 66.116264 66.191124 -2.155888e-05 66.19998 66.19882 66.1989 66.19952
66.11031 66.20395 66.19715 66.193306 66.17215 66.19783 -0.0018621248 66.18842
66.17236 66.193504 66.195885 66.19072 66.14078 66.198265 66.20091 66.1987
00000000: cc8c 8442 b17b 8442 3b58 8442 4980 243c
00000010: 7780 8442 9f7d 8442 167c 8442 607c 8442
00000020: bd7f 8442 ea6f 8442 d577 8442 9d8b 8442
00000030: 0d9b 3cb9 4179 8442 ad7e 8442 8f7c 8442
00000040: 1b77 8442 6b06 3aba b960 8442 767c 8442
00000050: 1261 8442 a27d 8442 515e 8442 6254 8442
00000060: b34e 8442 7b7a 8442 087a 8442 2461 8442
00000070: 6579 8442 007c 8442 807c 8442 7a80 8442
00000080: cc82 8442 7d7c 8442 d95f 8442 da6c 8442
00000090: 457c 8442 7e83 8442 207f 8442 5e7a 8442
000000a0: 597d 8442 8c08 32bb 117c 8442 f77b 8442
000000b0: 5c7d 8442 934d 8442 c47c 8442 c970 8442
000000c0: ef7a 8442 917a 8442 6c5e 8442 6f56 8442
000000d0: 157c 8442 507d 8442 2e5a 8442 0449 8442
000000e0: ff7b 8442 497f 8442 a77b 8442 51ce 17ba
000000f0: 1e7c 8442 477c 8442 a07b 8442 2281 8442
00000100: 867e 8442 1b4d 8442 7c7e 8442 447d 8442
00000110: 0468 8442 7b79 8442 827c 8442 0c7c 8442
00000120: 9191 2cbd 9780 8442 927b 8442 e2c2 0d3d
00000130: 1074 8442 467d 8442 d27f 8442 d37b 8442
00000140: d57d 8442 7ca5 2fb9 7f7d 8442 b889 8442
00000150: c37f 8442 0379 8442 3e7d 8442 f401 283b
00000160: f655 8442 a87e 8442 4f7c 8442 4858 8442
00000170: b47b 8442 f07f 8442 5c7a 8442 5d58 8442
00000180: f27b 8442 b478 8442 467d 8442 b27e 8442
00000190: 425b 8442 09c8 1cbb 537c 8442 ed5a 8442
000001a0: 295c 8442 c14c 8442 247e 8442 f19a 25bb
000001b0: b07b 8442 9e7e 8442 637c 8442 907c 8442
000001c0: 3583 8442 6b7a 8442 bf7a 8442 7880 8442
000001d0: 367d 8442 807c 8442 b8b3 85ba a57e 8442
000001e0: 6774 8442 867a 8442 da7c 8442 817e 8442
000001f0: dc66 8442 7f7c 8442 df7b 8442 c77b 8442
00000200: a56b 8442 6967 8442 4b3c 8442 db86 c03b
00000210: bc4e 8442 6666 8442 9a64 8442 4664 8442
00000220: 4464 8442 a567 8442 3751 8442 3f63 8442
00000230: a645 e239 2c5a 8442 3d60 8442 6664 8442
00000240: 0061 8442 e395 143c cd46 8442 9b64 8442
00000250: e166 8442 cb5c 8442 7044 8442 b63c 8442
00000260: f138 8442 2d65 8442 7c62 8442 2467 8442
00000270: 6c64 8442 5d65 8442 6e66 8442 7965 8442
00000280: eb5a 8442 8b66 8442 9545 8442 9a69 8442
00000290: 3e65 8442 f544 8442 2266 8442 5b64 8442
000002a0: cc5b 8442 ecc1 4fba e464 8442 9c64 8442
000002b0: 6162 8442 a74c 8442 3264 8442 6b56 8442
000002c0: e365 8442 c15d 8442 5c45 8442 cf3e 8442
000002d0: 8465 8442 9166 8442 233a 8442 e637 8442
000002e0: 8a5c 8442 b262 8442 0265 8442 e53b ebb8
000002f0: bf54 8442 1563 8442 8065 8442 305f 8442
00000300: 4f64 8442 f238 8442 5b63 8442 9a64 8442
00000310: 824e 8442 2266 8442 3d64 8442 b565 8442
00000320: ee9b 2dbc 3168 8442 c863 8442 f695 d5ba
00000330: 8866 8442 5f66 8442 fc5d 8442 1564 8442
00000340: d065 8442 210d 3b3a 4066 8442 c15d 8442
00000350: 0165 8442 9864 8442 1b62 8442 4167 0c3b
00000360: 2e3b 8442 6d62 8442 0763 8442 fb3e 8442
00000370: 7365 8442 2668 8442 d064 8442 4441 8442
00000380: fc60 8442 b161 8442 9b60 8442 4661 8442
00000390: 0242 8442 7f66 d3b9 b264 8442 5b3e 8442
000003a0: f16b 8442 873b 8442 db61 8442 58d9 b4b7
000003b0: 6466 8442 cc65 8442 d665 8442 2766 8442
000003c0: 7b38 8442 6c68 8442 f164 8442 f962 8442
000003d0: 2458 8442 4a65 8442 8a12 f4ba 7960 8442
000003e0: 4058 8442 1363 8442 4b64 8442 a661 8442
000003f0: 1448 8442 8365 8442 de66 8442 bc65 8442

layer3.bias f4 [6]
52.599678 38.027164 61.018234 15.591569 57.54782 1.8198736
00000000: 1266 5242 d11b 1842 ac12 7442 1177 7941
00000010: f830 6642 9ef1 e83f
