models/290000-trained_model-17-04_37.pth (torch, 79239 bytes, 6 tensors)

layer1.weight f4 [128, 14]
00000000: 6deb 1a3b 0280 ae3a adae 0c3b 29eb c13a
00000010: 0735 ed3a 2f83 d63a 62d1 5d3b c7f7 233b
00000020: 26ba 383b b27f 433b 2c29 003b 2e58 2e3b
00000030: 51ba 313b bf1b 1c3b 5521 7339 d0e4 61bc
00000040: 5d31 65ba 1ce5 18bc 17e2 87ba 45f5 5fbd
00000050: 4845 3b3b 55bf 993a c9cc 6c3a d6ec b33a
00000060: bd12 ed3a 00de 0f3b c483 ae3a b647 473b
00000070: d5c2 57bb 8645 85bc f7cf 04bc 16f0 b7bc
00000080: 1a8c c3ba f59d 6abd 63f6 563b bd69 f83a
00000090: 815c 243b 2d62 de3a 71b0 123b b9a2 dd3a
000000a0: 51d9 133b a0e6 1b3b b772 18bc b35a 32bb
000000b0: 3a71 9ebb 3107 a5bc ae3e 90bc 4aff 0dbd
000000c0: b38b 0dbb 6528 fe39 e491 0dbb 90ad 6d3a
000000d0: 5fcc 0339 679f 66ba 71ce 89ba 46ab 9b3b
000000e0: db68 e03a 5bb6 013b 0779 45bb 16a5 ba3a
000000f0: 8e72 2c3b 87de 583b b70a 6f3b 8420 fb3a
00000100: 4154 283b f7c2 2d3b b384 833b b392 753b
00000110: 60fe 573b 22d5 183b 1bb0 093b 64ee be3a
00000120: 5916 383b f285 103b 6898 0f3b 4b01 373a
00000130: 34c4 4a3b 282a 373b c9d3 293b 193a 2b3b
00000140: 7f9c f13a a673 113b 7cdc f53a bdf2 2e3b
00000150: d0d5 173b 4d9f 123a f27a 393b 89ec 003b
00000160: 536a 1d3b abc4 b73a cba6 2a3b f5b5 be3a
00000170: 4787 233b 2cb1 113b 1ba6 0b3b 5fc7 323b
00000180: c6c0 133b 559e 483b f490 1e3b 4818 e83a
00000190: 8d13 223b e067 ce3a 1dbd de3a ed1d d33a
000001a0: bbd5 613b a49b 333b 09c3 1f3b 4924 2f3b
000001b0: a39d 193b 9c0f 4a3b 5c6c 0b3b 38c5 263b
000001c0: 75d2 b93a 52c3 ab3a f9e5 193b 7a52 f33a
000001d0: f0d2 323b 60f9 fb3a d033 723b 8f4f 073b
000001e0: 089f 573b f352 383b fab0 2e3b 8dff 293b
000001f0: 0598 133b 4f46 263b a123 143b 0019 a13a
00000200: 9307 f03a 831f 983a c7a6 cb3a 1e0a aa3a
00000210: c226 3f3b 9485 be3a 773d 453b e108 d83a
00000220: 1df5 2d3b b92f 393b 9958 0b3b c8c3 403b
00000230: f836 d63a 8267 b239 ae67 133b ed6a fb3a
00000240: 9122 103b ec08 3c39 5570 5b3b 284f 3b3b
00000250: cea9 433b 957f 2b3b a091 303b 515e 403b
00000260: 401d 2b3b 2ba4 503b 8ab3 263b 6a6e b53a
00000270: d6c6 f63a fa96 693b e86e a8ba c3c3 09ba
00000280: 38b9 b7bb f0f3 f338 c664 68ba 2cec 053b
00000290: d337 5238 59eb 80ba a800 85bb 0d5a 8bbb
000002a0: f6b0 b336 5e18 13bc a9c6 f839 a44e 23bb
000002b0: 7187 9739 9def 3cbd 84df 183b 98c9 883a
000002c0: 502f e03a fff2 853a 899e 083b 4bad a43a
000002d0: 0165 eb3a 2ce8 073b 444a f13a 23c0 e639
000002e0: 065e 1e3b 5873 dd3a aeae 2f3b 5d07 9f3a
000002f0: 428f 3b3b e2d4 ea3a cf38 103b 2797 dd3a
00000300: 5b53 013b 34e8 303b e28f 0e3b a75d 443b
00000310: bfa0 ba3b b292 263a 12f0 253a 6288 9bba
00000320: 7e32 aeba 35b6 e33a 9d26 dabb fffa 063a
00000330: 3549 c53a cfcd 81bb 032a 98ba ea36 51ba
00000340: 9eb1 9fb9 05f3 72bb ecfb 2c3b 2bf9 f53a
00000350: f8d5 80ba 12df 193b fef6 293b b68d e43a
00000360: 58d2 883b 7081 063b d862 123b 7394 2a3b
00000370: f978 863b cab3 4e3b d614 293b ec37 2e3b
00000380: f119 153b eea4 b63a e18f 1e3b 0460 003b
00000390: 1e35 123b 8464 e53a a66b 503b a57d 183b
000003a0: ab7f 1d3b 37be de3a 1483 133b 8a3b 1f3b
000003b0: fcb9 e33a 5098 383b a8ac f938 1280 8a36
000003c0: 00aa cab9 1d47 b339 33de 7eb9 3843 a1b9
000003d0: 7869 9fb9 46c5 7e39 6ae0 d1b9 23d6 04ba
000003e0: 3097 83b9 73c5 25b9 0dc1 01ba a439 b5b9
000003f0: 8e97 fe3a 1c30 0fba cfe2 053b 7d87 0a3b
0.002363886 0.0013313296 0.002146642 0.0014794815 0.0018097468 0.0016366 0.0033846726 0.0025019513
0.0028187125 0.002983075 0.001955579 0.0026602852 0.002711911 0.002382025 0.00023186703 -0.013787463
-0.00087430124 -0.009331968 -0.0010367063 -0.054677267 0.002857523 0.0011729995 0.0009033201 0.0013727199
0.001808725 0.002195239 0.0013314416 0.0030407733 -0.0032922525 -0.016268503 -0.008106223 -0.02245335
-0.0014919073 -0.057279546 0.0032800667 0.0018952411 0.002507955 0.0016966515 0.0022383 0.0016909457
0.002255995 0.0023788586 -0.009304694 -0.0027214705 -0.004835275 -0.02014503 -0.017608013 -0.03466729
-0.002159816 0.00048476752 -0.002160185 0.00090666953 0.00012569268 -0.00087975565 -0.0010513795 0.004750642
0.0017121093 0.001979253 -0.0030131952 0.0014239873 0.0026313397 0.003309162 0.0036474892 0.0019159471
0.0025684985 0.0026513913 0.0040136217 0.0037471473 0.0032958016 0.0023320396 0.0021009508 0.0014566896
0.0028089492 0.0022052494 0.002191091 0.00069810887 0.00309397 0.002794871 0.0025913587 0.0026127158
0.001843348 0.0022194176 0.0018757726 0.0026694976 0.0023168214 0.00055931957 0.002830204 0.0019672236
0.0024019673 0.0014020404 0.0026039358 0.0014550077 0.0024952458 0.0022230847 0.0021308723 0.002727948
0.0022545322 0.0030611951 0.0024195286 0.0017707432 0.0024730891 0.001574751 0.0016993616 0.0016106941
0.0034459669 0.0027406001 0.0024377725 0.0026724508 0.0023439906 0.0030832058 0.0021274304 0.0025447141
0.0014177101 0.0013104475 0.0023483022 0.0018564009 0.0027286373 0.00192241 0.0036957152 0.0020646786
0.0032901186 0.0028125613 0.002665578 0.0025939674 0.002252103 0.0025371497 0.0022604244 0.0012290776
0.0018312804 0.0011606071 0.0015537374 0.0012972986 0.0029167389 0.0014535659 0.003009645 0.0016482138
0.0026543804 0.0028257205 0.0021262525 0.002941357 0.0016343286 0.00034027925 0.0022492218 0.0019181647
0.002199326 0.00017932401 0.0033483703 0.0028581116 0.002985585 0.0026168574 0.0026942268 0.0029353092
0.0026109964 0.0031836133 0.0025436603 0.001384211 0.0018827568 0.0035642968 -0.0012850435 -0.0005255306
-0.0056067966 0.0001163258 -0.0008865114 0.002043496 5.0119892e-05 -0.0009835764 -0.004058916 -0.0042526782
5.3552167e-06 -0.008977978 0.0004745026 -0.00249187 0.00028901876 -0.04612695 0.0023326585 0.0010436056
0.0017103944 0.0010219513 0.0020846447 0.0012563852 0.0017959179 0.002073775 0.0018408974 0.00044012172
0.002416493 0.0016895337 0.0026806998 0.0012132932 0.0028619324 0.0017916227 0.0022006517 0.0016906009
0.0019733522 0.0026993873 0.0021753241 0.0029963048 0.005695432 0.0006354257 0.0006330024 -0.0011866207
-0.0013290194 0.0017373028 -0.006657435 0.00051490957 0.0015051725 -0.003961302 -0.00116092 -0.00079809
-0.00030459178 -0.003707112 0.0026395274 0.0018766274 -0.0009829393 0.0023478908 0.0025934572 0.0017437253
0.0041754656 0.0020523928 0.0022336747 0.0026028424 0.0041037765 0.0031540268 0.0025799773 0.0026583625
0.0022751058 0.0013934651 0.0024194645 0.001958848 0.0022309492 0.001750127 0.0031802445 0.002326825
0.0024032395 0.0016993944 0.0022508549 0.0024296963 0.0017374153 0.0028166957 0.00011905405 4.12763e-06
-0.00038655102 0.00034194524 -0.00024306103 -0.00030758395 -0.00030405424 0.00024296818 -0.00040030788 -0.0005067309
-0.0002509891 -0.00015809182 -0.0004949726 -0.00034565956 0.0019423829 -0.0005462186 0.0020429378 0.0021137886

layer1.bias f4 [128]
00000000: e930 213b 0bc2 caba 962b b9ba 09d7 9cba
00000010: 808a 5e3b 6c30 3d3b 0080 423b f952 283b
00000020: c8b5 4d3b 70f8 143b 3a3c 333b 6236 a7b9
00000030: c124 08bb 43b3 013b 3b98 8539 6f75 253b
00000040: ac30 173b 6f89 1cb9 7e62 e339 37f7 113b
00000050: 5f79 363b 427c 533b 93ac 443b 1e4b fbba
00000060: baa4 233b ada1 7f39 e2b4 d73b 3bf7 bb3a
00000070: 2b79 e73a 645a 363b e3f7 3c3b f192 1e3b
00000080: be74 3b3b 4afc 283c 71bc 203b a9fd 2e3b
00000090: 6212 6b3b 3777 45bb 99fd a13b afae 203b
000000a0: 9f71 0f3b 5774 163b 8f76 153b 23ab 113a
000000b0: bd6f 303b 015c 193b 1e10 293b abfd 193b
000000c0: 1926 293b 0d50 3f3b 4523 f8ba 4ce5 b3ba
000000d0: 6a60 123b 8997 473b 20e0 013c 7edc 513b
000000e0: cc88 5f39 2c19 273b c741 363b a3f2 b43a
000000f0: 6e35 2b3b 6a28 4d3b da18 4d3b 223a 473b
00000100: 2bf1 193b e478 523a 6ba2 163b 68ca 3e3b
00000110: 82db 433b dcc2 803b a8d6 1a3b 232c 233b
00000120: a630 793a 6984 0f3b f073 22bb 70de 393b
00000130: b96c 233b dd02 473b fe66 7f3b be1a 203b
00000140: bd4a 133b d394 103b b223 aeba c494 343b
00000150: 20ef 523b 416d 2c3b 1ef1 623b 3386 2f3b
00000160: 9a01 21ba de27 6cba c4dd 51ba b3ef 503b
00000170: 59c0 193b d83e 303b 9ac2 a43b fd46 b03b
00000180: 562d 023b 8877 20ba a785 133b b428 a4ba
00000190: 6700 c93a 7770 0d3b e5ec 163b 7471 ef3a
000001a0: 7052 1d3b 5716 0f3b e951 fb3a 0502 3b3b
000001b0: 7345 433b 4719 3f3b 0fd1 2a3b a6ec dcb9
000001c0: eead 95b9 5182 463b a58a 523a e63e 393c
000001d0: d38d 203b dc83 063b 95c7 173b 0407 103b
000001e0: df7c dbba 4795 3c3b 8d34 aa3b 7848 353b
000001f0: 3bbc 513b 76b6 403b 315c 1a3b 8d76 1d3b
0.0024595803 -0.0015469206 -0.001412737 -0.0011965941 0.0033957064 0.0028867973 0.0029678345 0.0025684221
0.0031388868 0.0022731088 0.002734913 -0.0003189324 -0.002077386 0.0019790686 0.00025481157 0.0025246998
0.0023069782 -0.00014928517 0.00043370196 0.0022272596 0.002784334 0.0032270108 0.0030010089 -0.0019172167
0.002497001 0.00024378924 0.006582842 0.0014340648 0.0017660012 0.0027824873 0.0028834275 0.002419647
0.002860352 0.010314057 0.0024526382 0.0026701486 0.0035869111 -0.0030130872 0.0049435613 0.0024518182
0.0021887792 0.0022957528 0.0022806262 0.00055568124 0.002692207 0.0023400786 0.002579696 0.0023497145
0.0025810061 0.0029192 -0.001893141 -0.0013724952 0.00223353 0.0030455312 0.007926971 0.0032022293
0.00021317898 0.0025497181 0.0027810202 0.0013805222 0.0026124376 0.0031304606 0.003129533 0.003039964
0.0023489695 0.00080288784 0.0022984992 0.0029112343 0.0029885476 0.003929479 0.002362648 0.0024898134
0.00095058454 0.002189899 -0.0024788342 0.0028361343 0.002493663 0.0030366697 0.00389713 0.0024430002
0.0022474967 0.0022061362 -0.0013285785 0.0027554492 0.0032185987 0.0026310238 0.003462858 0.002678287
-0.0006141901 -0.0009008626 -0.0008005763 0.0031881153 0.0023460595 0.0026892927 0.005028081 0.005379556
0.0019863448 -0.0006121327 0.0022510083 -0.0012524338 0.0015335203 0.0021581927 0.0023029384 0.0018268065
0.0024005435 0.0021833384 0.0019174191 0.002853514 0.0029796034 0.0029159354 0.002606455 -0.00042137987
-0.00028549082 0.0030290077 0.0008031524 0.0113065 0.0024498596 0.0020525372 0.0023159732 0.0021976838
-0.0016745589 0.00287755 0.005194253 0.0027661603 0.0032003063 0.002940563 0.0023553486 0.002402696

layer2.weight f4 [128, 128]
00000000: c433 1e3b 759b 7bbb da16 2dbb 5f2d 87bb
00000010: 9a9c 103b 2883 0b3b 6997 0c3b 4dcd 003b
00000020: 7bee 0a3b d411 1a3b 577b 133b 8407 1abc
00000030: 0302 93ba 45de 183b 347a 203b 46fc 003b
00000040: 2076 083b 9e0c cb38 1346 203c a07e 173b
00000050: 5a69 093b c8e5 0d3b 6ec6 0a3b c47b 68bb
00000060: 4766 073b 24e4 c1bb afeb 4b3a af77 c03a
00000070: 89ad 0e3b a5b5 023b 8d36 0e3b 98ea 1d3b
00000080: 44c6 123b 196c 083c c51f 1b3b 21c3 093b
00000090: d86d d4bb e0e2 fa3b 03ed 5cbb 0a00 ef3a
000000a0: cb8e 1e3b 766f 953a 4cf3 103b 7ddd aa3a
000000b0: 4a7b 093b 7364 193b 77b8 193b 471c 1a3b
000000c0: 94d9 123b 42b5 0d3b 5610 36bb 9ceb c2ba
000000d0: f30d 083b e501 0b3b 13b0 c6bb 40cd 083b
000000e0: 4a2b 0a3b d876 023b 5244 213b 87f5 0b3b
000000f0: b73a 183b 13c7 113b 94ce 183b dbca 093b
00000100: 5457 e63a 7163 0a3b fb70 0d3b 45c5 033b
00000110: 08dd c7bb 3a7e acbb e369 0c3b cfe4 123b
00000120: 2041 d1bb 166a 3d3b 59bf 2bbb fcf4 0c3b
00000130: 2331 1b3b 8db9 0d3b 091a 97bb e53b 1a3b
00000140: c94c 1d3b 1a4e 173b 12e1 b6bb 6c88 fe3a
00000150: 99f9 9838 e418 123b 8ad8 073b 67b1 153b
00000160: 79ae 2f3b 68da 39bb f1bd aabb 4a60 093b
00000170: 1183 193b b614 0f3b 57e5 b238 525a fb39
00000180: 8101 bf3a d5e3 823b 172e 233b b3a4 9cbb
00000190: bf67 2c3b 1761 073b 5073 fe3a df5f 2c3b
000001a0: 6739 1d3b 381c 133b 1870 123b 9563 013b
000001b0: abcc 0c3b c36a 163b e891 1f3b f946 8bbb
000001c0: 1a5e 033b 21e3 143b 91e7 67bb 5c07 523b
000001d0: a701 2e3b 6c19 113b 4d48 123b 7d78 153b
000001e0: 2c71 a8bb 0901 0e3b 561f 84bb b96c 1a3b
000001f0: 3974 123b 62cc 193b c531 0c3b 217a 0d3b
00000200: 44eb 0a3b f6d8 b93b 2a7b cd3b fa06 c73b
00000210: 972f b3ba da4a e53a d0a2 cb3a 9046 0a3b
00000220: 6909 cd3a 9b3a a73a 8f68 963a 598c a6bb
00000230: d680 653b 6984 bf3a d4fb 8f3b 2fc6 1739
00000240: 1fe3 ae3a 16ae 20b9 f32d 043c 474a a43a
00000250: 5080 9b3a c0af c93a 0bc7 953a cc09 b93b
00000260: 86aa 003a 5cff 81bb 2c60 f33a 4417 bb3a
00000270: 177d 493a 1d0d c53a 374a b63a f604 be3a
00000280: 2e5e 103a beaa 353b 88da ae3a 20e7 943a
00000290: 1b5c fbbb fcf8 4a3b 80b9 14bb 6514 963a
000002a0: a999 b83a 0530 b53a 7f6b 6439 380b 973a
000002b0: 2c15 ac3a 2998 c83a a3c6 bf3a 73df b53a
000002c0: c536 a03a 4ad3 9b3a 225e a93b 126c c13b
000002d0: c872 903a 98d3 da3a 3cf9 5cbb 4d77 9f3a
000002e0: 90c9 073b 1b03 b13a 1c20 c33a aeee d93a
000002f0: ffa9 c63a 490e 403a e9b5 b13a 4938 973a
00000300: 012e 913a fff7 fd3a 5011 043a dd63 ae3a
00000310: b21b 1abb 939d 4cbb d4d0 3aba 1280 a03a
00000320: 6794 b6ba 0b89 393b 5256 403b 5ed3 a93a
00000330: 5762 c53a 2acc fa39 4681 51bb eaab 153b
00000340: e265 9d3a 336f 123b 4419 e43b fe5c e23a
00000350: 2d94 16ba 0d6a f23a c0e2 a53a bb5e ac3a
00000360: 254f 223b 476b a53b a062 10bb 88a3 c33a
00000370: a97b 9f3a 729b aa3a 5b38 cc38 a7ba a9ba
00000380: c74a d43a de3a 8a3b 443f cc3a 6ebd cd3b
00000390: 58ca 1e3b e142 093b 7d7e b73a 56e8 30b9
000003a0: 9a56 d23a 4a7d 903a 2efe c03a dd43 1d3a
000003b0: 4e34 c63a 1017 903a 4dcc f23a b287 02ba
000003c0: 8a14 3e39 b474 503a 1211 8c3b 188c 90ba
000003d0: 811a 813a 2da9 c13a f24f c93a 17ca b43a
000003e0: b421 143b 13c4 c63a 5a91 0bba f83f d13a
000003f0: 2b80 d73a fa73 b43a 5fe3 163b b962 c73a
0.0024139741 -0.003839222 -0.0026411326 -0.0041252817 0.0022065998 0.0021287892 0.0021452552 0.0019653619
0.0021199274 0.0023509162 0.0022503936 -0.009401206 -0.001121581 0.0023325842 0.0024486901 0.0019681617
0.002082236 9.6821444e-05 0.009782332 0.0023116246 0.0020967335 0.0021651853 0.0021175402 -0.003547416
0.0020660327 -0.005917089 0.0007778955 0.0014684106 0.0021770915 0.0019944694 0.0021699995 0.0024096128
0.0022396008 0.008326554 0.002367006 0.0021020847 -0.006482821 0.00765644 -0.0033710606 0.0018234265
0.0024193998 0.0011401016 0.0022117672 0.0013035979 0.0020978027 0.002340582 0.0023455897 0.002351539
0.0022407519 0.002162293 -0.0027780733 -0.0014871242 0.0020760268 0.0021210846 -0.00606347 0.0020874292
0.0021082931 0.0019907262 0.0024607372 0.0021356062 0.0023228356 0.0022243902 0.002331649 0.0021025452
0.0017573633 0.00211164 0.0021582234 0.0020106595 -0.006099347 -0.005264071 0.0021425418 0.0022414213
-0.0063859373 0.0028902343 -0.0026206581 0.0021508327 0.002368041 0.002162549 -0.004611258 0.0023534235
0.0024002066 0.0023087324 -0.0055810297 0.0019419319 7.294416e-05 0.0022292668 0.0020728433 0.0022841336
0.0026806875 -0.002835894 -0.005210631 0.0020961934 0.002342407 0.0021832413 8.530419e-05 0.00047941745
0.0014572592 0.003994445 0.0024899298 -0.004780376 0.0026306955 0.0020657235 0.0019413028 0.002630226
0.0023990513 0.002244724 0.0022344645 0.0019743193 0.0021484296 0.0022951819 0.0024348442 -0.004250404
0.0020045103 0.0022718387 -0.0035385827 0.0032047844 0.0026551278 0.0022140397 0.0022320927 0.0022807412
-0.0051404443 0.0021668097 -0.004032056 0.002356334 0.0022347106 0.002346777 0.002139197 0.0021587687
0.0021197358 0.0056716157 0.006270786 0.0060738297 -0.0013670799 0.0017493621 0.0015536193 0.0021099187
0.0015643063 0.0012758555 0.0011475253 -0.0050826487 0.003501942 0.0014611605 0.004394034 0.00014474311
0.0013342834 -0.00015323641 0.008067596 0.0012534343 0.0011863802 0.0015387461 0.0011427117 0.00564692
0.00049082225 -0.003967209 0.001856809 0.0014273901 0.00076861813 0.0015033815 0.0013907616 0.0014497328
0.0005507198 0.0027720178 0.0013340274 0.0011360385 -0.007670892 0.003097116 -0.0022693574 0.001145017
0.001408388 0.0013823515 0.0002178382 0.0011523729 0.0013128868 0.0015304136 0.0014631342 0.0013875797
0.0012223354 0.001188853 0.005168692 0.0059027756 0.0011020536 0.001669514 -0.0033717891 0.0012166292
0.0020719506 0.0013504954 0.0014886889 0.0016626918 0.0015156864 0.00073263474 0.0013558242 0.001153716
0.0011076332 0.0019376277 0.000503798 0.0013304908 -0.0023515043 -0.0031221851 -0.0007126455 0.0012245199
-0.0013929725 0.0028310444 0.0029348326 0.0012956669 0.0015059215 0.0004783583 -0.0031967922 0.0022838064
0.0012008513 0.0022344112 0.0069610197 0.0017270145 -0.0005744126 0.001849474 0.0012656078 0.001315079
0.0024766412 0.005048189 -0.0022031441 0.0014926055 0.0012167591 0.0013016297 9.737975e-05 -0.0012949303
0.0016196602 0.0042184433 0.001558282 0.0062786853 0.0024229493 0.0020944404 0.0013999488 -0.0001687122
0.0016047538 0.0011023667 0.0014724189 0.0005999187 0.0015121789 0.0010993201 0.0018524021 -0.00049793266
0.00018127463 0.00079519604 0.004274496 -0.0011028079 0.0009849818 0.001477515 0.0015358909 0.0013793138
0.0022603096 0.0015164636 -0.0005324088 0.0015964499 0.0016441395 0.0013767474 0.0023023707 0.0015211917

layer2.bias f4 [128]
00000000: 840a 893b 55d8 643b a148 9a3b 1eab 813b
00000010: 06e9 9737 222b 29b9 0656 093c c194 833b
00000020: 01fd 8c3b 0cbd 8c3b ae8f 163c 4491 d53e
00000030: bdfb 883b cf50 623b ff8e 563b 297e 713b
00000040: 3840 70b9 69f1 8e3b 0815 4d3b 1d20 9c3b
00000050: 7c1a 883b ec5f 373b 7930 8d3b 007b 8e3b
00000060: 3148 873b a089 10b8 d830 9f3b 3a1a 873b
00000070: 27ec 8d3b 8404 e43b 0363 833b bc4c 2bb9
00000080: cdd0 bb3b ed42 8c3b 6d82 643b 6e1c 8a3b
00000090: 8e95 043c 5622 793b 167d 7e3b aa9c 8b3b
000000a0: 45a3 883b ccb9 773b 8e34 fa3b 3638 8d3b
000000b0: 74f6 b4b8 eeb2 c9ba 354a 873b a887 5d39
000000c0: 4752 6d3b d77a 8a3b 1fae ae3b 1377 8a3b
000000d0: 8d13 873b e103 8d3b 3372 803b c766 893b
000000e0: 29cc 8a3b 1507 193b f9aa 843b e2f6 f43b
000000f0: 7a7a 8db8 eb36 253c 3cf0 7138 f71b 023c
00000100: 4a06 0e3c e83c 8b3b 3fd7 433b 3168 a73b
00000110: 0fa1 693b d71d 863b 5f94 873b aa28 f1bb
00000120: 07e1 873b f96b 843b 4504 b53a 35fd 873b
00000130: 2622 ba3b 906a 0f3c 05dc 8c3b aca0 8c3b
00000140: 6a3e 9a3b 2c78 433b 96e5 3bb9 1388 14b9
00000150: 87ef 813b d326 873b a45b bb3b c714 623b
00000160: e83b f73b e874 1e39 09fc 3d3f 4ceb c13b
00000170: e7a9 843b 0d98 8a3b 6d85 813b 82bf 803b
00000180: 9a5a e33b 2943 9838 e63e 8a3b 353d 893b
00000190: 4ab4 873b 1ce3 8c3b 4445 6f3b 87bd df3b
000001a0: 2a0a 03b9 3261 8d3b e337 903b e546 823b
000001b0: cfdb 7e3b 3602 753b 2575 663b 31b1 4b3b
000001c0: 761e cf3e ae45 8b3b b750 29b9 018b 7e3b
000001d0: 6896 043c e271 d53b 5154 873b ac2b 9f3b
000001e0: da63 633b 92c2 5f3b 0f44 543b a48a c4bb
000001f0: d417 873b c24e 303b 8ccb 1d3c aa9e 8b3b
0.0041821618 0.0034918983 0.004708365 0.0039571663 1.8109113e-05 -0.00016133164 0.008382326 0.0040155356
0.0043026214 0.004294997 0.009189529 0.4171239 0.0041804 0.003453303 0.003273904 0.003684888
-0.00022912107 0.0043622744 0.0031293053 0.0047645704 0.004153548 0.0027980758 0.004308757 0.004348159
0.004128479 -3.446045e-05 0.0048581176 0.0041229995 0.00433113 0.006958546 0.004009606 -0.00016336417
0.005731678 0.004280439 0.003486778 0.004214815 0.008092297 0.003801485 0.0038831881 0.004260619
0.004169854 0.0037799953 0.0076356595 0.0043096794 -8.628974e-05 -0.0015388408 0.004128719 0.00021126738
0.0036212371 0.0042260694 0.0053308154 0.0042256205 0.0041222037 0.004303441 0.0039198636 0.00419316
0.0042357636 0.0023350168 0.004048702 0.00747572 -6.746217e-05 0.010083894 5.7682613e-05 0.007941238
0.008668492 0.004249204 0.0029882935 0.005108856 0.0035648977 0.0040929127 0.0041375603 -0.007359584
0.0041466984 0.0040411917 0.0013810477 0.0041500577 0.0056803403 0.008753434 0.0042986893 0.0042916145
0.0047071474 0.0029826267 -0.00017919237 -0.00014165071 0.0039653215 0.0041245013 0.0057177115 0.0034497248
0.007544983 0.00015111605 0.742127 0.005917942 0.0040485743 0.0042295516 0.003952673 0.0039290795
0.006938291 7.260434e-05 0.004218924 0.0041882046 0.004141365 0.0042995345 0.0036509791 0.0068280133
-0.0001249692 0.004314565 0.0044011935 0.0039757364 0.003888834 0.003738535 0.0035165038 0.0031080956
0.40452927 0.00425025 -0.00016147165 0.0038840177 0.0080925 0.00651382 0.0041299243 0.004857501
0.0034696967 0.0034143073 0.00323892 -0.0059979726 0.0041227136 0.0026902412 0.009631049 0.0042608576

layer3.weight f4 [6, 128]
00000000: de6e 8a3a 8d5c 5f3b e3c0 423a 6dd5 f33a
00000010: 62f7 1439 ba8f 7a38 432f 2c3a 5b2f 823a
00000020: 6289 2d3a 998c 3a3a 4c69 6cb8 85e5 123f
00000030: 826f 583a 3302 963a 9261 723a 6f6d 8d3a
00000040: 22fa 94b6 9f68 cb3a 57ed a93a 9438 253a
00000050: f4aa 0b3a 4ad1 8739 76c3 5d3a 313f 513a
00000060: 9648 313a 9a2f 0db9 c290 593a 1211 493a
00000070: 3cee f339 8d6b a6ba cb28 823a 243f c7b8
00000080: 7dc7 0d3b 9ff5 7d3a 3039 a33a f7fe 5f3a
00000090: 0ec8 b539 4289 683a aceb d53a 5a78 383a
000000a0: f9f5 5b3a 991e 973a 3f5e ae39 f55d 6f3a
000000b0: 46ff 04b9 8e85 cb3a 6bfa eb39 3855 4e3a
000000c0: 73e8 813a 3a30 623a 49fd 493b 220a 803a
000000d0: e175 633a 4af6 193a 8030 623a 00fb 1e3a
000000e0: b488 b039 d65f 07bb 7069 9839 6d85 463b
000000f0: 43e3 e538 b4b9 a63a 7426 adb8 2a47 793a
00000100: db30 68bb 15a9 6e3a 8d53 af3a 37d3 373b
00000110: 6b6a 983a 6cbc 503a 4710 a63a 8351 0cbc
00000120: f4c2 6b3a e01f 5f3a dadc cc3a 4f9f ef39
00000130: 01b6 733a c014 be38 b94f 7c3a d9c3 743a
00000140: a5da 8139 79ee 1c3b 1535 06b9 5541 0139
00000150: 1e1e 753a 919c 853a b4e3 b23a bb95 323a
00000160: 2269 1aba 21a7 0636 3c1e 0e3f 797c 523a
00000170: ee0d 183a 9c76 0c3a a39d 233a c59f 583a
00000180: 124f fd39 f922 12b9 2b3c 703a 4367 213a
00000190: 0d7b 723a 5250 0e3a 7c92 a5ba 5c6c b43a
000001a0: 8749 0f39 248f 943a 1b49 563a 3029 14ba
000001b0: 0c3c 763a 93d2 8c3a c672 b03a ea45 763a
000001c0: c818 043e 19f1 5e3a 5a03 f5b8 32e0 cb3a
000001d0: ff79 0738 aebf c1ba f3fc 833a 0a4b 023a
000001e0: a07a 5c3a 0ac4 583a 5217 a23a 7776 e838
000001f0: c093 303a 61dd e23a b499 643a da0b c539
00000200: d2e8 223a ca06 033b d8c3 a73a 4fe4 353a
00000210: e2eb 8738 77bb 9e38 c802 a43b f86a e739
00000220: 41df 403a ea04 1f3a 7b94 0f3a 36f7 143f
00000230: 8a6d 083a 17b2 093a 0cb6 af39 987f 0b3a
00000240: 04a3 0139 20e4 763a d06b 3b3a f6f7 953a
00000250: bef1 483a 9817 f03a 12c4 3a3a b979 3f3a
00000260: 5e90 103a bb53 94b9 f218 c53a 5ec0 ff39
00000270: d09a 313a 7cf8 353a 7e5a d939 50ed c5b7
00000280: ad2e a83a 7ef6 4b3a abe0 ff39 a16f 463a
00000290: c1bd 603a 489d 603a 3303 113a 89ad 1f3a
000002a0: 4dac 183a d56b 6c3a 0e1f 723a 3258 343a
000002b0: f301 dfb8 040f 81ba 622f 003a 6cb3 cf3a
000002c0: 1999 343a 60dc e739 86cd f53a e454 513a
000002d0: ad9f 5d3a c5dc 323a 747a 403a 16cc 3f3a
000002e0: 9f7c 433a 5225 8cba 5be8 a63a 607e f03a
000002f0: aa9b 3239 2161 0c3b 8d27 b1b7 d140 863b
00000300: f08e 99ba c0c3 073a 98fe b83a c88c 5b3b
00000310: 7da9 2a3a 23ec f839 38d6 2e3a c5a9 9abb
00000320: 4248 033a 28a0 033a 7fe3 93ba 843d 473a
00000330: 8e48 333a 1450 783a aa78 333a 1512 0e3a
00000340: 6920 0f3a 6f1c 33bb ffde f836 344d c837
00000350: d4cb ff39 8427 183a 8a24 b23a 977e 153a
00000360: 003e ba38 dbcb 7836 cfd5 0a3f 9e12 673a
00000370: 9505 413a c129 433a dbe0 513a d87e 003a
00000380: b0e1 1839 718a f538 57b0 483a 1c61 3f3a
00000390: 51c1 123a 614c 3b3a 9aa2 383a 768d 243b
000003a0: 9af9 a738 ad3e 2b3a 0c0f 533a 93ff 103b
000003b0: a0f8 0b3a 138a 163a beb7 b839 98c5 013a
000003c0: c049 1c3e 1360 103a 4669 ceb7 9660 6f3a
000003d0: 6ccd 343a 1583 15bb 998a 8e39 bb0c f93a
000003e0: 3333 a439 9509 d439 6b86 273a 50ad 6eba
000003f0: e641 d639 8359 d13a e11e 983a 4060 ca39
0.0010561605 0.0034082264 0.0007429255 0.0018603035 0.00014206537 5.97385e-05 0.0006568322 0.0009932326
0.0006619898 0.00071162876 -5.636485e-05 0.5738147 0.0008256362 0.0011444747 0.00092461065 0.001079006
-4.439863e-06 0.001551885 0.001296441 0.0006302681 0.0005327903 0.0002590514 0.0008459607 0.00079821335
0.00067628303 -0.00013464541 0.00082994637 0.0007670085 0.0004652607 -0.0012696848 0.000993037 -9.50082e-05
0.0021633797 0.00096877845 0.0012452956 0.00085447676 0.00034672063 0.00088705507 0.0016320846 0.0007036977
0.000839084 0.0011529505 0.00033258085 0.0009131127 -0.00012683598 0.0015527473 0.0004500927 0.0007870975
0.0009911194 0.0008628402 0.0030821136 0.0009768645 0.0008676928 0.0005873187 0.0008628443 0.00060646236
0.00033671188 -0.0020656488 0.00029070256 0.003029193 0.00010961902 0.0012720139 -8.256445e-05 0.00095092005
-0.003542951 0.00091041747 0.001337634 0.0028049478 0.0011628395 0.00079626474 0.0012669646 -0.008564356
0.0008993589 0.00085115246 0.0015629784 0.00045704326 0.0009296835 9.063771e-05 0.0009624917 0.0009337045
0.000247677 0.0023945852 -0.0001279901 0.00012326737 0.0009350496 0.0010193755 0.0013648183 0.0006812473
-0.00058903 2.0064838e-06 0.55514884 0.0008029412 0.00058004155 0.00053582503 0.0006241446 0.00082635536
0.00048314832 -0.00013936673 0.0009164239 0.000615705 0.00092499034 0.0005428839 -0.0012632157 0.0013765204
0.00013664934 0.0011334163 0.0008174346 -0.00056518894 0.0009393103 0.0010743908 0.001346194 0.0009394573
0.12900078 0.0008504554 -0.00011683135 0.0015554486 3.2300126e-05 -0.0014781856 0.0010069892 0.0004970288
0.00084106065 0.0008268958 0.0012366569 0.00011084688 0.00067358837 0.0017308408 0.00087204133 0.00037583598
0.00062145025 0.001999306 0.0012799455 0.00069386227 6.481238e-05 7.568945e-05 0.0050052144 0.0004413945
0.0007357486 0.0006066101 0.00054771424 0.58189714 0.0005204311 0.00052526727 0.00033514237 0.0005321442
0.00012363127 0.00094181485 0.0007149549 0.0011441696 0.0007665417 0.0018317578 0.00071245537 0.000730421
0.00055146764 -0.00028291144 0.0015037342 0.00048780715 0.0006775083 0.0006941629 0.00041456887 -2.3594737e-05
0.0012831293 0.00077805656 0.0004880478 0.00075697346 0.00085731974 0.00085683586 0.0005531788 0.00060912274
0.00058240147 0.0009018754 0.0009236195 0.0006879597 -0.00010633832 -0.0009846394 0.0004889873 0.0015846319
0.00068892684 0.00044223946 0.0018753267 0.0007985367 0.00084542745 0.00068230584 0.00073424657 0.0007316483
0.00074572297 -0.0010692275 0.0012734042 0.001834821 0.00017033392 0.0021420198 -2.1118462e-05 0.004097082
-0.0011715572 0.00051790103 0.0014113961 0.003350066 0.0006510241 0.00047478182 0.00066694943 -0.004719945
0.00050080207 0.00050211186 -0.0011283009 0.0007600414 0.00068391196 0.0009472382 0.00068462885 0.00054195645
0.00054598466 -0.002733018 7.416936e-06 2.3877808e-05 0.00048789254 0.0005804228 0.0013591212 0.0005702762
8.8807195e-05 3.707354e-06 0.54232496 0.0008814725 0.00073631975 0.00074448815 0.00080062234 0.00049017137
0.00014579925 0.00011708297 0.0007655671 0.0007300542 0.00055982644 0.0007144865 0.00070432725 0.0025108731
8.0096725e-05 0.0006532472 0.00080512534 0.002212499 0.0005339477 0.00057426206 0.00035232113 0.0004950403
0.15262508 0.000550748 -2.4606135e-05 0.0009131519 0.00068970653 -0.0022813727 0.00027187614 0.0019000986
0.00031318664 0.0004044293 0.0006390574 -0.0009104805 0.0004086636 0.0015972111 0.0011605882 0.00038600154

layer3.bias f4 [6]
00000000: 421f 7a3e 6514 1e3e e479 7a3e 90a5 3d3e
00000010: 4aa1 7f3e 20ad 593d
0.24425986 0.15437467 0.2446056 0.18520188 0.2496387 0.05314362
