models/380000-trained_model-17-18_01.pth (torch, 79239 bytes, 6 tensors)

layer1.weight f4 [128, 14]
82.95192 85.52596 84.16385 86.591896 82.90182 86.74719 82.43846 83.46151
83.23669 82.168526 82.44051 79.954025 83.149124 83.48639 80.700226 83.217445
82.72751 85.18921 80.67431 86.74719 80.936264 82.79151 81.99384 81.579124
80.69074 79.05912 82.23033 81.707565 82.94777 85.517815 84.14231 86.58961
82.90606 86.74719 82.41861 83.458885 83.221214 82.13181 82.42542 79.95506
83.14537 83.476425 82.95679 85.52172 84.17684 86.59109 82.903145 86.74719
82.461 83.46888 83.22277 82.13349 82.42608 79.93979 83.1411 83.47879
82.960846 85.51896 84.11381 86.589485 82.88033 86.74719 82.28754 83.469
83.19045 82.08644 82.42832 79.94826 83.11467 83.38666 82.86191 85.42303
84.12098 86.58929 82.86593 86.74719 82.452194 83.44137 83.22964 82.17747
82.44225 79.86403 83.03291 83.48587 82.928375 85.500084 84.12638 86.58961
82.891975 86.74719 82.469345 83.46911 83.200356 82.136665 82.404655 79.905334
83.15877 83.48831 82.88995 85.4506 84.12372 86.59028 82.87 86.74719
82.47443 83.46328 83.22431 82.124794 82.445656 79.94539 83.117325 83.48831
82.95897 85.51685 84.115654 86.593346 82.90464 86.74719 82.41438 83.45779
83.241585 82.15424 82.4287 79.94687 83.12193 83.476425 82.96086 85.51311
84.12493 86.58929 82.83265 86.74719 82.40372 83.46601 83.21775 82.16027
82.42402 79.95024 83.07884 83.45505 80.294945 82.82751 80.541985 83.4001
79.38475 86.74709 80.95128 81.33869 81.36175 80.287224 79.66778 79.05912
80.78876 81.252075 82.96028 85.513466 84.149345 86.59254 82.9054 86.74719
82.45978 83.46911 83.2293 82.17196 82.44015 79.94745 83.1566 83.48723
82.96086 85.5259 84.17205 86.59371 82.88398 86.74719 82.461685 83.469
83.22924 82.16869 82.42548 79.943726 83.1436 83.47804 82.710205 85.11822
83.812584 86.58324 82.64251 86.74719 82.18643 83.39834 83.0257 82.08728
82.30068 79.77919 82.8788 83.22296 82.96086 85.521576 84.15304 86.59051
82.90606 86.74719 82.39905 83.45908 83.23165 82.13065 82.425896 79.945724
83.13695 83.47305 82.948135 85.521645 84.151085 86.5922 82.90583 86.74719
82.46335 83.46935 83.2311 82.16541 82.43734 79.959 83.15341 83.48364
82.94879 85.49659 84.1287 86.58929 82.894646 86.74719 82.47171 83.46821
83.25179 82.167076 82.44448 79.95981 83.154236 83.487915 -0.0004199228 -0.0019193424
0.0019753156 0.0007925056 -0.0021745053 -0.0009288176 -0.0013858046 -0.00041558756 -0.0014693076 -0.0018837793
-0.0012354153 0.0007896741 -0.0017994173 -0.0015600116 82.95549 85.522865 84.15354 86.58961
00000000: 62e7 a542 4b0d ab42 e453 a842 0d2f ad42
00000010: bbcd a542 907e ad42 7ee0 a442 4bec a642
00000020: 2f79 a642 4956 a442 8be1 a442 76e8 9f42
00000030: 5a4c a642 08f9 a642 8466 a142 556f a642
00000040: 7c74 a542 e060 aa42 3f59 a142 907e ad42
00000050: 5edf a142 4195 a542 d9fc a342 8328 a342
00000060: a961 a142 451e 9e42 ee75 a442 466a a342
00000070: 42e5 a542 1f09 ab42 dd48 a842 e12d ad42
00000080: e7cf a542 907e ad42 54d6 a442 f3ea a642
00000090: 4371 a642 7d43 a442 d1d9 a442 fee8 9f42
000000a0: 6e4a a642 eef3 a642 e0e9 a542 1f0b ab42
000000b0: 8b5a a842 a32e ad42 69ce a542 907e ad42
000000c0: 08ec a442 11f0 a642 0f72 a642 5944 a442
000000d0: 27da a442 2ce1 9f42 3e48 a642 24f5 a642
000000e0: f4eb a542 b509 ab42 453a a842 d12d ad42
000000f0: bbc2 a542 907e ad42 3893 a442 21f0 a642
00000100: 8361 a642 422c a442 4ddb a442 82e5 9f42
00000110: b63a a642 f8c5 a642 4cb9 a542 97d8 aa42
00000120: f13d a842 b72d ad42 5bbb a542 907e ad42
00000130: 86e7 a442 fbe1 a642 9375 a642 dd5a a442
00000140: 6fe2 a442 62ba 9f42 da10 a642 c4f8 a642
00000150: 54db a542 0b00 ab42 b540 a842 e12d ad42
00000160: b1c8 a542 907e ad42 4ef0 a442 2ff0 a642
00000170: 9566 a642 f945 a442 2fcf a442 88cf 9f42
00000180: 4a51 a642 04fa a642 a8c7 a542 b5e6 aa42
00000190: 583f a842 392e ad42 71bd a542 907e ad42
000001a0: e8f2 a442 33ed a642 d972 a642 e53f a442
000001b0: 2de4 a442 0ae4 9f42 123c a642 04fa a642
000001c0: feea a542 a108 ab42 373b a842 cb2f ad42
000001d0: 2dcf a542 907e ad42 2ad4 a442 63ea a642
000001e0: b17b a642 f94e a442 7fdb a442 cce4 9f42
000001f0: 6e3e a642 eef3 a642 f6eb a542 b606 ab42
00000200: f73f a842 b72d ad42 51aa a542 907e ad42
00000210: b4ce a442 99ee a642 7d6f a642 0f52 a442
00000220: 19d9 a442 86e6 9f42 5e28 a642 fce8 a642
00000230: 0397 a042 afa7 a542 7f15 a142 dacc a642
00000240: fec4 9e42 837e ad42 0ee7 a142 69ad a242
00000250: 37b9 a242 0f93 a042 e755 9f42 451e 9e42
00000260: d893 a142 1081 a242 aaeb a542 e506 ab42
00000270: 774c a842 612f ad42 91cf a542 907e ad42
00000280: 68eb a442 2ff0 a642 6775 a642 0b58 a442
00000290: 5be1 a442 18e5 9f42 2e50 a642 76f9 a642
000002a0: f6eb a542 430d ab42 1758 a842 fb2f ad42
000002b0: 99c4 a542 907e ad42 62ec a442 21f0 a642
000002c0: 5f75 a642 5f56 a442 d9d9 a442 30e3 9f42
000002d0: 8649 a642 c2f4 a642 a06b a542 873c aa42
000002e0: 0ba0 a742 9e2a ad42 f748 a542 907e ad42
000002f0: 745f a442 f3cb a642 290d a642 b02c a442
00000300: f399 a442 f28e 9f42 f2c1 a542 2872 a642
00000310: f6eb a542 0c0b ab42 5b4e a842 572e ad42
00000320: e7cf a542 907e ad42 50cc a442 0deb a642
00000330: 9b76 a642 e542 a442 0fda a442 36e4 9f42
00000340: 1e46 a642 34f2 a642 72e5 a542 150b ab42
00000350: 5b4d a842 352f ad42 c9cf a542 907e ad42
00000360: 3ced a442 4ff0 a642 5376 a642 b154 a442
00000370: ebdf a442 02eb 9f42 8c4e a642 a0f7 a642
00000380: c8e5 a542 41fe aa42 e541 a842 b72d ad42
00000390: 0fca a542 907e ad42 84f1 a442 b9ef a642
000003a0: eb80 a642 8b55 a442 93e3 a442 6ceb 9f42
000003b0: f84e a642 d0f9 a642 1629 dcb9 7292 fbba
000003c0: 4c74 013b 27c0 4f3a 2582 0ebb e57b 73ba
000003d0: e3a3 b5ba 38e3 d9b9 c895 c0ba 25e9 f6ba
000003e0: a9ed a1ba 2202 4f3a 6dda ebba 4e79 ccba
000003f0: 36e9 a542 b50b ab42 9d4e a842 e12d ad42

layer1.bias f4 [128]
86.61772 86.61772 86.61772 86.61772 86.61772 86.61772 86.61772 86.61772
86.61772 86.61772 86.61772 86.61772 86.61772 86.61772 86.61772 86.61772
86.61772 -0.002077865 86.61772 86.61772 86.61772 86.61772 86.61772 86.61772
86.61772 86.61772 86.61772 86.61772 86.61772 86.61772 86.61772 86.61772
86.61772 86.61772 86.61772 86.61772 86.61772 86.61772 86.61772 86.61772
86.61772 86.61772 86.61772 86.61772 86.61772 86.61772 86.61772 86.61772
86.61772 86.61772 86.61772 86.61772 86.61772 86.61772 86.61772 86.61772
86.61772 86.61772 -1.112803 86.61772 86.61772 86.61772 86.61772 86.61772
86.61772 86.61772 86.61772 86.61772 86.61772 86.61772 86.61772 86.61772
86.61772 4.2448535 86.61772 86.61772 86.61772 86.61772 86.61772 86.61772
86.61772 86.61772 86.61772 86.61772 86.61772 86.61772 86.61772 86.61772
86.61772 86.61772 86.61772 86.61772 86.61772 86.61772 86.61772 86.61772
86.61772 86.61772 86.61772 86.61772 86.61772 86.61772 86.61772 86.61772
86.61772 86.61772 86.61772 86.61772 86.61772 86.61772 0.0014578312 86.61772
86.61772 86.61772 86.61772 86.61772 86.61772 86.61772 86.61772 86.61772
86.61772 86.61772 86.61772 86.61772 86.61772 86.61772 86.61772 86.61772
00000000: 463c ad42 463c ad42 463c ad42 463c ad42
00000010: 463c ad42 463c ad42 463c ad42 463c ad42
00000020: 463c ad42 463c ad42 463c ad42 463c ad42
00000030: 463c ad42 463c ad42 463c ad42 463c ad42
00000040: 463c ad42 ca2c 08bb 463c ad42 463c ad42
00000050: 463c ad42 463c ad42 463c ad42 463c ad42
00000060: 463c ad42 463c ad42 463c ad42 463c ad42
00000070: 463c ad42 463c ad42 463c ad42 463c ad42
00000080: 463c ad42 463c ad42 463c ad42 463c ad42
00000090: 463c ad42 463c ad42 463c ad42 463c ad42
000000a0: 463c ad42 463c ad42 463c ad42 463c ad42
000000b0: 463c ad42 463c ad42 463c ad42 463c ad42
000000c0: 463c ad42 463c ad42 463c ad42 463c ad42
000000d0: 463c ad42 463c ad42 463c ad42 463c ad42
000000e0: 463c ad42 463c ad42 5470 8ebf 463c ad42
000000f0: 463c ad42 463c ad42 463c ad42 463c ad42
00000100: 463c ad42 463c ad42 463c ad42 463c ad42
00000110: 463c ad42 463c ad42 463c ad42 463c ad42
00000120: 463c ad42 d7d5 8740 463c ad42 463c ad42
00000130: 463c ad42 463c ad42 463c ad42 463c ad42
00000140: 463c ad42 463c ad42 463c ad42 463c ad42
00000150: 463c ad42 463c ad42 463c ad42 463c ad42
00000160: 463c ad42 463c ad42 463c ad42 463c ad42
00000170: 463c ad42 463c ad42 463c ad42 463c ad42
00000180: 463c ad42 463c ad42 463c ad42 463c ad42
00000190: 463c ad42 463c ad42 463c ad42 463c ad42
000001a0: 463c ad42 463c ad42 463c ad42 463c ad42
000001b0: 463c ad42 463c ad42 b314 bf3a 463c ad42
000001c0: 463c ad42 463c ad42 463c ad42 463c ad42
000001d0: 463c ad42 463c ad42 463c ad42 463c ad42
000001e0: 463c ad42 463c ad42 463c ad42 463c ad42
000001f0: 463c ad42 463c ad42 463c ad42 463c ad42

layer2.weight f4 [128, 128]
86.61807 86.61787 86.618095 86.6181 86.618225 86.6181 86.61808 86.61809
86.61811 86.61813 86.618576 86.61809 86.61808 86.6182 86.61811 86.61809
86.6181 -5.6853623e-05 86.618095 86.618095 86.61808 86.618774 86.618195 86.618256
86.61837 86.61816 86.61809 86.61808 86.61811 86.6181 86.61808 86.6182
86.61809 86.618095 86.61808 86.61808 86.61809 86.61821 86.61807 86.61808
86.6181 86.61822 86.6181 86.61808 86.618126 86.61831 86.61808 86.61811
86.61818 86.61809 86.61808 86.618065 86.61808 86.61808 86.61809 86.61808
86.61859 86.61811 -10.522958 86.618484 86.61809 86.618095 86.618164 86.618095
86.61851 86.618515 86.61809 86.618195 86.6181 86.61809 86.618095 86.618416
86.61809 -44.201855 86.61808 86.61809 86.61809 86.61807 86.618195 86.61809
86.6181 86.61808 86.61808 86.6181 86.61814 86.618126 86.61856 86.61823
86.6181 86.618546 86.618095 86.61875 86.61809 86.61811 86.61814 86.6181
86.6181 86.6181 86.618095 86.61839 86.61809 86.61815 86.61837 86.61809
86.618095 86.61809 86.61807 86.61807 86.618095 86.61875 -0.00055601745 86.618195
86.6181 86.61809 86.61893 86.61811 86.618095 86.618095 86.61808 86.618095
86.61809 86.61809 86.618095 86.61809 86.61811 86.61825 86.61831 86.61807
86.61796 86.61775 86.618 86.61798 86.61803 86.61799 86.618 86.61797
86.61799 86.61802 86.61847 86.617966 86.617966 86.61805 86.61799 86.61797
86.61797 -0.00016586824 86.618 86.61798 86.61798 86.61855 86.61809 86.61805
86.6182 86.61801 86.617966 86.61796 86.617966 86.617966 86.61797 86.61807
86.61797 86.61802 86.617966 86.61798 86.61797 86.61802 86.617966 86.61797
86.61797 86.61811 86.617966 86.61797 86.61792 86.61815 86.617966 86.61799
86.61798 86.61797 86.61797 86.61797 86.617966 86.61797 86.61797 86.617966
86.61841 86.618004 -10.29659 86.61833 86.617966 86.617966 86.618034 86.61797
86.618286 86.618355 86.61798 86.61801 86.61798 86.618 86.61796 86.618225
86.617966 -45.113735 86.61797 86.617966 86.61798 86.61796 86.618034 86.61798
86.617966 86.61798 86.617966 86.61796 86.61798 86.61803 86.61846 86.618004
86.61799 86.6184 86.61798 86.61854 86.61797 86.61801 86.61801 86.617966
86.61799 86.61789 86.61796 86.61816 86.61798 86.61799 86.61817 86.61796
86.61797 86.61798 86.61796 86.61786 86.618 86.61858 0.00042172085 86.61803
86.61798 86.61797 86.618835 86.618004 86.61799 86.61796 86.617966 86.617966
86.61799 86.617966 86.617966 86.61797 86.61797 86.6181 86.61818 86.61797
00000000: 743c ad42 593c ad42 773c ad42 783c ad42
00000010: 883c ad42 783c ad42 753c ad42 763c ad42
00000020: 793c ad42 7c3c ad42 b63c ad42 763c ad42
00000030: 753c ad42 853c ad42 793c ad42 763c ad42
00000040: 783c ad42 1d76 6eb8 773c ad42 773c ad42
00000050: 753c ad42 d03c ad42 843c ad42 8c3c ad42
00000060: 9b3c ad42 7f3c ad42 763c ad42 753c ad42
00000070: 793c ad42 783c ad42 753c ad42 853c ad42
00000080: 763c ad42 773c ad42 753c ad42 753c ad42
00000090: 763c ad42 863c ad42 743c ad42 753c ad42
000000a0: 783c ad42 873c ad42 783c ad42 753c ad42
000000b0: 7b3c ad42 933c ad42 753c ad42 793c ad42
000000c0: 823c ad42 763c ad42 753c ad42 733c ad42
000000d0: 753c ad42 753c ad42 763c ad42 753c ad42
000000e0: b83c ad42 793c ad42 095e 28c1 aa3c ad42
000000f0: 763c ad42 773c ad42 803c ad42 773c ad42
00000100: ad3c ad42 ae3c ad42 763c ad42 843c ad42
00000110: 783c ad42 763c ad42 773c ad42 a13c ad42
00000120: 763c ad42 b3ce 30c2 753c ad42 763c ad42
00000130: 763c ad42 743c ad42 843c ad42 763c ad42
00000140: 783c ad42 753c ad42 753c ad42 783c ad42
00000150: 7d3c ad42 7b3c ad42 b43c ad42 893c ad42
00000160: 783c ad42 b23c ad42 773c ad42 cd3c ad42
00000170: 763c ad42 793c ad42 7d3c ad42 783c ad42
00000180: 783c ad42 783c ad42 773c ad42 9e3c ad42
00000190: 763c ad42 7e3c ad42 9b3c ad42 763c ad42
000001a0: 773c ad42 763c ad42 743c ad42 743c ad42
000001b0: 773c ad42 cd3c ad42 b3c1 11ba 843c ad42
000001c0: 783c ad42 763c ad42 e43c ad42 793c ad42
000001d0: 773c ad42 773c ad42 753c ad42 773c ad42
000001e0: 763c ad42 763c ad42 773c ad42 763c ad42
000001f0: 793c ad42 8b3c ad42 933c ad42 743c ad42
00000200: 653c ad42 4a3c ad42 6a3c ad42 683c ad42
00000210: 6e3c ad42 693c ad42 6a3c ad42 673c ad42
00000220: 693c ad42 6d3c ad42 a83c ad42 663c ad42
00000230: 663c ad42 713c ad42 693c ad42 673c ad42
00000240: 673c ad42 ebec 2db9 6a3c ad42 683c ad42
00000250: 683c ad42 b33c ad42 763c ad42 713c ad42
00000260: 853c ad42 6c3c ad42 663c ad42 653c ad42
00000270: 663c ad42 663c ad42 673c ad42 743c ad42
00000280: 673c ad42 6d3c ad42 663c ad42 683c ad42
00000290: 673c ad42 6d3c ad42 663c ad42 673c ad42
000002a0: 673c ad42 793c ad42 663c ad42 673c ad42
000002b0: 603c ad42 7e3c ad42 663c ad42 693c ad42
000002c0: 683c ad42 673c ad42 673c ad42 673c ad42
000002d0: 663c ad42 673c ad42 673c ad42 663c ad42
000002e0: a03c ad42 6b3c ad42 d5be 24c1 963c ad42
000002f0: 663c ad42 663c ad42 6f3c ad42 673c ad42
00000300: 903c ad42 993c ad42 683c ad42 6c3c ad42
00000310: 683c ad42 6a3c ad42 653c ad42 883c ad42
00000320: 663c ad42 7774 34c2 673c ad42 663c ad42
00000330: 683c ad42 653c ad42 6f3c ad42 683c ad42
00000340: 663c ad42 683c ad42 663c ad42 653c ad42
00000350: 683c ad42 6e3c ad42 a73c ad42 6b3c ad42
00000360: 693c ad42 9f3c ad42 683c ad42 b13c ad42
00000370: 673c ad42 6c3c ad42 6c3c ad42 663c ad42
00000380: 693c ad42 5c3c ad42 653c ad42 7f3c ad42
00000390: 683c ad42 693c ad42 813c ad42 653c ad42
000003a0: 673c ad42 683c ad42 653c ad42 583c ad42
000003b0: 6a3c ad42 b73c ad42 6a1a dd39 6e3c ad42
000003c0: 683c ad42 673c ad42 d83c ad42 6b3c ad42
000003d0: 693c ad42 653c ad42 663c ad42 663c ad42
000003e0: 693c ad42 663c ad42 663c ad42 673c ad42
000003f0: 673c ad42 783c ad42 823c ad42 673c ad42

layer2.bias f4 [128]
60.194798 60.207294 60.054947 9.746586e-05 60.155945 60.205597 60.208927 60.208843
60.18561 60.211533 60.21373 60.198105 -0.00057743816 60.20931 60.19939 60.20915
60.197502 -0.00074840186 60.05667 60.206432 60.183643 60.21028 60.063774 60.068016
60.023926 60.206223 60.21038 60.123188 60.206734 60.207558 60.20971 60.20709
60.171593 60.206226 60.059566 60.15271 60.208633 60.181564 60.209255 60.21637
60.15766 0.00020146879 60.209213 60.206783 60.19852 60.07235 60.208023 60.218246
60.207344 60.191956 60.058697 60.077435 60.21053 60.206078 60.01754 60.14614
60.19618 60.19748 60.210648 -0.00035971342 60.2093 60.200104 60.218494 60.198914
60.20498 60.013195 60.206818 60.211674 60.216347 60.211655 60.202583 60.209385
-0.0008808753 60.202858 60.20902 0.00033783095 60.22001 60.19125 60.21317 60.21061
60.20852 -0.00034554038 60.212914 60.113766 60.193542 60.198853 60.19977 0.00048822255
60.04666 60.20047 60.205364 60.0366 60.20789 60.182644 60.209835 60.04286
60.213318 60.217297 60.19985 60.202034 60.034805 -0.00076969643 60.20655 60.056747
60.12387 60.0673 60.197346 -0.00071143935 60.215004 60.189465 60.21515 60.208904
60.093475 60.20356 60.207733 60.199524 60.203827 60.20744 0.0006303436 60.198902
60.199314 60.21019 60.213177 60.19956 60.081512 60.2091 60.20227 60.213326
00000000: 79c7 7042 45d4 7042 4438 7042 9666 cc38
00000010: b09f 7042 88d2 7042 f1d5 7042 dbd5 7042
00000020: 11be 7042 9cd8 7042 dcda 7042 dcca 7042
00000030: 385f 17ba 55d6 7042 2dcc 7042 2bd6 7042
00000040: 3eca 7042 6630 44ba 083a 7042 63d3 7042
00000050: 0dbc 7042 54d7 7042 4e41 7042 a645 7042
00000060: 8018 7042 2cd3 7042 6ed7 7042 257e 7042
00000070: b2d3 7042 8ad4 7042 bed6 7042 0fd4 7042
00000080: b6af 7042 2dd3 7042 ff3c 7042 609c 7042
00000090: a4d5 7042 ecb9 7042 47d6 7042 90dd 7042
000000a0: 72a1 7042 5e41 5339 3cd6 7042 bfd3 7042
000000b0: 49cb 7042 164a 7042 04d5 7042 7cdf 7042
000000c0: 52d4 7042 90c4 7042 1b3c 7042 4b4f 7042
000000d0: 95d7 7042 06d3 7042 f611 7042 a695 7042
000000e0: e3c8 7042 38ca 7042 b4d7 7042 eb97 bcb9
000000f0: 53d6 7042 e8cc 7042 bddf 7042 b0cb 7042
00000100: e6d1 7042 830d 7042 c8d3 7042 c1d8 7042
00000110: 8add 7042 bcd8 7042 72cf 7042 69d6 7042
00000120: 8aea 66ba bacf 7042 09d6 7042 e71e b139
00000130: 4ae1 7042 d7c3 7042 49da 7042 aad7 7042
00000140: 86d5 7042 a529 b5b9 06da 7042 7f74 7042
00000150: 30c6 7042 a0cb 7042 91cc 7042 1ff8 ff39
00000160: c82f 7042 48cd 7042 4bd2 7042 7a25 7042
00000170: e1d4 7042 07bb 7042 dfd6 7042 e32b 7042
00000180: 70da 7042 83de 7042 a5cc 7042 e2ce 7042
00000190: a423 7042 74c5 49ba 82d3 7042 1c3a 7042
000001a0: d87e 7042 ea44 7042 15ca 7042 e37f 3aba
000001b0: 2adc 7042 03c2 7042 50dc 7042 ebd5 7042
000001c0: b85f 7042 72d0 7042 b8d4 7042 50cc 7042
000001d0: b8d0 7042 6bd4 7042 a53d 253a adcb 7042
000001e0: 19cc 7042 3cd7 7042 4bda 7042 59cc 7042
000001f0: 7853 7042 1ed6 7042 20cf 7042 72da 7042

layer3.weight f4 [6, 128]
62.718746 62.69687 62.658028 0.002639684 62.703773 62.699055 62.697327 62.69763
62.702477 62.6841 62.693283 62.71789 -4.7360205e-05 62.69434 62.701225 62.697937
62.69312 -0.00018680413 62.66911 62.69777 62.667362 62.698906 62.666092 62.65264
62.6464 62.695747 62.69529 62.668633 62.694645 62.6972 62.69768 62.70354
62.706795 62.69757 62.668137 62.68174 62.69751 62.707306 62.70106 62.69597
62.6996 -0.00071448786 62.69729 62.697304 62.699287 62.644016 62.698086 62.684853
62.69602 62.69604 62.666225 62.655045 62.697334 62.69874 62.660973 62.636497
62.697342 62.701603 62.69695 -0.00015227124 62.696987 62.69774 62.696953 62.704468
62.70017 62.644684 62.700428 62.698746 62.67532 62.69467 62.697685 62.697273
-0.011094891 62.70304 62.69694 0.00911488 62.68914 62.69899 62.70149 62.69711
62.699257 -4.4086395e-05 62.69883 62.714767 62.701805 62.694454 62.699154 0.00067445013
62.65497 62.701153 62.697506 62.658474 62.697075 62.702827 62.695732 62.657795
62.697105 62.69428 62.699173 62.70088 62.66236 -0.00062996283 62.69745 62.661736
62.662422 62.643433 62.70057 -0.0006644526 62.696888 62.701206 62.69751 62.697845
62.707817 62.695686 62.695972 62.70356 62.699223 62.697754 -0.00026827052 62.701183
62.68964 62.695976 62.69815 62.700813 62.67662 62.697777 62.697178 62.69707
62.626556 62.62052 62.566185 0.0015454423 62.58916 62.61941 62.616783 62.616333
62.61637 62.620926 62.592163 62.615158 0.0001135587 62.604 62.61115 62.616528
62.61198 0.0023850494 62.579453 62.616783 62.619766 62.607224 62.57622 62.566616
62.563015 62.617672 62.613983 62.62026 62.616547 62.617996 62.619453 62.618248
62.60518 62.61964 62.5778 62.62364 62.6178 62.576668 62.61909 62.616516
62.606464 -0.00020845637 62.617226 62.6168 62.613903 62.586937 62.616245 62.59935
62.618786 62.608467 62.57745 62.568855 62.61827 62.619698 62.564167 62.56167
62.606968 62.614246 62.6174 -2.9514757e-05 62.597107 62.61481 62.618233 62.610077
62.616398 62.563038 62.615223 62.616795 62.58869 62.619076 62.616302 62.618587
-0.0027904422 62.621784 62.615723 -0.00042882335 62.619606 62.619423 62.608627 62.616062
62.618702 0.00018786435 62.619217 62.608433 62.617397 62.616787 62.613605 0.0005639244
62.564816 62.61399 62.614723 62.56917 62.61813 62.621803 62.61714 62.5721
62.61195 62.61299 62.61165 62.61237 62.573124 -0.00010608932 62.6169 62.568344
62.627087 62.56512 62.613316 -5.670515e-06 62.619404 62.618725 62.618713 62.619114
62.56238 62.621998 62.617294 62.6147 62.60149 62.617874 -0.0004901461 62.611427
62.601532 62.61479 62.61638 62.61299 62.58085 62.618267 62.619766 62.61862
00000000: ffdf 7a42 98c9 7a42 d2a1 7a42 8cfe 2c3b
00000010: aad0 7a42 d5cb 7a42 10ca 7a42 60ca 7a42
00000020: 56cf 7a42 85bc 7a42 ecc5 7a42 1fdf 7a42
00000030: a2a4 46b8 01c7 7a42 0ece 7a42 b0ca 7a42
00000040: c1c5 7a42 dae0 43b9 2bad 7a42 84ca 7a42
00000050: 61ab 7a42 aecb 7a42 14aa 7a42 4e9c 7a42
00000060: ea95 7a42 72c8 7a42 fac7 7a42 aeac 7a42
00000070: 51c7 7a42 efc9 7a42 6dca 7a42 6dd0 7a42
00000080: c2d3 7a42 50ca 7a42 2cac 7a42 1aba 7a42
00000090: 40ca 7a42 48d4 7a42 e3cd 7a42 acc8 7a42
000000a0: 64cc 7a42 784c 3bba 06ca 7a42 0aca 7a42
000000b0: 12cc 7a42 7993 7a42 d7ca 7a42 4abd 7a42
000000c0: b9c8 7a42 bfc8 7a42 37aa 7a42 c49e 7a42
000000d0: 12ca 7a42 82cb 7a42 d6a4 7a42 c68b 7a42
000000e0: 14ca 7a42 71ce 7a42 adc9 7a42 00ab 1fb9
000000f0: b7c9 7a42 7cca 7a42 aec9 7a42 60d1 7a42
00000100: f9cc 7a42 2894 7a42 3dcd 7a42 84cb 7a42
00000110: 87b3 7a42 58c7 7a42 6eca 7a42 02ca 7a42
00000120: 58c7 35bc eacf 7a42 abc9 7a42 9456 153c
00000130: aec1 7a42 c4cb 7a42 53ce 7a42 d7c9 7a42
00000140: 0acc 7a42 68e9 38b8 9acb 7a42 ecdb 7a42
00000150: a6ce 7a42 1fc7 7a42 efcb 7a42 95cd 303a
00000160: b09e 7a42 fbcd 7a42 3fca 7a42 47a2 7a42
00000170: cec9 7a42 b2cf 7a42 6ec8 7a42 95a1 7a42
00000180: d6c9 7a42 f1c6 7a42 f4cb 7a42 b3cd 7a42
00000190: 42a6 7a42 1724 25ba 30ca 7a42 9ea5 7a42
000001a0: 52a6 7a42 e092 7a42 62cd 7a42 a92e 2eba
000001b0: 9dc9 7a42 09ce 7a42 40ca 7a42 98ca 7a42
000001c0: ced4 7a42 62c8 7a42 adc8 7a42 72d0 7a42
000001d0: 01cc 7a42 80ca 7a42 a9a6 8cb9 03ce 7a42
000001e0: 31c2 7a42 aec8 7a42 e8ca 7a42 a2cd 7a42
000001f0: dcb4 7a42 86ca 7a42 e9c9 7a42 cdc9 7a42
00000200: 9881 7a42 6a7b 7a42 c643 7a42 7090 ca3a
00000210: 4d5b 7a42 477a 7a42 9677 7a42 2077 7a42
00000220: 2a77 7a42 d47b 7a42 605e 7a42 ec75 7a42
00000230: 5d26 ee38 7f6a 7a42 d171 7a42 5377 7a42
00000240: ab72 7a42 7d4e 1c3b 5c51 7a42 9677 7a42
00000250: a47a 7a42 cc6d 7a42 0d4e 7a42 3744 7a42
00000260: 8740 7a42 7f78 7a42 b874 7a42 257b 7a42
00000270: 5877 7a42 d478 7a42 527a 7a42 1679 7a42
00000280: b46b 7a42 837a 7a42 ab4f 7a42 9b7e 7a42
00000290: a178 7a42 824e 7a42 f379 7a42 5077 7a42
000002a0: 056d 7a42 1595 5ab9 0a78 7a42 9a77 7a42
000002b0: a374 7a42 0659 7a42 0977 7a42 bc65 7a42
000002c0: a379 7a42 126f 7a42 4f4f 7a42 8246 7a42
000002d0: 1c79 7a42 927a 7a42 b541 7a42 263f 7a42
000002e0: 896d 7a42 fd74 7a42 3878 7a42 7596 f7b7
000002f0: 7063 7a42 9175 7a42 1279 7a42 b870 7a42
00000300: 3177 7a42 8d40 7a42 fd75 7a42 9977 7a42
00000310: d25a 7a42 ef79 7a42 1877 7a42 6f79 7a42
00000320: dadf 36bb b57c 7a42 8076 7a42 b2d3 e0b9
00000330: 7a7a 7a42 4a7a 7a42 3c6f 7a42 d976 7a42
00000340: 8d79 7a42 74fd 4439 147a 7a42 096f 7a42
00000350: 3778 7a42 9777 7a42 5574 7a42 53d4 133a
00000360: 5f42 7a42 ba74 7a42 7a75 7a42 d546 7a42
00000370: f778 7a42 ba7c 7a42 f477 7a42 d549 7a42
00000380: a372 7a42 b473 7a42 5472 7a42 1173 7a42
00000390: e14a 7a42 457c deb8 b577 7a42 fc45 7a42
000003a0: 2382 7a42 af42 7a42 0974 7a42 5a45 beb6
000003b0: 457a 7a42 9379 7a42 9079 7a42 f979 7a42
000003c0: e13f 7a42 ed7c 7a42 1c78 7a42 7475 7a42
000003d0: ed67 7a42 b478 7a42 267d 00ba 1a72 7a42
000003e0: f867 7a42 8c75 7a42 2c77 7a42 b473 7a42
000003f0: ca52 7a42 1b79 7a42 a47a 7a42 7879 7a42

layer3.bias f4 [6]
39.923992 34.27887 54.571686 13.5115795 51.28777 1.0353872
00000000: 2bb2 1f42 901d 0942 6849 5a42 6e2f 5841
00000010: ad26 4d42 9187 843f
