models/410000-trained_model-17-07_25.pth (torch, 79239 bytes, 6 tensors)

layer1.weight f4 [128, 14]
000000 a5 2f a8 3c fa 94 94 3c ea 32 20 3c 9d 95 c7 3c
       0.020530531 0.018137444 0.009777764 0.024363333
000010 74 e9 11 3d e9 e5 2e 3d af 77 47 3d 59 c9 0c 3d
       0.03562303 0.04269973 0.048698124 0.034371708
000020 b4 4d 69 3d d8 f5 11 3d 33 3f 21 3d db d6 7f 3d
       0.05695887 0.035634845 0.039366912 0.06246076
000030 32 be 21 3d 13 00 39 3d ad 1d d6 bd 37 32 0f be
       0.039488025 0.045166086 -0.10454879 -0.13983999
000040 be e9 79 be 1e c0 ab be e4 8f a2 be a1 4f e5 bf
       -0.24405572 -0.3354501 -0.31750405 -1.7914926
000050 d1 dd a1 3d 12 39 a7 3d 70 9d a0 3d 87 47 73 3d
       0.07903636 0.08165182 0.07842529 0.059394386
000060 f1 80 ac 3d bf 29 a2 3d 20 71 88 3d 23 5c a0 3d
       0.08423031 0.07918119 0.06662202 0.07830074
000070 ee 62 05 be a1 cb 30 be 61 2d 09 be 3b ac 05 bf
       -0.1302602 -0.17265178 -0.13396217 -0.5221593
000080 0a d6 a1 be 40 0f ee bf 9b f6 a6 3b 7d c7 88 3d
       -0.3160861 -1.8598404 0.0050953156 0.06678674
000090 c8 9d 19 3d ea d0 a4 3d 1a d3 8a 3d 52 52 49 3d
       0.037503988 0.0804766 0.06778546 0.049150772
0000a0 04 b9 51 3d 4a 23 1d 3d 20 c0 69 bd 5b a3 96 bd
       0.051201835 0.038363732 -0.05706799 -0.07355376
0000b0 96 90 04 bd fc ba 09 bf 56 36 d1 be be a9 bd bf
       -0.03236445 -0.5380094 -0.40861768 -1.4817426
0000c0 f5 69 3f 3b c9 bf a0 3d 29 0c 1e 3d 43 80 a0 3d
       0.0029207442 0.0784908 0.038585816 0.07836964
0000d0 f0 cb 4e 3d d5 36 ae 3c 4f 44 56 3d 4e 30 50 3c
       0.05048746 0.02126638 0.052311238 0.012706829
0000e0 92 94 bc 3c c3 a5 9d 3c 9a c2 1e 3c b2 75 d2 3c
       0.023020063 0.01924408 0.009689951 0.025690887
0000f0 94 35 1e 3d f5 e2 32 3d 5a 53 4a 3d 36 32 19 3d
       0.038625315 0.043673474 0.049395896 0.0374014
000100 85 90 7f 3d 6e 8d 1b 3d cc 69 27 3d 40 cd 8a 3d
       0.062393684 0.037976675 0.04087238 0.067774296
000110 04 a2 24 3d 3d 9b 3f 3d d8 7b b6 3c a4 11 a8 3c
       0.040193573 0.046778906 0.02227585 0.020516224
000120 1a 61 33 3c 07 0b d7 3c 6e 7d 30 3d e4 3d 2c 3d
       0.010948444 0.026250375 0.04308837 0.04205121
000130 ba d8 46 3d 2e 67 13 3d 32 a3 77 3d 3c 1b 1b 3d
       0.04854653 0.03598707 0.06045837 0.03786777
000140 7f 0c 24 3d f8 7e 86 3d 04 c2 23 3d 9f e0 38 3d
       0.04005098 0.06567186 0.03997995 0.04513609
000150 a0 50 b0 3c 3a fe 9b 3c d8 67 1d 3c 5e 91 d0 3c
       0.02152282 0.019042123 0.009607278 0.025459941
000160 76 2b 1e 3d 0d 5d 2d 3d e3 eb 45 3d f4 53 10 3d
       0.038615666 0.04232507 0.048320662 0.035236314
000170 0e 01 74 3d 2c 18 16 3d 6f 9e 21 3d a1 28 83 3d
       0.05957132 0.036644146 0.039457735 0.06404234
000180 7b 8e 21 3d ca 35 37 3d 9d ba b4 3c ac 73 9c 3c
       0.03944252 0.04472903 0.02206164 0.019098125
000190 0d 09 29 3c d6 cd ce 3c a9 11 1e 3d a1 c3 30 3d
       0.010317099 0.025244635 0.03859106 0.043155316
0001a0 46 e1 48 3d ab a4 14 3d d8 01 78 3d 73 b6 18 3d
       0.049042962 0.036289852 0.060548633 0.037283372
0001b0 df 9a 24 3d 30 50 88 3d e6 af 23 3d f3 02 3c 3d
       0.04018676 0.066559196 0.03996267 0.04590125
0001c0 2d 72 ad 3c 27 fc 94 3c c3 44 20 3c a2 a7 c9 3c
       0.021172607 0.018186642 0.009782019 0.024616066
0001d0 a8 45 13 3d 58 e4 30 3d d1 19 48 3d a5 25 11 3d
       0.0359551 0.043186516 0.048852745 0.03543629
0001e0 01 98 72 3d 7b cc 14 3d e5 b9 22 3d fa c4 84 3d
       0.059226993 0.03632782 0.039728064 0.06482883
0001f0 19 e3 21 3d f6 51 3a 3d 48 cf ae 3c d1 d1 a6 3c
       0.039523218 0.04548832 0.021339074 0.02036372
000200 0c 2c 2f 3c 1d 76 d3 3c 61 7f 2f 3d f0 54 27 3d
       0.010691654 0.025813157 0.042846087 0.040852487
000210 cd 90 42 3d c7 24 0d 3d e9 84 6e 3d e2 12 18 3d
       0.047501374 0.0344589 0.05823222 0.037127383
000220 cf 63 21 3d 1b 0f 81 3d 28 d3 21 3d 92 ac 35 3d
       0.039401826 0.06301709 0.039508015 0.04435403
000230 cf c3 b6 3c a9 18 ad 3c 2a 12 34 3c ff 72 da 3c
       0.022310166 0.021129923 0.010990659 0.026666163
000240 33 f5 3a 3d 14 c1 25 3d 10 cc 3f 3d 5b 9b 11 3d
       0.045643996 0.040467337 0.04682547 0.03554855
000250 aa 81 76 3d 13 43 1b 3d f7 c1 21 3d 2d 50 84 3d
       0.06018225 0.037905764 0.03949162 0.06460605
000260 0a d5 21 3d a3 cf 33 3d 65 48 5a 3d 06 ed 5e 3d
       0.03950981 0.04389919 0.053291697 0.054425262
000270 83 1a e2 3c 97 f9 21 3d 24 07 4b 3d a1 70 6d 3d
       0.027600532 0.039544668 0.049567357 0.05796874
000280 4e 3b 97 3d 82 2e 50 3d 6b 8f 72 3d 60 1d 3a 3d
       0.07384358 0.050825603 0.059218805 0.04543817
000290 1b 93 af 3d 22 11 80 3d 2c 98 8b 3d 87 38 8b 3d
       0.0857298 0.06253268 0.06816134 0.06797891
0002a0 4d 45 cc bd b0 8c d4 bd 7d 7c 68 bd 09 89 51 be
       -0.099741556 -0.103783965 -0.056759346 -0.20462431
0002b0 cb b8 9a be b0 29 ef bf a3 5c a7 3d 14 3e 40 3d
       -0.3021911 -1.8684597 0.08171966 0.046934202
0002c0 66 92 97 3d 42 ed 80 3d 7b 6f 8e 3d 90 a6 ad 3d
       0.0740097 0.06295253 0.06954857 0.08479035
0002d0 56 61 75 3d 2a 4b a3 3d e9 04 ae 3c 2a ef a4 3c
       0.05990728 0.07973321 0.021242576 0.020133574
0002e0 c3 da 2b 3c fb c6 d2 3c dd a6 2c 3d 16 7d 26 3d
       0.010489169 0.025729647 0.04215132 0.040646635
0002f0 18 f2 40 3d 93 d6 0c 3d c9 c8 6d 3d 8f 1e 17 3d
       0.04710588 0.03438432 0.05805281 0.036894377
000300 b8 24 20 3d 69 de 7f 3d ba a2 20 3d 09 04 34 3d
       0.039097518 0.062467966 0.03921769 0.04394916
000310 a6 3d 9c 3d 8b c7 d4 3d ef 28 fd 3d 1e 7e 17 3d
       0.07628946 0.10389622 0.12361323 0.03698551
000320 e2 25 11 3e 75 5c a5 3d b9 ac 21 be 18 c6 a1 3d
       0.14174607 0.080742754 -0.15788545 0.078991115
000330 a9 8b 88 bc 50 22 af 3d c5 67 87 3d fe b3 5b 3e
       -0.016668158 0.085514665 0.06611589 0.2145538
000340 26 95 3d bd a9 9b dc bd 6d 13 c1 3c e5 40 ae 3c
       -0.046284817 -0.10771877 0.023568833 0.021271178
000350 0f cd 38 3c c8 90 dc 3c 0e 1e 3c 3d b8 17 2c 3d
       0.0112793585 0.026924506 0.0459271 0.042014807
000360 d9 9b 46 3d 25 b7 18 3d 24 98 80 3d 20 55 21 3d
       0.04848847 0.037284035 0.062790185 0.039387822
000370 14 0b 27 3d 18 5b 8b 3d 7f 93 24 3d bf 7c 3a 3d
       0.04078205 0.06804484 0.040179726 0.045529123
000380 5b c4 b3 3c cf b0 a1 3c 1c 2d 2b 3c a6 1d d2 3c
       0.021944216 0.01973763 0.010447767 0.025648903
000390 f3 ea 26 3d a1 31 2d 3d 6c f7 46 3d a4 17 12 3d
       0.04075141 0.042283658 0.048575804 0.035667077
0003a0 ec 65 75 3d d3 dd 18 3d de 19 23 3d ce 55 85 3d
       0.059911653 0.037320923 0.03981959 0.065105066
0003b0 7a 9a 22 3d b4 f5 38 3d d1 51 1d ba f3 4b 20 ba
       0.0396981 0.045156196 -0.00060012663 -0.0006114833
0003c0 63 17 19 b8 58 96 3f ba 6b 0b 15 ba d3 36 f3 b7
       -3.6499823e-05 -0.0007308475 -0.00056856003 -2.8993387e-05
0003d0 e7 21 3e ba 70 62 34 ba 37 4b 1e b8 e1 3b 48 b8
       -0.00072529766 -0.00068811234 -3.7740185e-05 -4.7739482e-05
0003e0 08 0e e4 b9 89 da 79 b7 e9 7f 2c ba 6e f5 42 ba
       -0.00043498003 -1.4892438e-05 -0.00065803394 -0.00074370846
0003f0 ad 6a ba 3d 8a e1 47 3d b2 2d 99 3d e8 36 0b 3e
       0.09102378 0.048799075 0.07479419 0.13595164

layer1.bias f4 [128]
000000 59 aa f4 3c 0d 01 68 bd 47 be a5 bd a6 68 76 bd
       0.029866384 -0.056641627 -0.08092933 -0.060158394
000010 81 e6 0a 3d 39 3e 03 3d f4 6c 00 3d de 71 03 3d
       0.033911232 0.032041762 0.031353906 0.032091014
000020 61 e4 fe 3c 1f 62 fc 3c d0 ce 02 3d 69 26 29 3d
       0.031114759 0.030808507 0.031935513 0.041296396
000030 16 56 b6 bd ba 61 fc 3c 96 35 77 3d d0 57 0b 3d
       -0.08903138 0.030808318 0.060353838 0.03401929
000040 d9 1a 02 3d 86 1d df b9 58 e5 03 3e 3b e4 f9 3c
       0.031763885 -0.0004255587 0.12880456 0.030504337
000050 4a 9d fc 3c 2c 4e 02 3d 73 cb 00 3d a5 81 9a bd
       0.03083672 0.03181283 0.031444024 -0.07544259
000060 8e e6 08 3d 8c 39 a3 3d f4 c5 90 3d 1e ab ee 3c
       0.033423 0.079699606 0.070690066 0.02913433
000070 fe 6e fb 3c eb 28 fa 3c fb 03 fb 3c ce 37 f4 3c
       0.030692574 0.03053709 0.030641546 0.029811766
000080 d5 d9 04 3d 48 0d d3 3e 44 5e fe 3c 47 3a 02 3d
       0.032434303 0.4122107 0.031050809 0.03179386
000090 00 37 25 3d c6 52 94 b9 ca 3a a3 3d 6d 29 1a 3d
       0.040335655 -0.0002829043 0.079701975 0.037637163
0000a0 09 53 00 3d 6a 42 55 3d bc 2d fd 3c 5b 37 5b 3d
       0.03132919 0.05206529 0.030905597 0.053519588
0000b0 8f 99 01 3d ba c6 01 3d 93 66 01 3d 6d 11 01 3d
       0.031640586 0.03168366 0.031591963 0.03151076
0000c0 ef 5e fa 3c ff 97 02 3d d2 d4 81 bd 53 90 91 bd
       0.030562846 0.031883236 -0.063394204 -0.07107606
0000d0 15 b8 03 3d f1 3a 05 3d 6b 14 36 3e be 5b 02 3d
       0.032157976 0.032526914 0.17781226 0.031825773
0000e0 fe 4a 2a 3c b3 3f f7 3c 14 ec 01 3d 38 9e e2 3c
       0.010393856 0.030181741 0.031719282 0.027663335
0000f0 7d c7 f8 3c 9d 49 06 3d 35 4a 01 3d 18 bb 00 3d
       0.03036856 0.032785047 0.03156491 0.031428427
000100 62 4a 0a 3d c2 6c 0a 3d 13 44 08 3d 01 93 06 3d
       0.033762343 0.033795126 0.033268046 0.032855038
000110 29 1d 3c 3d 68 95 38 3d 51 b4 05 3d b5 a6 fd 3c
       0.045926247 0.04506436 0.032642666 0.030963281
000120 ca c2 97 3d 0a b6 47 3d 59 16 19 3d d2 e8 04 3d
       0.074102 0.04875759 0.037374828 0.032448597
000130 d1 73 fa 3c 1c 03 0c 3d d3 b3 44 3d 25 48 0d 3d
       0.030572804 0.034182653 0.048023056 0.03449263
000140 a3 64 f8 3c da 46 f9 3c c6 6b 03 b9 57 23 08 3d
       0.030321425 0.030429292 -0.00012533282 0.033236828
000150 71 03 16 3d 5c 07 0c 3d e0 72 19 3d 91 09 03 3d
       0.036624376 0.034186706 0.03746307 0.031991545
000160 ce 9f 06 3c 45 72 34 3d ca a9 40 bd d5 a0 0c 3d
       0.008216811 0.04405429 -0.047036923 0.03433307
000170 bd e3 fe 3c 1e ad 06 3d 23 41 9b 3d 05 b7 67 3d
       0.031114453 0.03287994 0.07580783 0.056571025
000180 69 01 ec 3c eb c5 70 3d d2 8e fa 3c 5b 0c 46 bd
       0.028809266 0.0587825 0.03058568 -0.048351627
000190 de d1 e2 3c 07 67 04 3d 02 9b f2 3c d7 b2 ef 3c
       0.027687963 0.032324817 0.02961493 0.029260082
0001a0 9a 2b 02 3d e1 d8 00 3d 96 a1 fe 3c 84 0a 01 3d
       0.031779863 0.03145683 0.03108291 0.03150417
0001b0 50 9b 02 3d 5d 1d fd 3c 4e b6 fc 3c 93 3b 2b 3e
       0.0318864 0.03089779 0.030848648 0.16721945
0001c0 38 01 9d bd 37 8d fc 3c 4a c7 8a 3b ad 5a 59 3e
       -0.07666248 0.030829055 0.004235183 0.21225996
0001d0 93 6d 03 3d 63 99 f9 3c 2f a3 fb 3c 85 15 f6 3c
       0.03208692 0.030468648 0.03071746 0.030039558
0001e0 e9 2a 88 bd ec 8a ff 3c 5a 6d 6a 3d d3 95 03 3d
       -0.066488095 0.031194173 0.057233192 0.032125305
0001f0 59 1c 01 3d 57 08 01 3d f0 ac 08 3d da 90 01 3d
       0.031521175 0.031502094 0.03336805 0.03163228

layer2.weight f4 [128, 128]
000000 ab aa 6e 39 42 71 e3 b9 8e c6 98 b9 e2 54 d3 b9
       0.00022761028 -0.00043381198 -0.00029139634 -0.000403083
000010 86 a1 5a 39 ac 72 53 39 da b3 54 39 91 fe 42 39
       0.00020850272 0.00020165247 0.00020284895 0.00018596115
000020 a3 a0 51 39 49 5e 69 39 2d 89 5f 39 3f d8 5f ba
       0.00019991635 0.00022255736 0.00021318039 -0.0008538998
000030 f5 54 6c b9 3e 7a 67 39 01 59 4f b9 0c 54 44 39
       -0.00022538363 0.00022075415 -0.00019774215 0.00018723327
000040 05 29 4e 39 7f 8f 3a 37 c7 79 f5 39 83 fb 63 39
       0.00019660972 1.1119874e-05 0.00046820773 0.00021742102
000050 9c 49 4f 39 3b 52 57 39 9e db 50 39 cc dd bd b9
       0.0001976848 0.00020534631 0.0001991824 -0.0003621414
000060 f2 7a 4c 39 a5 ba 89 3a c9 f0 a5 38 4d dd 0b 39
       0.00019500757 0.0010507895 7.912663e-05 0.00013338514
000070 9b 17 56 39 00 8d 3f 39 ba 06 57 39 e0 1d 6d 39
       0.00020417424 0.00018267706 0.00020506504 0.0002261321
000080 8e 8a 5e 39 a1 11 b1 3b 6d aa 69 39 ea 92 50 39
       0.00021223185 0.005403713 0.000222841 0.00019891156
000090 ff 6e 1f ba 5d 56 3d 3a c8 ae 8e b9 5f f6 38 39
       -0.00060819084 0.0007222647 -0.00027214573 0.00017639388
0000a0 56 5d 6f 39 85 78 ea 38 5c 45 5a 39 b8 26 05 39
       0.00022827587 0.00011180438 0.00020815938 0.00012698292
0000b0 6d d8 4f 39 e4 32 67 39 a2 00 68 39 dc 6a 69 39
       0.00019821683 0.00022048835 0.0002212548 0.0002226042
0000c0 17 4f 5d 39 e4 4d 57 39 97 f3 ab b9 4a 1e 6c b9
       0.00021105666 0.00020533014 -0.0003279715 -0.00022517997
0000d0 08 9b 4e 39 be 8d 51 39 a7 c4 d8 39 ff 30 4f 39
       0.00019703445 0.00019984596 0.00041345248 0.00019759311
0000e0 15 b2 3c 39 94 3e 44 39 d6 18 74 39 04 30 47 39
       0.00017995418 0.00018715329 0.00023278905 0.00018996006
0000f0 08 69 65 39 66 ee 5b 39 73 20 67 39 16 cb 4f 39
       0.00021878269 0.00020974278 0.00022041965 0.00019816714
000100 5f 4e 2f 39 65 8d 4d 39 02 42 56 39 7a fb 46 39
       0.00016718496 0.00019602997 0.0002043322 0.00018976434
000110 61 dd 03 ba 7e 84 fc b9 8c 08 57 39 f5 17 5e 39
       -0.00050302414 -0.000481639 0.00020507182 0.00021180495
000120 c3 cf 66 39 55 a0 93 39 90 1b 41 b9 d9 0a 56 39
       0.00022011907 0.00028157482 -0.00018416182 0.00020412671
000130 6d 06 6a 39 c5 32 58 39 48 56 db b9 0e 01 6b 39
       0.00022318373 0.00020618278 -0.0004183522 0.0002241174
000140 1b f5 6d 39 0b 62 61 39 f5 14 0a ba e2 06 41 39
       0.0002269339 0.00021494196 -0.0005267405 0.00018408478
000150 d6 fb 00 36 c0 09 5d 39 0b 6e 4b 39 40 07 63 39
       1.9220074e-06 0.00021079835 0.00019400583 0.00021651108
000160 4f 1f 06 3a 64 d8 1c 39 bc 3a ec b9 c6 93 4f 39
       0.00051163597 0.00014957931 -0.00045057188 0.00019796108
000170 08 59 68 39 11 fe 59 39 d6 86 ae 37 16 d9 45 38
       0.00022158411 0.0002078938 2.0805204e-05 4.7170637e-05
000180 b7 7a b4 38 b4 f6 b1 39 4b 20 76 39 01 f2 05 ba
       8.605926e-05 0.0003394388 0.00023472418 -0.0005109609
000190 ea ae 81 39 65 8f 4b 39 51 2c 3d 39 7b c5 82 39
       0.00024735118 0.00019413007 0.00018040954 0.00024942667
0001a0 10 fc 6d 39 ae ed 5d 39 9d 3b 5b 39 17 e1 43 39
       0.00022695982 0.00021164745 0.00020907675 0.00018680502
0001b0 96 c1 55 39 68 8a 63 39 5f 8d 70 39 1a 81 39 3a
       0.0002038538 0.00021699967 0.00022940848 0.00070764276
0001c0 dc f9 95 38 8c 6b 61 39 ad 3e 03 b9 24 13 90 3a
       7.1514136e-05 0.00021497736 -0.00012516482 0.0010992032
0001d0 97 c3 83 39 b8 84 5a 39 e0 03 5d 39 7c 85 60 39
       0.00025131993 0.00020839542 0.00021077646 0.00021412031
0001e0 54 46 2d ba db bf 55 39 9e 1f bb b9 52 7f 69 39
       -0.0006609906 0.00020384735 -0.00035690976 0.00022268042
0001f0 15 94 5c 39 f9 0a 69 39 fe 42 54 39 a2 e4 55 39
       0.00021036 0.00022224699 0.00020242852 0.00020398435
000200 9e 62 56 39 e4 70 3b 3a 08 56 54 3a bd 8a 48 3a
       0.00020445368 0.0007150306 0.0008099978 0.0007650068
000210 76 b9 00 b9 e0 28 33 39 33 35 1f 39 d0 13 56 39
       -0.00012276121 0.00017085997 0.0001518324 0.00020416011
000220 2d c2 1f 39 2b 2f 04 39 a7 06 ef 38 e7 7f e8 b9
       0.00015235758 0.00012606072 0.00011397647 -0.00044345783
000230 38 ce 21 3a 9d 81 16 39 14 c9 1d 3a 47 fc aa 37
       0.00061723916 0.000143534 0.00060190377 2.0383055e-05
000240 3d ff 09 39 ac e5 3c b7 ce a9 83 3a 82 5d 00 39
       0.00013160422 -1.1259148e-05 0.0010045113 0.00012241866
000250 39 dd f4 38 70 18 1e 39 06 e8 ea 38 cd 66 42 3a
       0.000116760326 0.00015077158 0.00011201207 0.0007415831
000260 27 cb 5d 38 d5 c7 80 39 46 a4 54 39 f7 a4 0e 39
       5.2879706e-05 0.0002456295 0.00020279092 0.0001360363
000270 02 ab a0 38 b8 a1 16 39 b8 21 0e 39 d0 77 13 39
       7.661247e-05 0.0001436536 0.00013554737 0.00014063646
000280 e4 c9 73 38 27 7f a0 3a d6 e2 08 39 b3 fd eb 38
       5.812374e-05 0.0012244926 0.00013054474 0.000112529284
000290 7f 3c 3b ba 24 54 99 39 03 11 3d b9 ba 16 f7 38
       -0.00071424985 0.00029245124 -0.00018030782 0.00011782111
0002a0 0b 09 10 39 83 e8 18 39 27 3b de 37 4f 44 04 39
       0.00013736279 0.00014582467 2.6492007e-05 0.00012613948
0002b0 1b 62 07 39 ed 7e 1c 39 52 54 16 39 55 b6 0e 39
       0.0001291115 0.00014924603 0.00014336527 0.00013610099
0002c0 41 a0 fa 38 69 f9 f6 38 18 28 3c 3a cf ba 3b 3a
       0.000119507786 0.0001177665 0.00071776053 0.00071613205
0002d0 20 ca e7 38 cb bf 2a 39 c4 5c 5a b8 50 e6 fb 38
       0.00011052587 0.00016283912 -5.2061645e-05 0.00012011512
0002e0 a3 a4 69 39 97 ec 09 39 25 0a 19 39 47 12 1e 39
       0.00022281944 0.00013153475 0.00014594996 0.00015074863
0002f0 6b 94 1a 39 2d 4c 9c 38 ee c0 0b 39 3b e9 ee 38
       0.00014741874 7.4528485e-05 0.00013327945 0.00011392167
000300 3a 77 ea 38 a6 33 43 39 e3 57 5f 38 13 02 09 39
       0.00011180197 0.0001861589 5.3249194e-05 0.00013066111
000310 70 9e 32 b9 72 c8 90 b9 79 a5 73 b8 a3 e5 fc 38
       -0.00017034425 -0.00027615164 -5.8089823e-05 0.000120590696
000320 d1 8a b4 3a af 59 99 39 d6 02 31 39 46 49 06 39
       0.0013774281 0.00029249254 0.00016881092 0.00012806532
000330 77 aa 19 39 df 99 5c 38 33 f8 93 b9 4a 35 6d 39
       0.0001465472 5.259539e-05 -0.00028222948 0.00022621933
000340 11 e6 f7 38 4c 54 60 39 c4 19 2c 3a c2 56 31 39
       0.00011820731 0.00021393708 0.00065651187 0.00016912355
000350 91 d6 49 b8 3c 90 3f 39 3c a8 03 39 5f ee 08 39
       -4.8121965e-05 0.00018268911 0.00012555806 0.00013058771
000360 cf 1b f3 39 8c 7b ff 39 eb 3b 3b b7 f6 f6 19 39
       0.0004636929 0.0004872944 -1.1160019e-05 0.00014683217
000370 1a 56 fb 38 1e e4 07 39 4a 4d 38 38 4c 71 d9 b8
       0.0001198465 0.00012959584 4.3941e-05 -0.000103684695
000380 e4 30 24 b9 dc 34 c5 39 bb 13 1f 39 ed 36 52 3a
       -0.00015658472 0.0003761415 0.00015170772 0.0008019049
000390 3d 3e 75 39 3e df 53 39 88 04 0d 39 52 dd 1f b7
       0.00023388206 0.00020205692 0.00013448496 -9.528669e-06
0003a0 ad ac 24 39 d5 e7 e4 38 ea 9b 17 39 3b 9b 82 38
       0.00015704586 0.00010915069 0.00014458565 6.227797e-05
0003b0 d3 83 1b 39 98 a0 e4 38 eb 7a 3c 39 3a fe 07 3b
       0.0001483106 0.000109018 0.00017974868 0.0020750896
0003c0 93 ce c8 39 3f 8d a9 38 8e 7f fc 39 9a b0 3d 39
       0.00038300882 8.084857e-05 0.0004816022 0.00018090234
0003d0 b3 de cf 38 c3 1e 17 39 e1 bc 1d 39 d2 42 0c 39
       9.91201e-05 0.00014411942 0.0001504305 0.00013376333
0003e0 f7 27 14 3a a0 a4 1a 39 2a 5a ef b7 e6 5f 23 39
       0.0005651707 0.00014747912 -2.8533006e-05 0.00015580616
0003f0 4d 94 27 39 ac d0 0d 39 1f 8d 69 39 20 19 1c 39
       0.00015981607 0.00013524544 0.00022273183 0.00014886679

layer2.bias f4 [128]
000000 3f 87 0f 3a f2 23 fb 39 94 97 1d 3a 39 9d 14 3a
       0.00054751703 0.00047901232 0.00060116616 0.000566918
000010 7b 00 e5 35 c2 78 88 b7 b5 60 01 3b 46 5d ee 39
       1.7061969e-06 -1.6268696e-05 0.001974148 0.00045464392
000020 c9 ce 05 3a fd 13 10 3a 61 5a b6 b9 fe 9b 4d 3f
       0.0005104361 0.00054961425 -0.00034781083 0.8031615
000030 5d 82 07 3a 27 a9 ee 39 b1 cc de 39 9a ba f2 39
       0.0005169267 0.00045520926 0.00042495647 0.00046296866
000040 f4 61 b5 b7 ea 09 14 3a 3e e0 bb 39 fe a9 19 3a
       -2.1622494e-05 0.0005647229 0.00035834493 0.00058618176
000050 a6 07 10 3a 02 fb 16 3a 22 44 13 3a 92 40 13 3a
       0.0005494304 0.0005759449 0.00056177576 0.00056172267
000060 c9 a1 d2 39 60 f8 59 b6 ab a3 24 3a bb e7 11 3a
       0.0004017486 -3.2480093e-06 0.0006280492 0.00055658416
000070 02 fd 16 3a 4b 65 7c 3a 35 99 f7 39 97 18 bc b9
       0.0005759747 0.0009628131 0.0004722566 -0.00035876475
000080 37 20 40 3a 55 9a 08 3a 26 15 e9 39 47 1f 11 3a
       0.0007329019 0.00052109855 0.0004445698 0.0005535972
000090 f5 b6 85 3a 69 58 0c 3a ba 1a 09 3a 45 b0 0b 3a
       0.001020162 0.00053537503 0.0005230118 0.00053286954
0000a0 2b 13 0e 3a 45 60 f4 39 59 9a af 3a 3a c1 14 3a
       0.00054197264 0.00046611033 0.001339744 0.0005674545
0000b0 fe a4 08 b7 32 bd 1f 3a 93 04 d6 39 90 5e dd 38
       -8.144647e-06 0.0006093561 0.0004082067 0.00010555715
0000c0 28 4a fb 39 1e f9 0a 3a 57 80 4e 3a 70 01 0d 3a
       0.000479297 0.00053014036 0.00078774005 0.00053789373
0000d0 bb ec 0d 3a cf ea 0e 3a 40 63 09 3a f4 2d 0c 3a
       0.0005413999 0.00054518593 0.00052409247 0.0005347424
0000e0 de 47 e7 39 d3 cf 39 bb 58 dd 00 3a 30 2e 71 3a
       0.000441133 -0.0028352633 0.0004915795 0.0009200303
0000f0 09 71 d5 b6 57 a4 fe 3a 38 77 b5 36 17 7c 79 3a
       -6.3610537e-06 0.0019427639 5.4080992e-06 0.0009517087
000100 21 18 a8 3a df cd 0b 3a 27 c6 c8 39 49 c7 3c 3a
       0.0012824574 0.00053331064 0.00038294608 0.00072013267
000110 04 ae f2 39 13 d1 0d 3a bf 5c 0a 3a d9 34 ad b9
       0.0004628749 0.00054098776 0.00052781025 -0.00033036506
000120 c5 a5 08 3a 37 f7 cf 39 65 52 81 39 cf ed 0a 3a
       0.000521269 0.00039666306 0.00024666186 0.00052997185
000130 42 b5 42 3a 65 8e 8c 3a ad 85 13 3a fa 59 08 3a
       0.0007427522 0.0010723589 0.0005627524 0.0005201396
000140 69 1e 0a 3a b1 af e5 39 c1 e2 8d b7 0e ef 5f b7
       0.00052688137 0.00043809184 -1.69141e-05 -1.3347495e-05
000150 e2 88 fb 39 1c bc 09 3a 4c 61 21 3a f1 79 f0 39
       0.00047976436 0.0005254166 0.0006156161 0.0004586722
000160 66 b0 87 bb df 20 6f 37 3f ea c8 3f 52 5f 04 3a
       -0.0041409014 1.42531635e-05 1.5696486 0.0005049604
000170 d2 01 0f 3a 8b 7a 18 3a b0 c3 02 3a 20 dd 04 3a
       0.00054552883 0.00058166 0.0004988266 0.00050683506
000180 e3 0e a3 3a f3 8d 5f b9 31 21 0e 3a 62 b5 0e 3a
       0.001244035 -0.00021319817 0.0005421816 0.0005443898
000190 99 d6 08 3a 2f 8c 12 3a 0b 76 1c 3a b3 f9 87 3a
       0.0005219966 0.0005590347 0.00059685175 0.0010374099
0001a0 fd 11 c7 b9 da db 0d 3a 85 ce 12 3a c5 89 1c 3a
       -0.0003796964 0.00054114836 0.0005600232 0.0005971457
0001b0 7a d4 f0 39 80 f2 f6 39 09 f1 ed 39 5a 7b dd 39
       0.00045934675 0.00047101453 0.00045383748 0.0004224431
0001c0 0b b3 61 3f d6 16 10 3a ac 54 7f b7 16 17 08 3a
       0.8816382 0.0005496567 -1.5218899e-05 0.00051914284
0001d0 0d 30 b8 3a 42 fb 5d 3a 0a 16 f4 39 c4 be 2b 3a
       0.0014052406 0.0008467921 0.00046555727 0.00065515586
0001e0 ab 92 f2 39 05 0f ea 39 6d b5 d0 39 02 28 49 ba
       0.00046267113 0.00044643148 0.00039808024 -0.0007673503
0001f0 32 36 03 3a 23 f6 9c 39 37 8b c4 39 2b 84 df 39
       0.0005005329 0.00029938025 0.00037487756 0.00042632347

layer3.weight f4 [6, 128]
000000 c1 10 74 39 27 35 c1 39 f2 cb d4 38 0a 7c 4d 39
       0.00023275895 0.0003685143 0.000101469355 0.00019596532
000010 05 96 60 37 c7 16 bd 36 66 8a 65 3a 46 15 ba 3a
       1.338637e-05 5.6352906e-06 0.000875628 0.0014197014
000020 d3 aa b2 38 39 62 1a 39 f3 57 79 3a 80 7c 0a 3f
       8.51952e-05 0.00014723175 0.00095117016 0.5409622
000030 a4 67 05 3a bb 80 4e 39 df ec 0d 39 47 15 31 39
       0.0005088991 0.00019693647 0.00013535049 0.00016887962
000040 25 9a e0 b4 4e fb a1 39 9e c3 12 39 5c d4 ac 38
       -4.1835406e-07 0.0003089555 0.00013996518 8.241154e-05
000050 6f e9 00 39 79 65 95 38 01 58 00 39 1c 12 14 39
       0.00012293992 7.1237744e-05 0.00012239815 0.00014121126
000060 7d 16 84 38 90 fc 54 b7 f4 9c 0d 39 da 79 ab 39
       6.298439e-05 -1.2694989e-05 0.00013505277 0.00032706448
000070 f1 e7 d2 38 fe 7a 1d b9 e2 a3 31 3a 6b 76 16 b7
       0.00010056783 -0.00015018505 0.00067764346 -8.968268e-06
000080 5c 93 67 39 9f eb 11 39 11 81 2a 39 3c ef 5b 39
       0.00022084772 0.00013916053 0.00016260544 0.0002097459
000090 b3 c3 51 3c dc 0d 1b 39 b7 88 43 39 c7 08 27 39
       0.012803006 0.00014787115 0.0001864758 0.00015929631
0000a0 67 71 6a 39 91 75 51 39 04 fa 80 3a 2f 08 2e 39
       0.00022358225 0.0001997559 0.0009840135 0.00016596982
0000b0 4d 77 48 b7 f3 5d 09 39 c1 86 34 38 8f 8f 91 38
       -1.1948706e-05 0.00013100337 4.3040844e-05 6.940879e-05
0000c0 61 8f 7f 39 26 08 ec 39 ed a6 e3 39 d9 1e 63 39
       0.00024372108 0.000450195 0.00043421183 0.00021659899
0000d0 ae 95 11 39 06 96 bf 38 6d 14 47 39 75 34 bd 38
       0.00013884038 9.135534e-05 0.00018985728 9.021993e-05
0000e0 00 a8 34 38 f9 04 1a 37 57 d8 9a 38 46 07 9b 39
       4.3071806e-05 9.180273e-06 7.383589e-05 0.00029569323
0000f0 21 6f 2d 37 ab 42 46 39 9f d7 02 b7 33 dd f3 38
       1.0337478e-05 0.00018907587 -7.798807e-06 0.000116283445
000100 5d 20 ca b9 c5 b5 8d 39 6d 11 43 39 16 64 96 39
       -0.00038552555 0.00027029045 0.00018603141 0.000286848
000110 a5 74 71 39 c9 23 67 39 44 39 66 39 14 00 5e ba
       0.00023027004 0.00022043208 0.00021955842 -0.00084686396
000120 7d b8 15 3a da 4c d6 3a 72 aa 25 39 25 6e c6 38
       0.000571139 0.0016349808 0.00015799122 9.461892e-05
000130 b8 39 c6 38 ab 78 68 3c 40 db 2a 39 37 ad ec 39
       9.452127e-05 0.014188926 0.0001629414 0.00045142483
000140 21 19 c5 37 03 d6 3f 39 ce 36 4a b7 9b 0f 43 37
       2.3495932e-05 0.00018294905 -1.20528985e-05 1.1626539e-05
000150 84 5e b5 39 20 4e d6 39 ef 44 0e 39 c5 ed 11 39
       0.0003459343 0.00040875468 0.00013567855 0.00013916854
000160 62 64 95 3a 8a db 4a 34 4b a9 9b 3f 4a d3 91 38
       0.0011397714 1.8892584e-07 1.2161039 6.9534944e-05
000170 de 6c 76 39 19 e5 1d 39 c2 c7 d0 38 c7 11 2d 39
       0.00023500944 0.00015058032 9.955421e-05 0.00016505188
000180 e6 9f 0e 3a 68 57 5c b7 f9 4b 15 39 c2 3b 0a 39
       0.0005440697 -1.3133373e-05 0.0001423805 0.00013182967
000190 99 da 95 39 46 82 c5 38 69 7b e8 b8 47 e7 44 3a
       0.00028582363 9.417957e-05 -0.00011085609 0.00075112697
0001a0 4f 76 3b b7 ce 13 44 39 a5 59 11 39 66 c9 7a b8
       -1.1173614e-05 0.00018699394 0.00013861673 -5.979221e-05
0001b0 62 8f 09 3a 2c ad 4e 39 7e 98 47 39 6d 9c 12 39
       0.0005247501 0.00019710202 0.00019034927 0.00013981918
0001c0 9f 08 2d 3f c5 13 1d 39 4d f4 38 b7 de 83 2a 39
       0.6759128 0.00014980051 -1.1024135e-05 0.00016261588
0001d0 10 af 4e 3a b3 21 06 38 1f 3c 8a 3a 67 74 01 39
       0.0007884363 3.1979474e-05 0.0010546482 0.00012345762
0001e0 92 f6 19 39 c1 ae ef 38 76 68 2d 39 0c 86 8f 38
       0.00014683072 0.000114289585 0.0001653748 6.8437395e-05
0001f0 15 24 0f 3a b0 38 67 39 30 1a cf 3c d9 50 2e 38
       0.0005460394 0.00022050994 0.025281042 4.1560128e-05
000200 e6 15 7e 35 47 ce 71 39 16 c7 f9 38 bc f3 0c 39
       9.465424e-07 0.00023060395 0.00011910328 0.00013442239
000210 1c cc cc 36 a3 88 ef 36 76 d8 6e 3a 5b 6a e3 ba
       6.103435e-06 7.1386617e-06 0.00091112347 -0.0017350422
000220 7b fc 9d 38 1d 04 29 38 f8 9b 0f 3a fd 3b 0a 3f
       7.5333715e-05 4.029657e-05 0.0005478258 0.53997785
000230 eb 36 e6 b9 42 ab 12 38 14 18 54 38 b4 86 63 38
       -0.00043909936 3.496861e-05 5.0567163e-05 5.424647e-05
000240 b5 9c 43 37 91 fe 2a 37 85 76 f9 38 07 60 c6 38
       1.1659392e-05 1.01920605e-05 0.00011895321 9.459262e-05
000250 2a 88 6b 38 74 78 89 39 c4 dc 87 38 9f 30 76 38
       5.615518e-05 0.0002622042 6.4784224e-05 5.8696252e-05
000260 97 87 c5 37 8a a0 df b7 02 c3 09 39 40 94 28 b9
       2.3547369e-05 -2.6658428e-05 0.00013137984 -0.00016076956
000270 a8 2d 63 38 72 89 10 b8 1c b8 37 ba 8c 72 15 b6
       5.4163538e-05 -3.446028e-05 -0.00070083304 -2.2269405e-06
000280 5d ba e3 38 77 28 9c 38 15 5b 9d 38 87 e7 89 37
       0.00010858916 7.446197e-05 7.503309e-05 1.6439486e-05
000290 3e 11 37 bc 8e e7 e3 38 5b e9 dc 38 fe ba ef 37
       -0.011173544 0.00010867334 0.00010533883 2.8578095e-05
0002a0 b8 26 cc b7 29 b1 9f 38 47 d2 b6 39 0f 92 56 38
       -2.4336725e-05 7.6147095e-05 0.00034870414 5.1157604e-05
0002b0 00 5e 28 b7 3f 05 2b b9 02 c5 21 38 89 d6 85 38
       -1.0035466e-05 -0.00016309785 3.856887e-05 6.3818945e-05
0002c0 2c dc 70 b7 e6 b8 b2 b9 62 9f 48 39 95 a9 cd 37
       -1.43563775e-05 -0.00034088566 0.00019132861 2.4516872e-05
0002d0 af e9 9f 38 19 42 66 38 c9 8a 33 38 64 f4 99 38
       7.625238e-05 5.489783e-05 4.280618e-05 7.34113e-05
0002e0 84 68 00 38 3d 99 67 3a 95 49 02 39 53 a1 d0 38
       3.0614916e-05 0.0008834785 0.00012425178 9.948262e-05
0002f0 e7 e0 86 37 67 37 dc 38 a8 09 c8 b5 4a 87 bc 39
       1.6078773e-05 0.00010500737 -1.4903972e-06 0.00035958953
000300 ca 42 4c b9 36 38 ae b8 66 40 32 39 fc cf e8 39
       -0.00019479837 -8.307437e-05 0.00016999393 0.0004440545
000310 2c 72 3b 37 9d 68 10 b8 c3 ac 40 38 27 b9 10 ba
       1.1172651e-05 -3.4429704e-05 4.5937264e-05 -0.0005520754
000320 31 4a 04 ba 92 78 0b bb 04 c2 78 b8 4f b1 8b 38
       -0.0005046456 -0.0021281582 -5.93085e-05 6.661063e-05
000330 66 88 e0 37 35 9f 3f bc 62 6e 62 38 59 7f af b9
       2.6766396e-05 -0.011695673 5.39854e-05 -0.00033473482
000340 35 c4 89 b5 f1 82 4d b9 83 d4 3b 35 28 46 17 36
       -1.0264399e-06 -0.00019599103 6.9972174e-07 2.254159e-06
000350 cc 05 5d b9 af e7 81 b9 00 4c a3 38 ae 03 76 38
       -0.00021078362 -0.00024777415 7.786602e-05 5.8654397e-05
000360 b6 92 3d 3b 00 c7 bb 34 a7 f2 99 3f c5 1f 5a b8
       0.0028926558 3.4976256e-07 1.2027177 -5.2004838e-05
000370 2f 1b 32 b8 8a b6 47 38 81 ff a5 38 b5 b5 fa 37
       -4.2463824e-05 4.76153e-05 7.9154044e-05 2.9886936e-05
000380 9f 12 49 39 9f 59 39 37 30 66 77 38 65 e6 59 38
       0.0001917579 1.1047726e-05 5.898456e-05 5.1951403e-05
000390 3d e0 d1 b8 be ad 7e 38 e7 89 8d b8 14 2e e4 39
       -0.00010007664 6.072013e-05 -6.74909e-05 0.0004352188
0003a0 68 42 fd 36 90 88 48 38 57 f1 9c 38 83 6f a2 39
       7.5477183e-06 4.78109e-05 7.483613e-05 0.0003098213
0003b0 e7 1e f2 b9 da a3 00 38 cb 12 2e 38 d6 2a 94 38
       -0.0004618086 3.0670177e-05 4.1502335e-05 7.065169e-05
0003c0 99 61 3d 3f c1 0f 2d 38 71 cd 1b b6 6a 63 1d 39
       0.7397705 4.1261086e-05 -2.3216382e-06 0.00015009721
0003d0 d6 07 a5 39 9c 70 bd b9 42 2b a5 ba ff 64 21 39
       0.0003147709 -0.0003613279 -0.0012601393 0.0001539178
0003e0 b2 bc 0a 38 dc 38 91 38 c1 15 a3 38 0a 8d d0 b8
       3.30775e-05 6.92473e-05 7.776498e-05 -9.9444835e-05
0003f0 20 82 0c ba 32 6e 42 39 9c 72 c1 bc d0 78 1a 37
       -0.00053599663 0.00018542333 -0.02361422 9.207244e-06

layer3.bias f4 [6]
000000 1b 13 44 bc 31 dc e1 3e 82 b1 80 3f cb 08 b8 3e
       -0.011967446 0.44113305 1.0054171 0.35944209
000010 d4 f6 89 3b 69 4f 97 3d
       0.0042103324 0.07388193
